pretrained_models/PROTEINS/epoch_200_NodeCLModel_withoutAGMTT_withMLP.pth (torch, 33835 bytes, 24 tensors)

convList.0.nn.0.weight f4 [32, 4]
00000000: cc7d 0f3e fb47 3f3e 786a 883d 0d27 43be
00000010: e02b 2fbe 639b 403c 3e67 063c ade3 0d00
00000020: bd08 acbc b9f3 d2ba efaf 13bb a5a0 0180
00000030: 6a08 54be 1f38 cfbb 2cb7 1abc 5c51 0900
00000040: f956 e3bc 64f1 903b 04e9 7e3b f11e 0e00
00000050: 2ea8 56bd 536a dbbb b1db 6ebb d084 0300
00000060: cb19 bc3e 764f d73e 0e1c 4abe fd96 20bf
00000070: ec49 b33e fa94 793e a7d9 613d 1b9b a2be
00000080: fbdb 4dbe bd27 f13b 75d2 9439 1517 0f80
00000090: d73a 023e fc80 953e d06b 893e a4e8 7e3f
000000a0: f27c 89ba 50a7 e0ba ca36 ccbb 4401 0b38
000000b0: 6335 5fbe 1656 9abb 9cdc 07bb e730 0700
000000c0: 9761 b23e dfc1 9bbd ec27 fc3e 7488 1e3e
000000d0: cd40 22ba 004c d639 9a89 3a3a c80e 2535
000000e0: d885 ddbd 57d7 e7bb 2253 e6bb e86b 0780
000000f0: 218d 353e 6c6d c6be a8c4 b43e 4ae1 513e
00000100: 4d86 703e 89b1 e2be 8787 20bf 19d0 0f3e
00000110: c07d b13d 5c17 0f3f 7e00 653e f3a2 043f
00000120: dc57 4b3e 8812 d0be 58d8 9fbe 29b3 b13e
00000130: ad8a 283b 422b f93e 7a92 41bf 1e75 a3bd
00000140: f752 c4bd 7557 113c a465 903b 1f45 0680
00000150: 031c 9c3e 9834 85be a027 ee3e 154c 64bf
00000160: 9318 09be 3967 0d3c 7843 363b 0088 0100
00000170: 6202 05bd 2d79 a43b de95 c43b 3d7d 0d80
00000180: a6e3 9ebd 4164 b2bd 0a3c dc3e 340e a6bc
00000190: cc16 00be 34f3 b1bb 4eca e7bb 7154 0100
000001a0: 03ec c13e a166 aabe 0b47 21be 450c d93e
000001b0: 9c24 d2bc d9f8 02bd 1b5f 1b3d 0cce d437
000001c0: 5f85 3abe 6f06 27bc 8134 dbbb c495 0000
000001d0: 7925 5bbe 1524 0dbc ae5e edbb b3d1 0700
000001e0: c241 9c3e a917 2cbd 1600 89bc 8cea 443f
000001f0: 478c 6fbe 8854 43bc cd4e 92bc 8677 0580
0.14012831 0.18679802 0.06660932 -0.19057865 -0.1710658 0.011755797 0.008203326 1.275536e-39
-0.02100026 -0.0016094364 -0.0022535285 -1.49464e-40 -0.20706335 -0.006323829 -0.009443086 8.55706e-40
-0.027751433 0.0044233073 0.0038896212 1.296797e-39 -0.052406482 -0.0066960244 -0.0036446864 3.2315e-40
0.36738428 0.4205281 -0.19737265 -0.6273039 0.35017335 0.24373236 0.05513921 -0.3175896
-0.20103447 0.0073594735 0.00028385562 -1.385813e-39 0.12717758 0.2919997 0.26840067 0.9957373
-0.0010489507 -0.0017139707 -0.0062321173 3.314136e-05 -0.21797709 -0.0047099693 -0.0020730859 6.60391e-40
0.3484008 -0.07605337 0.49249208 0.1548174 -0.00061894656 0.00040873885 0.0007115841 6.14888e-07
-0.10816544 -0.007075231 -0.007028953 -6.81558e-40 0.17729618 -0.38755357 0.35306287 0.20496097
0.23488732 -0.44276074 -0.627068 0.14044227 0.08666563 0.5589502 0.22363469 0.5181114
0.19857734 -0.40639138 -0.31219745 0.34707 0.0025717423 0.48665816 -0.7561413 -0.07981323
-0.09586137 0.008870949 0.0044066478 -5.75809e-40 0.3049012 -0.26016688 0.46514606 -0.8917859
-0.1338828 0.008630567 0.002781121 1.40623e-40 -0.032472976 0.005019328 0.005999311 -1.238788e-39
-0.07758264 -0.08710528 0.43014556 -0.020270444 -0.12508696 -0.0054306034 -0.007073677 1.22127e-40
0.37875375 -0.33281425 -0.15749757 0.42392173 -0.025652222 -0.0319756 0.037932497 2.5368317e-05
-0.1821494 -0.010194405 -0.0066896086 5.3726e-41 -0.21401013 -0.00861456 -0.0072439527 7.18074e-40
0.3051892 -0.04201475 -0.016723674 0.7692039 -0.23393355 -0.011922009 -0.01785984 -5.02054e-40

convList.0.nn.0.bias f4 [32]
00000000: 81f9 6e3e 6e0f d43b 4201 d4ba 4c82 8ebb
00000010: 49d0 1e3b 3599 0ebb 3c46 28be e6ed a73e
00000020: 4170 2b3b a0aa 133e b0c0 21bb 81ac 3dbb
00000030: fb06 e7be 133e 3539 7daa 62bb d740 12be
00000040: 07ca 0b3e 7bb4 65be e411 d43e 660b f0bd
00000050: 78b5 083b e508 db3d 3296 873b a41e 0a3b
00000060: eb35 c23d 2e3e 94bb 854a f1bd 9090 3f3c
00000070: b84e 1abc 6f67 83bb b250 6dbe 4ff1 03bc
0.23337366 0.006471566 -0.0016174691 -0.0043490287 0.0024233034 -0.00217588 -0.16433042 0.3279869
0.0026159438 0.14420557 -0.00246815 -0.0028941932 -0.45122513 0.0001728463 -0.0034586482 -0.14282547
0.13651286 -0.22432129 0.414199 -0.11720924 0.0020860117 0.10695056 0.0041377777 0.0021075392
0.0948294 -0.004524014 -0.117817916 0.011692181 -0.009418182 -0.004010133 -0.23175314 -0.008053138

convList.0.nn.2.weight f4 [32, 32]
00000000: 8975 d6bc 61ec 9da7 2224 0280 13f3 85ab
00000010: 146a 0000 5adc 50a0 bdcf ddbc 1456 e4bc
00000020: 7334 01ad 6af8 d6bc 6e57 0680 cde3 45ab
00000030: 3e77 96bc 6475 0d00 bc06 2ba4 1fb7 83bc
00000040: 08d9 dcbc 5784 cebc 8a7c a5bc d5f2 0300
00000050: 0e4e 869b 73f4 91bc fd1b 0498 279d bd05
00000060: 3ae8 139d c77d 8096 5da8 a6bc 6399 0880
00000070: 38dc e5ab fceb c1ac 567f e1bc b527 9bab
00000080: c9b2 c83d 7049 2cbc fb29 41ba 8a51 44bc
00000090: 2ec1 08bb 4261 ccbb c835 123e bc1b 5039
000000a0: ff15 3fbc 6ec3 1dbe ed69 a638 16cc 48bc
000000b0: 1602 40bd ad99 7137 81d7 04bc 60ee 6fbd
000000c0: adcd 0bbe 40fd 06bd 23dc aabd 2497 46bd
000000d0: 9206 fabb 7268 2b3e 8d41 12bc 08aa 9abb
000000e0: 8a00 8f3b 7480 07bc 75da 7c3d 852a f93c
000000f0: 233b 41bc 50cb 4ebc 65d1 12be 975b 43bc
00000100: 3e8b 443c 0654 3f3d d978 7f3c 6ea7 4c3d
00000110: 837b 933c 3161 d53c ce97 d5bb f7d4 6d3c
00000120: f9d7 483d 75ae 643b dc3b 4e3a 4ceb 503d
00000130: 8067 683d ae9d 333a 6230 173d b2c7 823d
00000140: 20f7 73bd e64a 9e3b 9058 09bd 6f2d 14be
00000150: c946 143d 37fa b13d 04d6 303d 60f5 ad3c
00000160: 0462 203d 4a17 2a3d e40f 03bb a769 c13c
00000170: 4964 413d e357 4c3d 0acc fabb 9ea1 533d
00000180: 90d4 1abc abcd 0100 682e 0e80 98de 0880
00000190: a21c 0b80 2c5f 0500 d779 013e c33d ba3d
000001a0: b462 0000 fe47 acbd 1ee1 0b00 4ef2 0880
000001b0: b825 1fbe 7f73 0080 2813 0680 b3eb c2bd
000001c0: cfc7 333c 70b2 4abd 4d5b f1bd 0355 8bbc
000001d0: 2f9f 0880 a63d 003d 321c 0800 a491 0d80
000001e0: 8c1c 0300 4eb2 0600 d06a 5ebd 7fc8 0100
000001f0: 67a1 0000 b601 0400 1878 bbbc da13 0e00
00000200: 1422 2f3e 4ade 19ba 6c24 58a2 7387 8dba
00000210: 1139 f1b2 d874 0fb8 5eb8 313e b0f5 4dbd
00000220: c765 88ba 0c9c 96bd 523c 47b9 b23d 79ba
00000230: 71e5 28be a757 88b6 ab89 84b9 faf2 423d
00000240: fe02 1d3e cfb1 48bd 5679 253e 8689 493c
00000250: 30d3 aab8 a31e 1ebe 7901 dcb8 d36b 8cb6
00000260: ad28 3bb8 34d3 c7b8 23df 26be 248f c3bc
00000270: 3a6a 6eba 66e5 a1ba a37f f13d b1ac 83ba
00000280: cdc7 dcbb d7ee 2c3c 305d 773a 1710 803c
00000290: 0ad4 053a fe7a 093b 21f8 ce3c 0748 cdba
000002a0: 5fde 833c 8aa1 8cbd 3ecb 51bb 0e37 693c
000002b0: 871a c33c 99d3 413a 1f8f a73b fe20 fc3c
000002c0: 1fed 5bbd 51e6 aabd 1de6 12bc e9f0 9c3e
000002d0: 42ed 3e3b 083a c43d 6813 7e3b daa2 7f3a
000002e0: 55ff ab3d 8e2d 423b d609 263c 3022 a53b
000002f0: 353d 603c d04b 883c 51a4 49bc 9f8e 6c3c
00000300: efe9 afbd 28a2 0000 4286 0680 c83f 0000
00000310: d4a5 0880 bf35 0480 68ef 84bd 8e4c 8abd
00000320: f0ed 0400 5372 b8bd 1f9b 6aba ae92 0480
00000330: 1113 323e 288f 58b8 fb7c 0000 a5b4 f93d
00000340: a74f 03be d7ba 3bbe 5174 a03d ef07 64bc
00000350: 8417 0000 0fc2 9cbb dd62 0680 9d7b 0500
00000360: e6df 93bd 5a46 0400 e83f 6e3d 024f 85bc
00000370: 19d3 0a00 1e6c 0380 812e 213c 9d9a 0800
00000380: c496 a63c a1aa 92bc 0bc9 8ebc b082 92bc
00000390: b366 90bc 9320 9cbc 78ca 013b a262 c9bd
000003a0: ce7e 94bc 26ac a8bd 1a42 383a 9d10 93bc
000003b0: 43db 033e da1e 6d3a 3bf7 95bc b630 3d3e
000003c0: 0c6c adbd acfe ffbc 2d66 70bd d49b a13e
000003d0: d7b9 92bc 8302 9f3d 594c 92bc faa6 90bc
000003e0: f750 d9bd d22f 92bc df39 c6bd 7c11 92bc
000003f0: 6380 91bc ed10 93bc ada6 f03c 275d 92bc
-0.026179092 -4.3832536e-15 -1.96633e-40 -9.517685e-13 3.8054e-41 -1.7691194e-19 -0.027076596 -0.027873076
-7.344447e-12 -0.0262415 -5.82377e-40 -7.0304597e-13 -0.018367406 1.235973e-39 -3.708542e-17 -0.01607853
-0.026958957 -0.025209589 -0.020200986 3.62618e-40 -2.2218882e-22 -0.017816758 -1.707473e-24 1.7831203e-35
-1.9575346e-21 -2.0758892e-25 -0.020343954 -7.89709e-40 -1.6332552e-12 -5.5115894e-12 -0.027526539 -1.1024433e-12
0.097997256 -0.010515556 -0.00073686213 -0.011982331 -0.0020867097 -0.00623718 0.14278328 0.00019846758
-0.011662959 -0.15406582 7.935227e-05 -0.012255689 -0.04687699 1.44005e-05 -0.008108021 -0.05857694
-0.13652678 -0.03295636 -0.08342769 -0.048483983 -0.007630178 0.16739061 -0.008926761 -0.0047199763
0.004364078 -0.008270372 0.061731774 0.030415783 -0.011793884 -0.012621716 -0.1433769 -0.011923692
0.011996089 0.04671099 0.015592777 0.04996436 0.01800323 0.026047321 -0.0065183407 0.014516107
0.049034093 0.0034894024 0.0007867196 0.051005647 0.05673933 0.0006851804 0.036911376 0.06385745
-0.05956185 0.004830706 -0.033531725 -0.14470457 0.03620032 0.08690303 0.04317285 0.021235168
0.039155975 0.041526116 -0.0019998485 0.02360995 0.04721478 0.049888503 -0.007653718 0.051667802
-0.009450093 1.65615e-40 -1.302344e-39 -8.14536e-40 -1.020462e-39 4.93319e-40 0.12644134 0.09093811
3.5408e-41 -0.08412169 1.090947e-39 -8.21607e-40 -0.15541732 -4.1432e-41 -5.57885e-40 -0.09517612
0.010972931 -0.049486578 -0.11784992 -0.01700831 -7.91788e-40 0.031308793 7.44799e-40 -1.246107e-39
2.85747e-40 6.14977e-40 -0.054301083 1.6376e-40 5.79e-41 3.67956e-40 -0.022884414 1.292818e-39
0.17102844 -0.00058696105 -2.929274e-18 -0.0010797813 -2.8082043e-08 -3.4202676e-05 0.17355487 -0.050283134
-0.0010406309 -0.07353982 -0.0001900059 -0.00095077895 -0.16493775 -4.06332e-06 -0.00025279573 0.047595
0.15333173 -0.048997696 0.16159567 0.012300855 -8.1455684e-05 -0.15441374 -0.00010490692 -4.1848775e-06
-4.4622157e-05 -9.528399e-05 -0.16296057 -0.023871966 -0.00090948085 -0.0012351691 0.11791923 -0.0010045973
-0.0067376853 0.010554991 0.0009436188 0.015632672 0.00051051436 0.002097785 0.025264801 -0.0015661725
0.016097246 -0.06866749 -0.003201201 0.0142343175 0.02381636 0.0007393896 0.005113497 0.03077745
-0.053692933 -0.083447106 -0.008965996 0.3065255 0.0029133116 0.09581381 0.0038768891 0.0009751745
0.0839831 0.0029629203 0.010134181 0.005039476 0.013686468 0.016637713 -0.0123072425 0.0144383
-0.08589541 5.8171e-41 -5.99176e-40 2.288e-41 -7.94172e-40 -3.86622e-40 -0.064909756 -0.06752883
4.52698e-40 -0.090061806 -0.00089495064 -4.19961e-40 0.17390086 -5.1631738e-05 4.4835e-41 0.12192658
-0.12823354 -0.18332992 0.078346856 -0.013917907 8.436e-42 -0.004783876 -5.86478e-40 5.03522e-40
-0.072204396 3.9258e-40 0.058166414 -0.016273025 9.94083e-40 -3.14292e-40 0.009837748 7.90149e-40
0.020335563 -0.017903628 -0.01742985 -0.017884582 -0.017627096 -0.019058501 0.0019804519 -0.09833266
-0.018126871 -0.0823596 0.0007028893 -0.017952258 0.1287661 0.000904543 -0.018306365 0.18475613
-0.08467874 -0.031249367 -0.058691192 0.315642 -0.017910881 0.07764151 -0.017858671 -0.017657746
-0.10611146 -0.017845068 -0.09679007 -0.017830603 -0.017761415 -0.017952407 0.029376352 -0.017866684

convList.0.nn.2.bias f4 [32]
00000000: 3e22 7ebc 1f8e c83e daeb 36b9 d31b 85bd
00000010: 2de1 c7bb aceb 613d 9173 8cbe 3eb1 a43e
00000020: dd28 8abd 20b3 c03a f05f 5db9 9062 33bd
00000030: 8be1 4b3e cea0 97bd f178 693c b496 073c
00000040: 16d2 5ebd f208 96b7 f358 933c 6cdf dcbe
00000050: 2908 92bd 4d7c ad3c f475 1cbb 8a01 af3b
00000060: ff27 033f 94d9 a1be f315 9139 58a5 c93e
00000070: 3907 a63a 4776 50bd 4d61 b7b3 88d6 983e
-0.015511094 0.3917093 -0.00017444734 -0.06499448 -0.006099841 0.055156395 -0.2743192 0.32166475
-0.06746075 0.0014701821 -0.00021111942 -0.04379517 0.19910257 -0.07403718 0.014250026 0.0082756765
-0.054399572 -1.7885559e-05 0.01798675 -0.43139207 -0.07130463 0.021177435 -0.0023874016 0.0053407596
0.51232904 -0.3161131 0.0002767291 0.3938396 0.0012666947 -0.050894048 -8.5393005e-08 0.29851174

convList.1.nn.0.weight f4 [32, 32]
00000000: aacc acbc e8ec cd3c 6c69 af3c 0d23 993c
00000010: 417e 103c 78f1 d8bc b4ee d13c f939 523d
00000020: 606a 883c 00e8 ae3c 16df 883e 12e8 a5be
00000030: a6a6 7f3d 3e5b a7bc e4cc 1abd d6dd c33c
00000040: 84c2 c4bd 7c10 ecbc 0770 f7bb 9057 efbc
00000050: 9225 8e3c caee a13d 4899 063c 68c0 1d3d
00000060: e2ab f33c b60e 033d db2e 0bbc abb0 2f3c
00000070: 39a7 d0bc 4a77 233d 566f 9cbb 20ee a6bc
00000080: 8c24 46bd dce4 eebe e78a 0fbd ab67 343d
00000090: 7064 1dbd bd1a 9abd 5c30 7dbc 57b5 d9b9
000000a0: 7832 7d3c 03bf de3c d988 a13c 6ef4 77ba
000000b0: f0c6 3ebd 08e4 523d 3543 c0bd 1f23 ebbc
000000c0: 31a9 593c 5d44 44bd 9ea8 f6bc 2cb6 cb3b
000000d0: 0e8f 93bd 2fc3 b2bb fc1d 36bc 40a8 7f3c
000000e0: bbc6 53bd 3129 92bd 58a4 99bc cdd0 13bd
000000f0: cb4c 1abd a378 09bd dc63 18bd 63c9 c03d
00000100: c8e6 903d 4cbb be3c b780 dc3c e909 75bd
00000110: d81b 68bd 835d 623b 064e 203d ec69 1e3d
00000120: e863 023b 2554 b5bd d419 ed3a bfe7 0d3b
00000130: a3e8 033a e63b e43b 30c1 b73c c726 3fbd
00000140: 1dd9 82bb 98df 913d a429 17bc ef8c 3b3d
00000150: 085f eebe de2a 19bd 6e57 27bc 2ad0 a03c
00000160: 951c 3a3d b101 2cbf b9a8 c6bc 35eb 903d
00000170: f263 a73d 96c3 e9bd 8f69 ae3d 03da e2bb
00000180: 7699 1dbd 621b 86bc e173 923d 8d52 1b3d
00000190: dee2 163d 5077 f43b f470 2ebd b1a1 d63d
000001a0: eec0 2e3d 5014 613d 0fa8 773d f4a3 cb3c
000001b0: 61a7 90bc e448 593d da35 253c 6224 db3c
000001c0: b07d 3a3d d449 eebc bfa5 803d 3114 f33d
000001d0: 804f 9abb 0b04 b5bb c47c 493d dcfa 19bd
000001e0: 3927 a43d f079 26bc ffb9 433d 9bc1 e33d
000001f0: 4c0d 19bd f0f8 9e3c c121 08bd 7db1 d7bc
00000200: c161 2ebd 209b dfbc 4739 b0bc 6912 c13c
00000210: 4200 91bc b797 87bd 8e3a 363c fb36 de3b
00000220: 1b92 953c 14fd 903c 91cf 2cbd 4a73 da3d
00000230: 03ee 193e 26d2 67bd aa91 98bd 678a 69bb
00000240: fffd db3c e60e ebbc 9a04 99b9 6b63 d8bc
00000250: 80a8 58bd 159f c0bc cf24 fc3b 7d30 60bb
00000260: ec4a 02bd 6123 e3bc c71d 8ebc e138 73bc
00000270: 7eed c2bc 73f9 4abc 319e 96bc 8afc cebe
00000280: 5ebd 2e3d 85f8 4d3d 730a 88bc 637d 3abd
00000290: bf85 97bb ac74 b1bd 76bb 20be b254 3bbd
000002a0: 5495 85bb 80d9 46bd 2f03 bf3c 16fb a03b
000002b0: ed84 883d 9475 143d 29f7 a03c e97f c5bc
000002c0: 96d1 b93b 7d7b 3b3d b7bc 56bb 80cd a0bd
000002d0: 5dc8 01be 9916 443c ddd2 1dbc ebf2 89bd
000002e0: 7efe 56be 020b ebbd 1428 dcbc f7d1 26be
000002f0: 47f3 0e3d 53ef 3bbd e09e cf3c a654 563d
00000300: 926e 4abc 2ac7 1abd 0abb 15be ce7b 853a
00000310: 8196 b23d ffec 76ba 3eb0 8fbc f288 19bc
00000320: bdbf 213d f96f 713c e75f c1bb f8e5 623c
00000330: da81 ea3c 8cea 0c3d 8b42 e13b ec12 d53b
00000340: 5046 2c3d 88fa 41bc bc1b 11be 663c 883c
00000350: 5f6a 413d 75cb 373d a3bd c4bd dfd1 cf3d
00000360: 59d7 5bbe 9ce3 f93c dedf 97bd 3343 18bc
00000370: 0e07 80bc bf08 d83d 3bf0 a9bc f71f 16bd
00000380: c7a3 aabd 1fb8 1fbe 4404 2ebc ff76 8e3d
00000390: 5494 8ebd 66a8 0bbd 5591 ffbd 5f69 2fbd
000003a0: 6196 19bc f1bc 973d 7300 c73b 11ef 3ebd
000003b0: c8f4 f9bd b045 55bb be36 aebd fec1 183d
000003c0: c266 5dbc 8011 8fbd fd37 3bbb 1b0c 243d
000003d0: 27b9 02be 006f bfbd 7170 68bc 2856 6ebd
000003e0: 5033 eebc b3bb e6bd 0065 f9bc 7bc8 ff3c
000003f0: 3cb1 88bd 6d62 00be 33e4 8bbd 8a04 0bbe
-0.021093685 0.02513738 0.021412574 0.018693471 0.008819164 -0.026482329 0.025626518 0.05132482
0.016652286 0.02135086 0.267327 -0.32403618 0.062414788 -0.02042925 -0.037793055 0.02390949
-0.096074134 -0.028816454 -0.0075511965 -0.029216558 0.0173519 0.079068735 0.008215256 0.03851357
0.029745046 0.03199645 -0.008495058 0.010723273 -0.025470363 0.039908685 -0.0047740145 -0.020377219
-0.048374698 -0.4665898 -0.035044577 0.044044178 -0.038425863 -0.07524631 -0.015453424 -0.00041524574
0.015453927 0.02719069 0.019718574 -0.0009458725 -0.04657644 0.051487 -0.09387819 -0.02870327
0.013284967 -0.04791676 -0.0301097 0.006216785 -0.0720502 -0.0054553966 -0.011115547 0.015604079
-0.051703196 -0.07136763 -0.018755123 -0.0360878 -0.03767089 -0.033562314 -0.03720461 0.094134115
0.07075268 0.02328267 0.026916845 -0.059823904 -0.05666718 0.00345406 0.03913691 0.038675234
0.0019895975 -0.0885394 0.0018089362 0.0021653024 0.0005031919 0.0069651483 0.022430986 -0.04666784
-0.003993167 0.07122725 -0.0092262365 0.0457887 -0.46556878 -0.037394397 -0.010213716 0.01963051
0.045437414 -0.6719008 -0.024250375 0.07076112 0.0817336 -0.11414258 0.085162275 -0.0069229617
-0.03847643 -0.016370479 0.071510084 0.037920523 0.03683745 0.007460512 -0.04258819 0.10480059
0.04266446 0.054951012 0.060463008 0.024858452 -0.017657937 0.05304803 0.01008364 0.026750747
0.04553002 -0.029087938 0.062816136 0.118690856 -0.004709184 -0.0055241636 0.04919125 -0.037592754
0.08015294 -0.010160908 0.0477848 0.11120912 -0.037366197 0.019405812 -0.033235315 -0.02632975
-0.042573694 -0.027295649 -0.021511687 0.023568349 -0.017700318 -0.06620734 0.011122359 0.0067814565
0.018258145 0.017698802 -0.04219014 0.10666521 0.150322 -0.056596898 -0.07449658 -0.0035635473
0.026854513 -0.028693628 -0.00029185863 -0.026414594 -0.05289507 -0.023513356 0.0076948176 -0.0034208589
-0.031809732 -0.02772683 -0.017348183 -0.014845104 -0.023794886 -0.012388575 -0.018385978 -0.40427047
0.042661063 0.050285835 -0.016606545 -0.045529734 -0.004624098 -0.086648315 -0.1569651 -0.04573507
-0.004076639 -0.048547268 0.023316948 0.0049127443 0.066659786 0.036244944 0.019649105 -0.024108844
0.0056707365 0.045772064 -0.0032766291 -0.07851696 -0.12674089 0.011968278 -0.009632793 -0.06735786
-0.20995519 -0.11476709 -0.02687458 -0.16291033 0.034899976 -0.045882534 0.025344312 0.05232682
-0.012355464 -0.037787594 -0.14622131 0.0010183991 0.087201126 -0.00094194704 -0.017540094 -0.009371029
0.039489496 0.014736169 -0.005901325 0.013848774 0.028626371 0.03440337 0.0068743876 0.0065025
0.042059243 -0.011839516 -0.14170736 0.016630363 0.047220584 0.044871766 -0.09606483 0.101474516
-0.21468867 0.03050404 -0.07415746 -0.009293365 -0.015628364 0.10548543 -0.020744434 -0.036651578
-0.08332019 -0.1559758 -0.010621134 0.069562905 -0.06961885 -0.034096144 -0.12478892 -0.0428251
-0.009374232 0.074090846 0.0060730516 -0.04661471 -0.122048914 -0.0032542758 -0.08506535 0.03729438
-0.013513269 -0.0698576 -0.0028567307 0.040050607 -0.12765943 -0.093473434 -0.014186964 -0.058187634
-0.029077202 -0.112662695 -0.030443668 0.031223526 -0.0667443 -0.12537546 -0.06830635 -0.1357595

convList.1.nn.0.bias f4 [32]
00000000: 0438 92bd 7bca aabc c6ac c1bc 4e4e 81be
00000010: 0548 263d a070 293e 0fbe 77bd 6800 e23d
00000020: cdc0 503d 0d04 a7bd 4218 883d 3927 30be
00000030: bacf e6bd bbbc 853d 5c55 70be 998e 5f3d
00000040: fb68 2fbd 78d2 9d3d cc12 533d a9d6 b3bd
00000050: 9ad7 033e a0bd 373e bd53 523e 514a 95be
00000060: 25ad b0bc 498f 873e ef32 d8bd 8043 293e
00000070: 4154 b33d 0486 b0bd f704 883d 32c9 a7bc
-0.071395904 -0.020848503 -0.023641955 -0.25255054 0.040596027 0.1654687 -0.06048399 0.11035234
0.05096512 -0.081550695 0.06645252 -0.17202462 -0.112700894 0.06530138 -0.23470062 0.05457935
-0.042824727 0.07706159 0.051531598 -0.087811776 0.12875214 0.1794343 0.20539756 -0.2915826
-0.021566937 0.26476505 -0.1055659 0.16529655 0.087563045 -0.086193115 0.06641572 -0.02048168

convList.1.nn.2.weight f4 [32, 32]
00000000: 1334 323c 070e c2bd 9a23 3bbd e342 5f3c
00000010: c281 46bd 4d9c 223d 061f c83c 58a2 dd3c
00000020: 2315 b3ba 5de0 edbd 49a2 b6bb 8d1e 533d
00000030: 08e1 08be 9f78 a53b 77b2 833c 7b2b c2bc
00000040: 97fc ce39 56f4 133e 08fd a93c cdd5 2d3c
00000050: a6ef 38bd 09f1 933d b0af 1e3e c968 60bc
00000060: 47ea d93b c96d 0dbd 361b 873c f3ad cc3d
00000070: a6ed 4e3c 2642 2abb eca4 c33d 3766 393c
00000080: 6e08 a3b9 d57f b3bc 7aca c73c 074f 6b3d
00000090: 9fee dbbc bfc8 bcbd 706b da3c a279 87bc
000000a0: 1cab 863d 48b6 a3bd 38d9 95bc 453f cfbd
000000b0: f903 bebc ae12 5c3d a072 043e 4d23 60bc
000000c0: 155a 1dbc b2b7 a1bd fe8b d3ba 5a87 8c3c
000000d0: cd12 063c 527d 83bc 77a0 5c3c bcce e63c
000000e0: a106 bb3b f436 7abe 2436 df3b 1d6b 46bd
000000f0: c44c f4bb f87b 37bc bcc8 c3bc cb52 bf3d
00000100: ce55 a43d a10f 963b b3dd 1cbe b228 2e3d
00000110: 303b 283d 3ac6 31bc 94ba d8bd eb55 293d
00000120: 6fd4 27be 50cd 19be 4b27 b1bd 4ff6 9d3d
00000130: 67f6 e6bd d70c 483d 592c 75bd 2ed9 833d
00000140: 3e31 683d 5ca5 903d 8c12 143d 29c8 d73d
00000150: 7ce9 e93c dd15 013d 9e47 22bd 64c7 943d
00000160: ce8d 303d 0ee9 b0bd 4627 8f3d 5492 e4ba
00000170: e065 31be 7bac ed3d 5248 34be a222 86bb
00000180: 151c 3a3d 44bf 2f3b 1896 053e 45ef 7a3d
00000190: 00b6 b33c 91ca 8d3d 0826 0b3d 5adc dd3b
000001a0: 3ad1 56bc 8ea4 353d 2200 543d 611a 183e
000001b0: 6091 b4bd 4462 573d 8a78 753d 7749 063d
000001c0: 6196 773d fae3 1cbd daf4 923d 2453 a83d
000001d0: 0342 473d 9ac7 523d d22e 203e 41d7 53bd
000001e0: fabd 0b3d 6d13 b03d 5fc8 483d f722 843d
000001f0: 9aec 073d 6f3c d03b d714 a33d 7a82 8c3d
00000200: fc85 27bd fa9e 2a3d d2fc ae3c aada bdbd
00000210: 09ec 5e3c e220 9fbd 7471 f3bb 18e1 95bd
00000220: 460f 523d e14d 943d 71e9 10bd ac95 18bd
00000230: a7d3 ae3d c41a 59bd 37af d3bd 7cc7 8abc
00000240: e3dc 5abd 1040 e53b e3e8 95bd 9c80 c0bd
00000250: ef7a 13bc 1ffd dfbd 1079 5d3d 7550 11bd
00000260: c1ee 61bc cb2b 80bd 3735 e5bc 22d4 60be
00000270: f729 2e3c 0428 4ebc 12fd 26be b977 9dbd
00000280: c281 823d 6be2 703d f6ef cfbd 43bb 403c
00000290: b3cf b03d 29f9 0d3d b0a2 4bbd ce6e 97bd
000002a0: a91b b03c 2802 b7bd f939 08be 5083 8bbd
000002b0: 0559 9b3d d084 213d 8806 dfba acea 733d
000002c0: 486f 953d dc02 f23d bac7 b53d b1f1 8f3d
000002d0: 12ad bfbc 3893 753c 7a28 fbbd a8fb ff3c
000002e0: 55b3 8e3d 0968 903d c16b da3d 286d 7dbd
000002f0: de74 12bc d2b2 9d3d d7a1 323d df87 393c
00000300: bf01 02bb 7ac7 d1bd 0ea0 6cbc 8a38 a63d
00000310: b50a 13bd cd24 263d a590 a03d 5a89 a33d
00000320: dced 92bd d465 3fbe bc83 333b 0e2b 33bb
00000330: 9828 11bd fcae 2f3c e628 b73d cbda 4bbc
00000340: d576 3b3c ad3d 95bd 933e c63b 93e2 88bc
00000350: 93c2 663e 0804 3f3d 3c41 643e c3f4 743d
00000360: 7f75 f33c 6461 243d 48ca 443d 58b5 1b3e
00000370: afa1 bc3b 7527 653b bb3d 8f3d 1f43 943d
00000380: d654 a03c 6817 113e ebb3 5d3c bb4b b73c
00000390: 0862 033e a17a 77bc b100 5ebc b6d8 bb3c
000003a0: 125c c2bc df54 24bd 5cc9 7b3d 1f77 38be
000003b0: 942d 4d3d 7637 b03d 694d f63d 1263 9c3d
000003c0: 625e 0b3d 63ec 91bd 601a 313d 3ec0 b03d
000003d0: e547 b5bd afe3 0b3d 9faf 0fbd 3065 0b3d
000003e0: 3c8d 443c bd1e 0cbd ac4b 763c fa0d 133d
000003f0: 5f6b 643d 7000 2abd f5e7 43bd 6dea 3cba
0.010876673 -0.09475332 -0.04568825 0.013626787 -0.04846359 0.03969984 0.024428856 0.02705495
-0.0013662915 -0.116150595 -0.005573545 0.051542807 -0.13367093 0.0050497795 0.01607631 -0.023702374
0.00039479576 0.14448676 0.020750538 0.010610056 -0.04515042 0.07223708 0.15496707 -0.013696858
0.0066502425 -0.034528527 0.016492467 0.09994116 0.012629902 -0.002597937 0.09552941 0.011315874
-0.00031096063 -0.021911541 0.02438854 0.057448413 -0.026847182 -0.09217977 0.026662558 -0.016537491
0.06575605 -0.07993752 -0.018292055 -0.101194896 -0.023195254 0.05372875 0.12934351 -0.013680291
-0.009603997 -0.07896365 -0.0016139743 0.017154384 0.008183193 -0.016050968 0.013465992 0.02817475
0.0057075773 -0.24435025 0.006811874 -0.048441995 -0.0074554402 -0.01119899 -0.023899429 0.093419634
0.080241784 0.0045795 -0.15318947 0.04251928 0.04107207 -0.010850484 -0.10582462 0.041341703
-0.1638963 -0.15019727 -0.08650073 0.07712995 -0.11277466 0.04884037 -0.059856746 0.06437908
0.056687586 0.0706279 0.0361505 0.105362244 0.028553717 0.03151499 -0.03961908 0.07264593
0.043103985 -0.08638202 0.06989913 -0.0017438629 -0.17324018 0.11605164 -0.17605713 -0.004093484
0.045436937 0.0026816884 0.13045537 0.06126334 0.02193737 0.06923402 0.033971816 0.0067706527
-0.013111407 0.044346385 0.05175794 0.14853813 -0.088167906 0.052583948 0.059929408 0.032784905
0.060446147 -0.038303353 0.07175608 0.08218983 0.048646938 0.051459886 0.1564286 -0.051718954
0.034116723 0.08597455 0.049019214 0.064519815 0.033184625 0.0063548605 0.07962959 0.06860824
-0.04089926 0.041655518 0.021360788 -0.092702225 0.01360608 -0.07769944 -0.007429296 -0.07318324
0.051284097 0.07241417 -0.035378877 -0.037252113 0.08536463 -0.05300404 -0.10336154 -0.016940825
-0.05343331 0.0069961622 -0.0731981 -0.0939953 -0.009001478 -0.10936951 0.054070532 -0.03547712
-0.0137898335 -0.06258353 -0.027979476 -0.21955922 0.010630122 -0.012582783 -0.16307476 -0.07688851
0.063724056 0.05880968 -0.10153191 0.011763397 0.086333655 0.034661446 -0.049715698 -0.07394181
0.021497564 -0.08935958 -0.13303365 -0.06812155 0.075853385 0.0394333 -0.0017015496 0.059549972
0.07296616 0.11816952 0.088759854 0.07028521 -0.023397956 0.014988713 -0.1226358 0.031247929
0.069677986 0.07051093 0.10665084 -0.061871678 -0.008938996 0.07700123 0.043611374 0.011323898
-0.0019837467 -0.10243125 -0.014442457 0.08116253 -0.035898883 0.04056244 0.07840089 0.07985182
-0.07174274 -0.18691188 0.0027391752 -0.0027338895 -0.035439104 0.010722872 0.08943348 -0.012442301
0.011441906 -0.07287154 0.00604994 -0.016709602 0.22535162 0.046634704 0.2229051 0.059803735
0.029719112 0.04013194 0.048044473 0.15205896 0.005756579 0.0034966145 0.06994196 0.07239365
0.019571703 0.14169085 0.013531665 0.022374978 0.12830365 -0.015104921 -0.0135499695 0.022930484
-0.023725543 -0.040120002 0.06147133 -0.18014191 0.050092295 0.08604328 0.120264836 0.07636084
0.034025557 -0.07125165 0.043238044 0.08630417 -0.088516034 0.034152683 -0.035079595 0.034032047
0.0119965635 -0.034209 0.01503269 0.035902 0.05576646 -0.041504323 -0.047828633 -0.0007206563

convList.1.nn.2.bias f4 [32]
00000000: e306 133e 6fbd 503d 4676 c43d 6bb9 3fbc
00000010: 14df 2b3e 092f 76bd f233 d2bd a235 bc3c
00000020: ab7e 023e fbf7 003e 3a96 513e ff5b 38be
00000030: f5df 803d 6c4a 263e a203 6c3c af4d 033d
00000040: ef81 e6bd a637 f9ba 6a6f cf3d 68bd 2cbd
00000050: b4b4 44bd 7dbc 94bd b0a1 403e c390 0abd
00000060: ff48 843d fa01 6a3e 85e1 ec3d 8e6d aebd
00000070: 8ddf f33d 63a0 9dbc 9d72 713d d98a 123d
0.14358096 0.050961908 0.09592871 -0.011701922 0.16784316 -0.06010345 -0.10263814 0.022974793
0.12743632 0.12594597 0.20467463 -0.18003844 0.062927164 0.16239327 0.014405163 0.032056507
-0.112552516 -0.0019013777 0.101286724 -0.04217282 -0.048023894 -0.07262514 0.18811679 -0.03382946
0.064592354 0.22852316 0.11566452 -0.0851699 0.11907873 -0.019241517 0.058947194 0.035776947

convList.2.nn.0.weight f4 [32, 32]
00000000: a7d7 873c 267e 39bd 0ba4 12be 4ca5 d1bc
00000010: 18ea 0a3d d267 47bd d6d8 cebd 8715 e7ba
00000020: 383d 823b 5e9c ef3c 9e15 47bd 6906 2ebe
00000030: e028 803d 0353 e1bb 855b 09bc bf4d 76bc
00000040: f115 75be 38aa bbbb 59c3 3c3c 9b6c 2cbe
00000050: 7f80 f1bd c23e 0ebe 3e80 c2bc 1c3d c7bd
00000060: 14d7 1e3c 6420 ab3c 9dbd 82bd 694f 26be
00000070: 8b6d cbbb aa31 c43a 16ce c9bd a5fc 59be
00000080: 1cb1 d2bc 9fd0 dfbc 4c12 27bd 4439 41bb
00000090: 0885 e1bd 8c73 e6bc d849 c6bd 6ca0 743d
000000a0: b4e0 debc 90e9 9bbc 3329 5ebd 78f7 7fbc
000000b0: 127b 7abd 086d acbb 658f 6d3d fbc0 5bbd
000000c0: d2cb c73b e8a5 5c3b 345b 2dbe ad98 51bd
000000d0: dc93 1abe 68d1 adbd 188c f63c 0227 ba3a
000000e0: 09ac 77bd f135 61bd b9a6 bdbb 164c 22bd
000000f0: 497a 0ebc 8e28 dcbc f7c5 0dbd 9ea4 2dbc
00000100: c724 a73b df90 34be 975a 843c 75d9 8bbc
00000110: 8eb6 363a 49a7 8cbd 97dc 113c dad8 c43c
00000120: f200 a0bc 5719 15bd 0ef5 58bb f3ff 953c
00000130: 5036 2ebd 5106 5b3d 8807 543d 0a1d 2dbd
00000140: 4796 aabc 4c19 80bd 701d c3bd 3df7 a93c
00000150: 2ece edbc f131 9f3c 9c03 f93a f03b 59bc
00000160: d613 56be a4b7 3fbe 8a2f f43b 825e f03c
00000170: 652c 993c c84e 5fbd 45f2 74bd efe8 65bc
00000180: 8577 07bb a2ba 2c3c 8b8c 5abc 70db eb3c
00000190: 3256 c3bc 5cbd 73be 7c9b c53c 4430 f7bc
000001a0: cace eebc 78b1 373b f786 5dbc 5763 c5bc
000001b0: 69e8 de3b e1c9 86bd b884 67bc 1591 c53b
000001c0: a781 58be ea1f 7a3c c989 d1bc 6372 bbbc
000001d0: 9653 29be ffe6 bbbc 0520 733a e06d 15be
000001e0: 6761 a43c d636 983c 159e aa3c 501f 853d
000001f0: 3706 753d df31 073d 9da8 8bbe daf8 6b3d
00000200: b06b b53b c34f d5bb 79f2 21be 769d eaba
00000210: 3203 723c 06ee 693b 5c8f ad3c ec7e 0ebd
00000220: e8c7 64bb 9b7e 833c d9c6 483c 2b37 f3be
00000230: 7b6a e43c cf12 8ebc f8d2 89ba 0277 e93b
00000240: 7c62 89ba c4cb afba 263a 2a3c 3ecd d9be
00000250: a8e9 09bc 5893 f5be c5c2 8e3b b83f d03c
00000260: 2384 adbb a735 abbb 1596 043c 5a49 24be
00000270: c7c9 86ba 6bd6 c93b ee43 e23b a7f3 083c
00000280: 2d7a cdba 2c0d 3cbe 8154 91bc 4ae9 19bb
00000290: 9efb c8bc 30c8 3ebe 9cc0 5cbc a634 4ebd
000002a0: ef24 873b f524 78bb aa98 ea3c 423a 9abc
000002b0: 5776 a0bc 8b8b 75bc eb48 04bd 196c 5539
000002c0: f7a4 5abe 5f41 b93c 6620 7bbd 9588 02bc
000002d0: 044b f4bb 2076 d8bb b411 23bb 5a9c e5bd
000002e0: 1e05 0ebe b42d debd 5e5c 8c3c a3ce 513d
000002f0: 65a9 853d e4db fabc 68bf 85be 5d0b 213d
00000300: 11f0 3b3b 6862 c03c debc 6f3d 48c0 de3c
00000310: ac26 693d 6656 5dbc 2afa de3c 0fb3 07bd
00000320: a511 f3bd e9a1 39be 177b 203c 192d 9abc
00000330: 6da4 e63d 7955 2dbd cc80 11bd 486c 703d
00000340: 5acb 3dbd 8170 743d b2c3 203d 6467 0c3c
00000350: 60d3 17bd f6ec 7fbc 5e3c e13b 5cf3 153d
00000360: 2bd0 bb3c 0b0b 4b3d 47d4 8dbe 06b7 ac3c
00000370: ba2f 1bbd ca74 903d 7ba5 64bc 88fd 81be
00000380: d7a9 763c 7307 24be f06d 59be 873f 863d
00000390: 14fb 51bd 8cff 72bc 441c 0a3c ae0d d73c
000003a0: 91e8 803c 4da6 1b3c 9225 36bc 4562 35bd
000003b0: 8df7 92bb da08 af3c d479 4b3b 6958 8e3c
000003c0: 7715 1abe edf9 243c 6ce9 c4bd 0996 6abd
000003d0: 5bf5 48be e434 82bd f518 833b 93d8 09be
000003e0: 6aa4 2cbe bd87 afbd a488 3bbb 65a1 a0bc
000003f0: 9c45 b33b 4197 ca3c 0779 e9bd d0dc ee3c
0.016582323 -0.04528632 -0.1432039 -0.025591515 0.033914655 -0.048682995 -0.10099952 -0.0017630317
0.003974583 0.029249366 -0.0486046 -0.16994633 0.06257796 -0.006876351 -0.008383636 -0.015033185
-0.23934151 -0.0057270788 0.011521184 -0.16838305 -0.11792087 -0.13891128 -0.023742791 -0.097284526
0.009694833 0.020889468 -0.06383822 -0.1624123 -0.006208127 0.0014968414 -0.09853761 -0.21287782
-0.025719218 -0.027321158 -0.040788934 -0.0029483596 -0.11011702 -0.028131269 -0.09682053 0.059723303
-0.027206756 -0.01903227 -0.05423851 -0.015622966 -0.061152525 -0.005262021 0.05799808 -0.053650837
0.0060972953 0.0033668224 -0.16929322 -0.051170994 -0.15095466 -0.08487207 0.030096099 0.0014202299
-0.0604668 -0.054983083 -0.005787697 -0.039623342 -0.008696147 -0.026874807 -0.034612622 -0.01059833
0.0051008197 -0.17633389 0.016156478 -0.017071465 0.0006969952 -0.068678446 0.00890269 0.024029184
-0.0195317 -0.03640112 -0.0033105048 0.018310523 -0.042532265 0.05347282 0.051764995 -0.042264022
-0.020823611 -0.06254825 -0.09527099 0.020747775 -0.029028978 0.019432994 0.0018998268 -0.013258919
-0.20906004 -0.18722397 0.007451956 0.02934194 0.018697927 -0.05451849 -0.05980136 -0.0140325865
-0.0020670604 0.010542544 -0.013339172 0.02879116 -0.023844812 -0.23802704 0.024121992 -0.030174382
-0.02915134 0.0028029364 -0.013520948 -0.02409522 0.006802608 -0.06581474 -0.014130764 0.006029258
-0.21143208 0.015266398 -0.025578396 -0.022881692 -0.16535792 -0.022937296 0.00092744856 -0.14592695
0.020065976 0.018580835 0.020827333 0.06500113 0.05982038 0.033006545 -0.2727708 0.05761037
0.005536519 -0.0065097525 -0.15815152 -0.001789971 0.01477127 0.0035694852 0.021186523 -0.03478901
-0.0034909192 0.016051581 0.01225444 -0.47503027 0.027882805 -0.017342953 -0.0010515144 0.0071247825
-0.0010481621 -0.0013412167 0.01038984 -0.425394 -0.008417524 -0.47963977 0.0043567144 0.025421008
-0.005295293 -0.0052249017 0.008092423 -0.16043606 -0.0010283523 0.006159594 0.0069050705 0.0083588725
-0.001567667 -0.183644 -0.01774049 -0.0023484998 -0.024534043 -0.18631053 -0.013473656 -0.05034318
0.004124276 -0.0037863825 0.028637249 -0.018826608 -0.019587679 -0.014986883 -0.032296102 0.00020353532
-0.21351992 0.02261418 -0.061310194 -0.007967134 -0.0074552316 -0.0066058785 -0.0024882378 -0.11211462
-0.1386914 -0.10848561 0.017133888 0.051222455 0.0652645 -0.03062243 -0.26122594 0.039317477
0.0028677026 0.023484424 0.058529727 0.027191296 0.056921646 -0.0135093685 0.027218897 -0.033129748
-0.118686 -0.1812817 0.009794972 -0.018820332 0.112618305 -0.04231784 -0.03552322 0.058697015
-0.04633651 0.059677605 0.03924913 0.008569572 -0.037066817 -0.015620461 0.0068736514 0.03660904
0.02292641 0.04957108 -0.27701017 0.021083366 -0.037887312 0.07053526 -0.013955469 -0.25388741
0.015055141 -0.16018467 -0.21233344 0.06555086 -0.051264837 -0.014831435 0.008429591 0.02625164
0.015735896 0.009500098 -0.011117356 -0.04428317 -0.0044850768 0.021366525 0.0031047957 0.017376142
-0.1504725 0.010069353 -0.09614834 -0.05727199 -0.19624846 -0.06357744 0.004000778 -0.13461523
-0.16859594 -0.08570812 -0.002861538 -0.019608209 0.0054709446 0.024730327 -0.11400037 0.029158026

convList.2.nn.0.bias f4 [32]
00000000: a1ea dd3c fe6a 513c e465 ce3d 6619 6b3d
00000010: 6fd3 023e 3ba2 c93c e611 8c3c 1832 423d
00000020: d6de 103e 221f e8bb 0ef9 2abc 2a43 34bc
00000030: b296 2c3d 951e 97be fd58 51bd e431 92bc
00000040: 4417 7bbe ce02 7fbd e133 fabc 3c72 1d3e
00000050: c064 783d c697 e43d 241d b23c 2466 0a3e
00000060: 44fb 273d 1bd0 803d e544 183e 0690 07bc
00000070: 723b 223e 6616 043e 28ee 4f3d 6e91 013d
0.027089419 0.012781857 0.10078028 0.05739727 0.12775968 0.02461349 0.017098378 0.047411054
0.14147505 -0.0070837894 -0.010435356 -0.011002341 0.0421359 -0.2951552 -0.051110256 -0.017846055
-0.24520594 -0.062258534 -0.030542316 0.15375608 0.060642958 0.11161761 0.021742411 0.13515526
0.04101111 0.06289693 0.14870031 -0.008274084 0.15842989 0.1289917 0.050764233 0.031632833

convList.2.nn.2.weight f4 [32, 32]
00000000: f3a1 aabd 802c bd3c 51ba a6bd daaf 0c3d
00000010: c421 ba3d 4fab 06bd 6962 9b3d 268a 1fbd
00000020: e068 dd3c b42d d63c 1e73 aabd 419d 0c3c
00000030: 3b1e 8abd e946 0fbd 7e94 873c f059 53bd
00000040: 76d3 ab39 365e c03c 5523 af3d fd5f 403d
00000050: ad12 54bd 69df 96bc 9f20 b0bd d78d 89bd
00000060: 4ae3 efbc 6843 223d 63a1 8d3b ba4b f1bc
00000070: 2cc8 f7bd 2eb5 87bd ed06 d9bd 29be 603c
00000080: b920 e23a 3f8b 933c 0b54 01bd 9aa5 8e3d
00000090: a4df 293e 3509 31bd fd37 99bc 7c97 64ba
000000a0: 9c48 6d3d 3fe3 3f3d e7cd e23d 8160 683d
000000b0: 50f3 1f3d ed76 19bc 9a6c 2abd f078 353c
000000c0: 4115 41bd 305e 043e b1ca 3c3d a9f3 4f3c
000000d0: 655d 773d e259 02bd d3e1 3abd 243a c63c
000000e0: 0b94 563c 53e0 683d c202 aebc bc3e a43d
000000f0: 82b3 babd 1e04 b1bc 879e b5bd 0ee1 883c
00000100: 1a27 183d b622 803b 0e89 e3bc 7fd2 d73c
00000110: e688 d73d 8c0b 273d 7917 a1bc cc1c 9f3d
00000120: 1d6b 423c f51c 013d 743a 4a3c 73ca af3d
00000130: 7a0f da3c 659f 7abd f3b1 bcbc 3198 f83c
00000140: df78 98bd 4445 da3d 92bf f63a c276 74bb
00000150: 48db 2d3c 9ac5 ac3d 6af4 7abd 07d0 b8bd
00000160: ea74 793d 90a5 003e ed86 833d 89d7 6fbd
00000170: 023f bb3d c1a1 c6bd 9019 d8bb 5d5b 893c
00000180: 269e 0dbd 568d 22bb ae38 0cbd d808 a93b
00000190: 7473 72bd e176 3f3d ceca 0b3d 0358 473c
000001a0: 7c06 29bd 53d7 153d c770 c3bd 6dc0 d23c
000001b0: 469b 5f3d 027c 3cbd 3db1 3b3d 9a73 1e3b
000001c0: 94ff 6b3b 9913 923d 890f 5a3d 25ef 36bc
000001d0: 7f90 213b cb1e 1abd f8dc 6fbd 7257 f2bd
000001e0: 3d40 27bd d2fe 3a3d 3d49 b73c f112 9bbd
000001f0: d494 333d 36e3 fbbd 5710 09be 987f 8eba
00000200: 4c53 21bd d17e e13c fcbe 43bd ceb6 1abd
00000210: e383 153e 603b bcbd 326c 60bd 590f 96bc
00000220: f6a3 52bb 5718 be3d 8429 e9bc 32ad 7a3d
00000230: f576 b5bd 21d4 26bd aa3b 1fbd 649f dabd
00000240: 26cd 0fbd cc17 07bd 584c 173d f203 273d
00000250: 2966 04bd 3f73 7fbc 651e 4abd 016f 063d
00000260: c30a 06bd d28a 863b 5f91 e3bc 5c7e dcbb
00000270: 24d7 9bbd 251a 833d 7d34 203b 44e8 b03b
00000280: 5b7f 4abd 5fe9 283d fb23 78bd df8d 893d
00000290: 5847 8c3d f4f9 60bd ba61 0f3c 4516 9c3c
000002a0: 524b dbbc 78e3 553c 31a8 c83d 3027 cf3d
000002b0: 2d14 fb3d 56b8 1cbd e0a7 0abd d0f9 073d
000002c0: fb5c 0ebd 49f7 0f3e 06f9 ba3c 963e 77bd
000002d0: 3353 ef3d e010 9cbd 9eb5 68bb 78a2 c3bd
000002e0: 71f9 c03d ed6a 043d e8cd 27bd 7107 e2bc
000002f0: 5b81 c5bd 96bb 393d 7c79 563d 06b6 15bd
00000300: 03f2 893d 6bfd c3bd 941b 653c d6da af3c
00000310: d54e 8a3c 1b4c a9bd 1e33 a5bd 3ab8 0cbe
00000320: a9af 253d b305 61bd fa80 373d 1fb7 dbbc
00000330: 0eb4 703d 3462 6cbc 74d0 6cbc fde8 29be
00000340: 50c7 003c 253b f93c 208d fe3d 9564 c6bc
00000350: 9636 c43c 8451 f23b 974a c8bc c600 933d
00000360: 8fd8 b23c a9c0 adbd 6d34 76bd 27d4 103d
00000370: 6576 803c 82f3 603d f8ce a93d c5b6 13bc
00000380: 97f8 b13d d51e 913d 6be3 b33d fc5f 183d
00000390: 150b 103d 5cae 953d b735 3c3d 1bc4 dc3d
000003a0: 4538 00bc 99ec 44bd f905 853d 61f2 e03d
000003b0: 75b7 d13a 3345 77bc b5ee 51bd 2253 cebc
000003c0: d175 c1bd 9db3 d53c b429 3ebd 0653 a7bb
000003d0: ce81 39bc 7d2b b33d 7b7c 0d3d 62b1 813d
000003e0: 6d77 853d 0ec3 f53d 6196 df3d bcd0 c83d
000003f0: 378f f73d a26d 303c aaa5 4f3d e6b3 b9bb
-0.083316706 0.023092508 -0.08141006 0.034347393 0.090884715 -0.032878216 0.075871296 -0.038950108
0.027027547 0.02614484 -0.08322738 0.008582414 -0.06744047 -0.034979735 0.016550299 -0.051599443
0.00032773212 0.023482423 0.08551661 0.04696654 -0.051775623 -0.018417077 -0.08599972 -0.06716507
-0.029283185 0.039615065 0.0043222173 -0.029455055 -0.12098727 -0.06626354 -0.10597024 0.013717213
0.0017252184 0.018010734 -0.03157429 0.0696518 0.16589218 -0.04322167 -0.018703455 -0.00087200827
0.057930574 0.04684758 0.11074429 0.05673266 0.0390504 -0.009366733 -0.041607477 0.011076197
-0.04713941 0.12926555 0.04609174 0.01269237 0.060391802 -0.031824 -0.04562552 0.024197645
0.01309682 0.056854557 -0.02124155 0.08019778 -0.0911627 -0.021608409 -0.08868127 0.016708877
0.037146665 0.003910388 -0.027775314 0.02634549 0.10524158 0.040782496 -0.019664513 0.077691644
0.011866358 0.031521756 0.012343038 0.08583536 0.026618708 -0.061187167 -0.023034072 0.030346008
-0.07444929 0.106577426 0.0018825403 -0.003730223 0.010611363 0.08436127 -0.061268248 -0.09024053
0.060902514 0.12563157 0.064222194 -0.05855516 0.09142877 -0.09698821 -0.006594844 0.016767198
-0.03457465 -0.002480348 -0.03423374 0.005158525 -0.059192136 0.04674423 0.034128956 0.01216698
-0.04126595 0.036582302 -0.09542995 0.025726521 0.05459144 -0.0460167 0.045823324 0.002417779
0.003601049 0.07132644 0.05323747 -0.011165415 0.0024652777 -0.037627023 -0.05856034 -0.11833085
-0.040832747 0.04565317 0.02237379 -0.07571972 0.043843105 -0.122991964 -0.1338514 -0.0010871766
-0.03938608 0.027526291 -0.04778956 -0.037771992 0.14601092 -0.091910124 -0.054790683 -0.018317865
-0.0032141185 0.09281986 -0.028462179 0.06120033 -0.0886058 -0.040729646 -0.03887526 -0.106749326
-0.035107754 -0.03298168 0.03693804 0.040775247 -0.03232399 -0.015591442 -0.049345393 0.032820705
-0.032725107 0.004105904 -0.02777928 -0.0067289304 -0.07609394 0.06401471 0.0024445348 0.005398782
-0.049437862 0.041238185 -0.06058119 0.06716513 0.06849545 -0.054925874 0.008751327 0.019053588
-0.026769314 0.013054721 0.09797705 0.10114896 0.122597076 -0.038261734 -0.033851504 0.033197224
-0.03475664 0.14059176 0.022823822 -0.06036242 0.11685791 -0.07620406 -0.0035508643 -0.09552473
0.09422577 0.032328535 -0.040967852 -0.027591439 -0.09643813 0.04534491 0.05236195 -0.036550544
0.06735613 -0.0956982 0.013983626 0.021466654 0.016883293 -0.08266469 -0.080663905 -0.13742152
0.040450726 -0.054937076 0.044800736 -0.026820717 0.058765464 -0.01442771 -0.014453996 -0.16592784
0.00786002 0.03042371 0.12429261 -0.024217883 0.02395181 0.0073949713 -0.02444963 0.07177882
0.021831779 -0.08484013 -0.06010859 0.035358574 0.015681455 0.054919727 0.08291429 -0.009015744
0.08689993 0.07085959 0.08783611 0.037200913 0.03516682 0.07308647 0.045949664 0.10779592
-0.007825916 -0.0480772 0.0649528 0.1098373 0.0016000109 -0.015092182 -0.05125304 -0.025186125
-0.094463 0.026086623 -0.04642649 -0.0051063327 -0.011322452 0.08748529 0.034542542 0.06332661
0.06516919 0.12000094 0.109173544 0.09805438 0.12087863 0.010768326 0.0506951 -0.0056671975

convList.2.nn.2.bias f4 [32]
00000000: ac1d db3d c214 b83d 9361 423e e860 1e3e
00000010: 0e48 3b3e 12f7 d53d 6659 6b3d 1605 753e
00000020: 312a 903d ec57 0c3e 89ce 983d 5718 e63d
00000030: 73cc ca3d 8d09 d43d d24f d83d 0183 3e3d
00000040: 8e8e 4f3e 44fc 1b3e 4483 673e c1e5 de3d
00000050: e5dd 2c3e e0d6 373e 22f5 393d c9ac 8f3e
00000060: 913f 653d 29a7 bc3d e585 103e aa5b cb3d
00000070: bd3d be3d 88ac 113d 90e2 073e dfe9 e43d
0.10699019 0.08988334 0.18982534 0.15466654 0.18289205 0.104475155 0.057458304 0.23927721
0.07039297 0.13705415 0.074612685 0.11235111 0.09902277 0.10353384 0.105620995 0.046511654
0.20269224 0.1523295 0.22608668 0.10883666 0.16881521 0.17953062 0.045399792 0.28061512
0.055968825 0.09211571 0.14113577 0.09929593 0.092891194 0.03556493 0.1327002 0.1117742

bns.0.weight f4 [32]
00000000: 2b34 de39 52a9 ff3e 337d 6c3e 38de 303c
00000010: 5e0a b93e 614e 813e a5f5 803e 747f 403e
00000020: f64e ae3e 06d1 4d3d 7ea0 af3e 0024 b93e
00000030: df0c c73e f0b5 9d3e a96b 283e c7ed a83d
00000040: 3b26 a33e b531 d434 46fd 5a3e 3b5c 953e
00000050: f1a7 523e 5079 8f3e b04e 753e 2f80 6c3e
00000060: 7b5d d93e 9fce 613e ae49 653e ace0 933e
00000070: 8429 4634 37ae 3c3e ac1d cdb9 10e8 ff3e
0.00042382008 0.4993387 0.23094635 0.010795169 0.36140722 0.2525511 0.25187412 0.1879862
0.34044617 0.05024817 0.34302133 0.36160278 0.38877007 0.3080287 0.16447319 0.082484774
0.31865105 3.9524244e-07 0.21385679 0.2917193 0.20571877 0.28022242 0.23955798 0.23095773
0.42454132 0.22051476 0.22391388 0.2888235 1.845529e-07 0.18425833 -0.00039122754 0.49981737

bns.0.bias f4 [32]
00000000: f9c7 823c c931 86bc c501 163c 45ff 59bc
00000010: 4a3c 8e3b 087c 003c c880 823d c3eb 7f3d
00000020: eae7 5c3b 99cb e5bb a087 fc3b 2ffa 113c
00000030: c3d9 86bc 6894 fe3c 343e 1f3c be4d debb
00000040: 336e d23c 2028 833c ab1d a63c d6cc da3c
00000050: c240 c43d 1848 65bb bd8f 7f3c 44f0 b93d
00000060: b088 be3d 1591 c93d c177 ef3c 7277 233d
00000070: 8243 433c 7f1f 523d 8d95 213c 5e2e cebc
0.015964495 -0.016381161 0.009155695 -0.01330549 0.004340683 0.007842071 0.06372219 0.0624807
0.0033707567 -0.007012796 0.0077065974 0.008909746 -0.016461259 0.031076625 0.00971942 -0.00678417
0.025687313 0.016010344 0.020277819 0.026709002 0.09582664 -0.0034985598 0.015598235 0.0907903
0.09303415 0.09842125 0.029231908 0.039908834 0.011917951 0.05129957 0.009862316 -0.025168594

bns.0.running_mean f4 [32]
00000000: 0400 0000 88b1 273f c94e d33f 0400 0000
00000010: 92bb 1f3d d738 483f 0935 163d 9cfb 1a3f
00000020: 4439 923f 2d2e 3a40 cd1c ba3f 8dfd 643f
00000030: caa7 453f 8c40 383f ccd2 e232 e827 7314
00000040: ad6a 863f 0400 0000 39ff 903f 5fb2 063c
00000050: d68d 813e fceb 923f 2e54 8f3f 8dd5 df3d
00000060: 3e52 6e3c aeff 1e3e 6604 b73f 9481 073f
00000070: 0400 0000 1f18 af3e 439b f30f 837b 093f
6e-45 0.65505266 1.6508418 6e-45 0.03899724 0.7821173 0.036671672 0.60540175
1.1423726 2.9090683 1.4540039 0.8944939 0.7720915 0.7197349 2.6405722e-08 1.2276235e-26
1.0501305 6e-45 1.1327888 0.008221238 0.25303525 1.1478267 1.1197565 0.109294035
0.014545975 0.15527222 1.4298217 0.52932096 6e-45 0.3419809 2.4021455e-29 0.5370409

bns.0.running_var f4 [32]
00000000: 0400 0000 26a1 213d 8c63 0240 0400 0000
00000010: 0c95 243c 1370 d03e f995 933c 7744 ca3d
00000020: ea23 193e 1e6d b640 f9d9 843e 818b eb3d
00000030: 54ca 823d cbd1 113d 0a30 5830 b457 1e15
00000040: 83c8 c63d 0400 0000 87a2 963f 3adf 003b
00000050: c8c6 503e 277e 3d3e dfe8 633f 0b8e 793d
00000060: c3cb 0e3b 4c89 c53d 5d38 d53f 262f 543e
00000070: 0400 0000 8f2b 4a3e 8092 670b 3cb9 d93c
6e-45 0.039460324 2.0373259 6e-45 0.010045301 0.40710506 0.018015848 0.0987634
0.14955106 5.70082 0.2594755 0.11501218 0.06386247 0.035600465 7.864861e-10 3.197703e-26
0.09706213 6e-45 1.176835 0.0019664303 0.20388329 0.18505155 0.8902721 0.06092648
0.0021788932 0.09645328 1.6657826 0.2072111 6e-45 0.19743179 4.4599196e-32 0.026577584

bns.1.weight f4 [32]
00000000: 590b 7d3e 2999 353e 9dfe 343e edd9 753e
00000010: 2d60 313e 7545 093e 2b3f 4f3e f6be 893e
00000020: 9ac4 083e ed49 023e 7c44 3b3e 796d be3e
00000030: 5624 d33e baaa 973e 8edf 723e 4216 463e
00000040: 2a5a 133e f4b2 5c3e cfc1 1d3e 57f8 e23e
00000050: 5073 6a3e 1694 e63e abce 753e f324 233e
00000060: 4d70 153e ceb4 183e c784 393e 9bd6 613e
00000070: 5047 a93e 6afe 973e a599 ee3d 6b2d 783e
0.2471136 0.17734207 0.17675252 0.24008913 0.17321844 0.13405402 0.2023894 0.26903504
0.13356248 0.12723513 0.18287843 0.37192896 0.4123866 0.29622442 0.23718092 0.19344428
0.14389864 0.2155264 0.15405963 0.44330093 0.2289555 0.45034856 0.24004619 0.15932064
0.1459362 0.14912722 0.18117057 0.22054522 0.3306222 0.2968629 0.11650399 0.24236076

bns.1.bias f4 [32]
00000000: cdd5 f0bb d3f5 533d 6410 6e3d db77 3f3d
00000010: 6c1e a13c 0122 793d e229 2a3d c836 8d3d
00000020: f459 583d ffe2 7c3d 686a 0b3d 4442 fe3d
00000030: 11c0 3d3d caa3 da3c 0b64 d33c 651e 66bb
00000040: a28b 663d e872 523d f147 123d 5004 1a3e
00000050: c661 873d c2ef 1a3e ec0c b13a 67dd 263d
00000060: e068 543d 135c 0d3d 6bdb 5a3d 2591 713d
00000070: 46b6 ea3b 9bd9 833d a63b 873d 8b9f 2e3d
-0.007349706 0.051748108 0.0581211 0.046745162 0.019667827 0.060823444 0.04154385 0.06895214
0.05282016 0.061739918 0.034037024 0.12414983 0.046325747 0.026689429 0.02580454 -0.0035113331
0.056285508 0.051379114 0.03571314 0.15040708 0.06610446 0.15130523 0.0013507879 0.04073849
0.05185783 0.034511637 0.05343191 0.05897631 0.007162842 0.06437989 0.06603174 0.04263262

bns.1.running_mean f4 [32]
00000000: e8d6 333e 7a59 0f3d be38 de3c dccb 513e
00000010: 785e 803d 055f a23d e3d9 5f3d 6c84 b53d
00000020: ba86 a33c f539 5c3d 9be1 233d a92b 173e
00000030: e4c8 423e a76a 273e 78e7 b03d 9228 823d
00000040: cdb0 253d d837 c83d 8212 833c c0ad 173e
00000050: 61f3 3e3d cdf8 1d3e 154b 303e 9dd1 913c
00000060: a5c0 123d 0c18 853e b53a 6e3d 0762 d73c
00000070: d2e2 3e3e 8954 2b3e feb0 623d b87d 343d
0.17562449 0.03499744 0.027126666 0.20487922 0.062680185 0.0792828 0.054651152 0.08863148
0.019961704 0.05376621 0.040010076 0.14762749 0.19021946 0.16349278 0.08637899 0.063553944
0.040451813 0.09776276 0.016000036 0.14812374 0.046618823 0.15426941 0.17216142 0.017800147
0.03582825 0.2599491 0.058161456 0.02629186 0.18641213 0.16731466 0.055344574 0.044065207

bns.1.running_var f4 [32]
00000000: 870b 3e3c 9ed5 513c 8d29 a53b 6460 343d
00000010: 002b 893b f1ff a43c a572 483c e1f6 213d
00000020: 0313 a23a 930b 0a3c 4a24 423b 5e44 463e
00000030: 1094 9a3d b630 d83c 0a4a 093c d021 a43b
00000040: 135a 0d3c a967 f33c f39c b03a a13f 3f3e
00000050: 034d a13c 08fa 523e 5cf3 ee3b 921d 0f3b
00000060: 4b9b d53b 090c 313d 3839 aa3c 27ce e63b
00000070: bcae 623d 8a0c 883d c4d2 e13b 28ed ec3c
0.011599428 0.012807278 0.0050403536 0.044037238 0.004186034 0.020141574 0.012234365 0.039542083
0.0012365285 0.008425611 0.002962368 0.19362018 0.07547772 0.026390415 0.008379469 0.0050089136
0.008627432 0.029712515 0.0013474509 0.18676616 0.019690042 0.20603192 0.0072921943 0.0021837694
0.0065187565 0.04322437 0.020779237 0.0070436182 0.05534242 0.06643017 0.0068915803 0.028921679

bns.2.weight f4 [32]
00000000: 3ed1 393f 381f 2d3f 8d00 2d3f 7090 4e3f
00000010: a138 4e3f aa5d 3a3f 93bf 473f 1875 953f
00000020: 8265 4d3f 2b1b 443f 120e 803f 5c4c 353f
00000030: f04e 7a3f 20b3 673f db83 7b3f f8cf 273f
00000040: cde0 5e3f 2111 223f 7542 6a3f 3836 333f
00000050: 114a 1d3f accc 533f 5675 393f 43ab 753f
00000060: 32c7 5e3f 734a 3a3f f320 663f fe6e 693f
00000070: 92d4 663f ddc8 443f b982 313f a563 403f
0.72584903 0.6762576 0.67578965 0.80689144 0.8055516 0.7279917 0.78026694 1.1676359
0.80233014 0.76603955 1.0004294 0.7081964 0.977767 0.905077 0.9824807 0.6555171
0.8706177 0.63307387 0.91507655 0.70004606 0.6144114 0.8273418 0.72444665 0.9596445
0.870227 0.7276985 0.89894027 0.91184986 0.90168107 0.76868993 0.6934009 0.75152045

bns.2.bias f4 [32]
00000000: 3e8b 31bc 8793 0abd cf8b 80bc 0ba7 413d
00000010: b6ca fe3b 4d96 bd3c 7a56 a1bc 1357 9bbd
00000020: b7f1 56bd 7aa3 bc3b 1927 3ebc 00d5 59bd
00000030: 242d 21bd 3482 87bd 474d 29bd 7acf 1a3b
00000040: 9428 8ebd cf3b 113d 3de5 70bd 70df 7d3d
00000050: 032d d53c 488c 67bd ca91 323b 3864 42bd
00000060: a973 6fbc 189c 5a3d fe0b e5bb c987 f8bb
00000070: b394 853c bf29 1e3d b1b3 293d b0b9 7e3c
-0.010836421 -0.0338321 -0.015691666 0.047278445 0.00777563 0.023142958 -0.019694556 -0.075849675
-0.05247661 0.0057567926 -0.011606001 -0.05318165 -0.03934969 -0.06616631 -0.041333463 0.00236222
-0.069413334 0.03545743 -0.05881237 0.061980665 0.02602244 -0.056530267 0.0027247542 -0.047458857
-0.014614978 0.05337152 -0.006989955 -0.007584546 0.016306257 0.03861403 0.041431133 0.015547201

bns.2.running_mean f4 [32]
00000000: 22d0 9c3d 1daa e63d e307 653e 0154 f63d
00000010: 2397 393e e943 e63d 9c0a 7e3d eac6 a63e
00000020: 690c 993d 03f1 3a3e 113d 773d b4ca d13d
00000030: 3077 9d3d 1897 e23d c3d2 903d f133 a03d
00000040: 9857 843e b8c2 483e c47d 9a3e d80e 153e
00000050: dc78 5a3e bdec 833e 3a20 c53d 9e04 ba3e
00000060: 2b3d 613d 53cd 053e 6157 1c3e 6b15 863d
00000070: cc48 da3d 2ffa a23d 18fb 323e 199c 833d
0.07656886 0.11262915 0.2236629 0.12027741 0.1812406 0.112434216 0.062021837 0.32573634
0.0747307 0.18256001 0.06036097 0.10243741 0.07688749 0.11063975 0.070714496 0.07822407
0.2584808 0.1960553 0.30174077 0.14556444 0.21335167 0.25766554 0.09625287 0.36331648
0.054989975 0.13066606 0.15267707 0.06547054 0.10658416 0.07957875 0.17478597 0.06426258

bns.2.running_var f4 [32]
00000000: 97bb 5b3b c80f 433b 8a0d 6f3b 7f01 b23b
00000010: fcb4 f43b 122f 193b 2521 db3a d021 773b
00000020: da6f e53a 47e7 ac3b ae97 e73a 11d1 173b
00000030: fa75 773b 56f0 743b bcb0 fc3a 3e45 763b
00000040: 548b 653b 4c6d 723b 9a51 973b 86fb a83b
00000050: cfe8 9c3b 524a 533b 70dc 523b 68fc 853b
00000060: 732d f43a ad0d 153c d512 6d3b 0342 e23a
00000070: b5da 333b 44b1 173b 8676 9c3b d02c 4a3b
0.003352856 0.0029764045 0.0036476576 0.0054323073 0.007467864 0.0023374003 0.0016718252 0.0037709363
0.0017504648 0.005276594 0.0017669105 0.0023165385 0.0037759528 0.0037374697 0.0019278745 0.0037577893
0.0035025673 0.0036991416 0.004617882 0.005156937 0.004788495 0.0032240343 0.0032174848 0.004088927
0.0018629268 0.009097499 0.0036174555 0.0017262105 0.0027443592 0.002314643 0.0047748713 0.0030849464
