pretrained_models/PROTEINS/epoch_200_CalcModel.pth (torch, 76263 bytes, 4 tensors)

MLP.0.weight f4 [96, 96]
-0.004062552 -0.03243698 -0.04678034 0.0076254657 -0.0039897296 -0.013110161 0.02434091 -0.046227384
-0.019730344 0.0011032119 -0.02258873 -0.0131795965 -0.0043708733 -0.021185473 0.00031594135 0.00083374255
-0.028562687 0.0029572882 -0.057320666 -0.018678617 0.0022931292 -0.0062552397 -0.066363536 0.026976736
0.016007092 0.0008890412 -0.0628821 -0.0029584498 -0.005206414 0.02647286 -0.0030474565 -0.02419606
0.015809782 0.017015368 -0.013240627 -0.039086185 0.031409793 -0.0017948981 -0.050045013 -0.045920715
0.03818856 -0.006366702 -0.037782595 -0.021406956 0.039011203 -0.05148376 -0.0119377235 -0.027946468
0.013131209 -0.018960522 -0.003678622 -0.0141871255 -0.015757607 -0.013265545 0.05632256 0.0033904477
0.0045555336 0.008815553 -0.03670175 -0.010679267 -0.009819707 -0.039745707 0.0052989013 -0.03300226
0.05865869 0.022371853 0.044637676 0.020853654 0.032184727 0.021910042 0.032948613 -0.008935442
-0.030650107 -0.0044188383 -0.0021392195 -0.066678636 -0.012129984 -0.034421485 -0.0115230605 0.072515056
-0.0023988949 -0.025468517 -0.032212503 0.031763025 0.0123950085 0.049535237 -0.02224853 0.028936824
0.04329931 -0.0062280362 -0.0030328224 0.017692553 0.035001654 -0.017865723 0.057570044 0.039771184
-0.010989447 0.020005606 -0.031912744 0.014662286 -0.023332058 -0.014327991 0.008813986 -0.028930578
-0.00726256 0.014498012 -0.009998363 0.0010720387 0.015610715 -0.0107515855 0.0005004384 0.000191846
-0.003738495 -0.008156128 -0.014487657 -0.026472941 -0.016495192 0.005345825 -0.0044121123 -0.03407202
-0.050644495 -0.018608313 -0.0170428 -0.026917115 -0.010446688 0.0018634688 -0.010485185 0.008986348
-0.017206639 -0.009558097 -0.05249436 -0.03639447 0.042626593 -0.06457173 0.01754035 0.02438889
0.005212122 -0.0008939689 0.046795182 -0.01936915 0.023922337 0.044069532 -0.011989891 -0.010519716
-0.059714835 -0.03688584 -0.022599885 -0.023280762 -0.03172409 -0.03563282 -0.0034105103 -0.015020629
-0.030459313 -0.041799404 9.703465e-05 -0.04182449 0.086086504 -0.009034762 -0.041770354 -0.031466868
-0.05329254 -0.055787046 0.0005235836 0.05211276 -0.060350217 -0.007759013 -0.0493676 -0.02311975
-0.10380214 0.0028515712 -0.050073914 -0.12921059 -0.004240463 -0.0073252236 -0.04673628 -0.049540434
-0.027809985 -2.58816e-05 -0.02839064 0.024787208 -0.004157252 -0.03522489 0.01242281 -0.01513439
-0.04687784 0.103857145 0.017993536 -0.06245308 -0.0028876457 0.05757318 0.09522072 -0.055945575
-0.012978882 -0.06040749 -0.06489445 0.0062552323 0.00572253 -0.029732246 0.025364995 0.034039482
-0.004508337 1.7452112e-06 -0.019207148 -0.002859371 0.0017912502 0.005321504 -0.010623813 0.0066193547
0.010120316 -0.0035064786 -0.06567994 0.012815756 0.02432972 0.019490516 -0.050582048 0.010844998
-0.02605009 0.011758454 -0.045113664 0.024357975 -0.0022462888 0.028649153 0.0031811248 -0.051663615
-0.004213794 0.020450158 -0.013746945 -0.0030234077 0.045604 0.013514853 0.004358884 -0.008153148
0.031364482 0.029030908 -0.0050526094 0.041326575 0.04146632 -0.021613214 -0.025114575 0.045543212
-0.0021085946 0.01976391 0.007957305 0.05317707 -0.01992419 0.047496736 0.015692236 -0.009294204
0.00974907 0.009250602 0.007236386 -0.031336896 0.0035259968 0.053337965 0.009065436 -0.009537102
00000000: 281f 85bb a4dc 04bd be9c 3fbd 0bdf f93b
00000010: 47bc 82bb 00cc 56bc 9766 c73c ed58 3dbd
00000020: 88a1 a1bc a699 903a 000c b9bc 3cef 57bc
00000030: 8b39 8fbb 288d adbc eea4 a539 848f 5a3a
00000040: 4cfc e9bc 10cf 413b 13c9 6abd e603 99bc
00000050: 5348 163b c1f8 ccbb 9be9 87bd 51fe dc3c
00000060: 4e21 833c 8c0e 693a 55c8 80bd 8de2 41bb
00000070: 919a aabb 9cdd d83c d6b7 47bb d136 c6bc
00000080: 8483 813c d063 8b3c 37ef 58bc d618 20bd
00000090: 8ea7 003d c942 ebba 00fc 4cbd 5c17 3cbd
000000a0: 9c6b 1c3d c49f d0bb ecc1 1abd a45d afbc
000000b0: 36ca 1f3d a3e0 52bd 7196 43bc feef e4bc
000000c0: 4824 573c 1953 9bbc 0915 71bb 1e71 68bc
000000d0: 1916 81bc ba57 59bc 7cb2 663d 4632 5e3b
000000e0: 9646 953b 1c6f 103c 9354 16bd 18f8 2ebc
000000f0: d6e2 20bc 65cc 22bd 68a2 ad3b 612d 07bd
00000100: 1844 703d 2d45 b73c ffd5 363d 48d5 aa3c
00000110: 22d4 033d b07c b33c 20f5 063d f665 12bc
00000120: ef15 fbbc e7cb 90bb 2632 0cbb cf8e 88bd
00000130: d7bc 46bc 8bfd 0cbd 38cb 3cbc c682 943d
00000140: c736 1dbb 5aa3 d0bc 42f1 03bd f219 023d
00000150: 6f14 4b3c 76e5 4a3d 8d42 b6bc eb0c ed3c
00000160: 9e5a 313d 8e14 ccbb 51c2 46bb f9ef 903c
00000170: e55d 0f3d 235b 92bc 91ce 6b3d 1ce7 223d
00000180: 150d 34bc cce2 a33c f0b6 02bd 163a 703c
00000190: df22 bfbc f3bf 6abc 8968 103c d2ff ecbc
000001a0: c5fa edbb 1289 6d3c 2dd0 23bc a683 8c3a
000001b0: 16c4 7f3c 6b27 30bc da2f 033a 452a 4939
000001c0: 8a01 75bb 48a1 05bc a35d 6dbc c8dd d8bc
000001d0: ed20 87bc 082c af3b 7b93 90bb 1a8f 0bbd
000001e0: 9a70 4fbd 7670 98bc 589d 8bbc 4881 dcbc
000001f0: 9628 2bbc a33f f43a 0eca 2bbc 7a3b 133c
00000200: f0f4 8cbc 9199 1cbc 5304 57bd 5e12 15bd
00000210: 3999 2e3d 2f3e 84bd c8b0 8f3c 36cb c73c
00000220: 73ca aa3b 3d59 6aba 4eac 3f3d 0dac 9ebc
00000230: c7f8 c33c 4182 343d 3f71 44bc e35a 2cbc
00000240: 8b97 74bd 9b15 17bd 6523 b9bc 4cb7 bebc
00000250: 1ff1 01bd b8f3 11bd de82 5fbb 1619 76bc
00000260: cf85 f9bc da35 2bbd 157f cb38 2850 2bbd
00000270: 1f4e b03d 8a06 14bc 6417 2bbd 67e3 00bd
00000280: 4749 5abd f580 64bd 1a41 093a 3074 553d
00000290: ca31 77bd 523f febb ae35 4abd a165 bdbc
000002a0: 3796 d4bd 6de1 3a3b 4e1a 4dbd c84f 04be
000002b0: 95f3 8abb 6e08 f0bb 8b6e 3fbd e9ea 4abd
000002c0: c4d1 e3bc 501c d9b7 7d93 e8bc 8b0e cb3c
000002d0: 8f39 88bb f947 10bd 0b89 4b3c 3cf6 77bc
000002e0: fa02 40bd 0eb3 d43d 2e67 933c cdce 7fbd
000002f0: a83e 3dbb dbd1 6b3d 1503 c33d 3027 65bd
00000300: 60a5 54bc d86d 77bd 62e7 84bd b1f8 cc3b
00000310: 1084 bb3b 0a91 f3bc 40ca cf3c fc6c 0b3d
00000320: acba 93bb 003d ea35 4f58 9dbc 4964 3bbb
00000330: 62c8 ea3a 0360 ae3b 800f 2ebc 2ce7 d83b
00000340: afcf 253c f3cc 65bb 3483 86bd 2df9 513c
00000350: 1f4f c73c 93aa 9f3c 1f2f 4fbd 38af 313c
00000360: 0067 d5bc 88a6 403c 1bc9 38bd 608a c73c
00000370: 7936 13bb a1b1 ea3c 6b7a 503b 3a9d 53bd
00000380: de13 8abb 1787 a73c de3a 61bc 5d24 46bb
00000390: 43cb 3a3d 676d 5d3c f8d4 8e3b c894 05bc
000003a0: 0b78 003d 3ad2 ed3c 5c90 a5bb 0e46 293d
000003b0: 97d8 293d 320e b1bc 15bd cdbc 858b 3a3d
000003c0: 5930 0abb ece7 a13c 5b5f 023c 33d0 593d
000003d0: 0e38 a3bc f08b 423d 018d 803c b846 18bc
000003e0: 90ba 1f3c d68f 173c 351f ed3b 1e5b 00bd
000003f0: 6914 673b e978 5a3d 3287 143c 8141 1cbc

MLP.0.bias f4 [96]
-0.21725634 -0.31005597 -0.19556303 -0.12096575 -0.03150136 -0.10660862 -0.13638678 -0.13881704
-0.02384093 -0.0061312374 -0.051000085 -0.11659618 -0.015488467 -0.28432462 -0.030673018 -0.059271336
-0.18163475 -0.03719095 -0.12995031 -0.55890787 -0.036207214 -0.15636207 -0.10093696 -0.12404889
-0.09678502 -0.079083815 0.0068501504 -0.3901854 -0.1802425 -0.18010007 -0.15980694 -0.20460387
-0.2788349 -0.220729 -0.055281766 -0.10929492 -0.0627552 -0.2806315 -0.08621212 -0.07425983
-0.22384986 -0.054344863 -0.13185652 -0.049761992 0.004790158 -0.01896821 -0.017736651 -0.0069903233
-0.11588798 0.0071834363 -0.0830774 0.04391679 -0.19935906 -0.18118349 -0.18563493 -0.038755625
-0.1461899 0.026105558 -0.108598806 -0.10504543 -0.11545037 -0.061975174 -0.08609992 -0.06968771
-0.2610734 -0.15222478 -0.057564504 -0.05069508 -0.055018853 -0.07172504 -0.007921659 -0.12988965
-0.20628756 -0.3066133 -0.087638244 -0.13562699 0.04144655 0.030519746 -0.25264615 -0.22800875
-0.16686912 -0.05353898 -0.08973763 -0.0019340513 -0.094501354 0.029080223 -0.08470886 -0.17986058
-0.026465591 -0.08734772 0.026475789 -0.15514602 -0.08624322 -0.16582106 0.017515827 -0.13138084
00000000: 7278 5ebe a8bf 9ebe ad41 48be e4bc f7bd
00000010: 9207 01bd 9f55 dabd faa8 0bbe 0e26 0ebe
00000020: 0e4e c3bc 8ce8 c8bb 77e5 50bd fac9 eebd
00000030: 57c3 7dbc ff92 91be fb45 fbbc 80c6 72bd
00000040: 76fe 39be 8a55 18bd b211 05be 9614 0fbf
00000050: 044e 14bd 611d 20be 09b8 cebd 580d febd
00000060: 3937 c6bd b2f6 a1bd 3a77 e03b 61c6 c7be
00000070: 7d91 38be 276c 38be 6ea4 23be ad83 51be
00000080: 73c3 8ebe c806 62be 226f 62bd 04d6 dfbd
00000090: cc85 80bd efae 8fbe fb8f b0bd 8a15 98bd
000000a0: e638 65be b898 5ebd 6505 07be 3bd3 4bbd
000000b0: c2f6 9c3b 3863 9bbc 744c 91bc 150f e5bb
000000c0: ad56 edbd 0863 eb3b 7c24 aabd 18e2 333d
000000d0: c824 4cbe 2a88 39be 1517 3ebe 38be 1ebd
000000e0: ceb2 15be 53db d53c 0d69 debd 0f22 d7bd
000000f0: 3e71 ecbd aed9 7dbd 2855 b0bd 6eb8 8ebd
00000100: 6aab 85be d0e0 1bbe c2c8 6bbd a5a5 4fbd
00000110: 735b 61bd 94e4 92bd d9c9 01bc cb01 05be
00000120: 0c3d 53be 6bfc 9cbe ae7b b3bd cde1 0abe
00000130: dcc3 293d 8c04 fa3c d65a 81be 207b 69be
00000140: bddf 2abe b14b 5bbd 5dc8 b7bd fe7f fdba
00000150: ed89 c1bd a639 ee3c d77b adbd 5f2d 38be
00000160: 5ece d8bc 5de3 b2bd c1e3 d83c 99de 1ebe
00000170: 49a0 b0bd ffcc 29be 5a7d 8f3c b388 06be

MLP.2.weight f4 [96, 96]
-0.0007259633 -0.0015789925 -0.00095008104 -0.0006154442 -0.00025258306 -0.0009784474 -0.00096102105 -9.45668e-05
3.205813e-05 -0.00079624396 0.00080781535 0.00069498195 0.0004207679 -0.0002360486 0.0009886906 0.00078534445
-0.0001815942 0.0006652854 -0.0008790911 -0.002213458 -0.0008625207 -0.000928165 -0.0008391798 -0.0002920687
-0.00013135793 0.0007155197 -0.0011430146 -0.0014509415 -0.0002672371 -0.00033373057 -0.00033181484 0.0002575753
-0.000640536 -0.001217481 0.00094769144 -0.0007969126 -0.0003047521 -0.0010291986 0.0016296222 0.00016375104
-0.00029233488 -0.0011091143 0.00034492664 5.015968e-05 -0.00058382924 -0.00010653302 0.0005093159 0.0011245266
-0.00083011104 -0.0002673377 1.1585125e-05 0.0005836671 -0.00042549032 0.00046587377 -0.0009380614 -0.00018961521
0.000114511044 0.0002149247 -0.0013353913 -0.00045028853 0.0004880359 0.0010517819 -6.601725e-05 0.00041601242
-0.0008629291 -0.00067510625 0.0009725685 0.00060534914 0.0013884248 -0.0008221992 -0.000602421 7.660178e-05
-0.0006434685 -0.0012247883 0.00035432682 0.00030491062 -0.00013664711 0.00089794374 0.0004523342 0.0002112014
0.00041013834 1.93706e-05 -2.7861024e-05 0.00031566306 0.00023791184 0.0007366806 0.00037780058 0.00023980805
-0.00052837026 0.000541009 -0.001107887 -1.9252388e-05 -0.0004908059 2.927742e-05 0.0003039991 -2.6229201e-05
0.010152755 -0.07387787 -0.0008682861 0.0063799946 -0.012189084 -0.0043290644 0.0014763701 -0.01632753
0.007423242 -0.008069438 0.0112556815 -0.0019310417 0.010037301 -0.0031505972 -0.00025959325 0.004742833
-0.0033845948 0.010248162 -0.01902427 -0.1751479 -0.0061925924 0.009815177 -0.030011302 -0.0044073598
0.015795238 0.0012837694 -0.0044013383 -0.004896413 0.017399717 0.012119675 -0.0050480436 -0.01152137
-0.0070631644 -0.0027910536 0.012998055 -0.004815677 -0.004102214 0.0043777856 0.014358464 0.008765506
0.0030743654 -0.0051754056 0.010070843 0.005638424 -0.0031775322 0.004384015 -0.0001284066 0.012371252
0.0004468215 -0.0012715762 -0.0040927352 0.0024491674 -0.0004642696 -0.005967719 0.002674233 -0.0018447118
0.0019386285 0.0034800158 0.0068899156 0.009137744 -0.00089692284 0.0044252337 0.0061474782 0.00011383809
-0.0014347739 -0.013039208 0.004585384 0.0012231774 0.01833382 0.0051392475 0.0016324442 0.010544782
0.0015778345 0.005646502 0.0012590205 0.009057223 0.0076049035 0.0033664259 0.007227063 0.018582541
0.0082826745 0.009848254 -0.005369156 0.0056867776 0.008526199 -0.0048964517 0.012603593 -0.0031669745
-0.0022534435 0.005594075 -0.003264701 0.004346991 -0.0055158003 0.016134657 0.019301992 0.008514462
-0.0022972927 -0.00075194606 0.002314528 -0.00059137744 0.00038565416 -0.0015202594 -0.0016109773 -0.0077083097
-0.0013193593 0.0003166638 -0.0039028036 -0.0049721072 0.0006056732 -0.010746248 -0.0005605668 -0.0015346318
-0.0068807146 -0.0007676069 0.012155057 -0.013981778 0.00041306572 0.00013206198 -0.0010049193 -0.0017739289
0.001249512 0.0020475867 -0.0011478357 0.1358986 0.0032839284 0.0019346684 -0.010486505 0.022147793
-0.009531177 -0.0077420226 -0.0008808138 -1.7418177e-05 -0.0024080824 0.0021278863 0.00028380821 0.00028521888
-0.0050335703 -0.00097505306 0.006775243 -0.001998008 -0.0020907568 0.00063424796 0.00030361966 0.0014565622
-0.0010507393 -0.010105241 0.00071028806 0.0005727192 -0.0009391331 0.0011758232 0.0062355455 -0.00040533216
0.0005624488 -0.002017836 0.0027709655 0.0025926356 -0.003343953 0.00028540884 0.0066888714 0.0004676767
00000000: 934e 3eba 32f6 ceba dc0e 79ba c355 21ba
00000010: 206d 84b9 3f3f 80ba 08ed 7bba 2a52 c6b8
00000020: 2876 0638 07bb 50ba 92c3 533a 732f 363a
00000030: 839a dc39 d083 77b9 f496 813a 93df 4d3a
00000040: 526a 3eb9 8c66 2e3a ce72 66ba aa0f 11bb
00000050: c91a 62ba 1950 73ba 67fc 5bba cc20 99b9
00000060: 20bd 09b9 b791 3b3a 35d1 95ba 852d beba
00000070: f51b 8cb9 8ff8 aeb9 6ff7 adb9 2c0b 8739
00000080: a5e9 27ba e293 9fba 7f6e 783a e6e7 50ba
00000090: 22c7 9fb9 2de6 86ba 0c99 d53a 96b4 2b39
000000a0: 8644 99b9 b35f 91ba 45d7 b439 8c62 5238
000000b0: 1e0c 19ba 7b6a dfb8 9d83 053a da64 933a
000000c0: cf9b 59ba 7529 8cb9 bc5d 4237 3c01 193a
000000d0: 5814 dfb9 8540 f439 3ce8 75ba 72d3 46b9
000000e0: a625 f038 695d 6139 4c08 afba b414 ecb9
000000f0: 12df ff39 f2db 893a be72 8ab8 3e1c da39
00000100: 3136 62ba 9df9 30ba f8f3 7e3a 4bb0 1e3a
00000110: cefb b53a db88 57ba caeb 1dba 44a5 a038
00000120: 71ae 28ba 1389 a0ba f1c4 b939 69dc 9f39
00000130: ee48 0fb9 fc63 6b3a 4527 ed39 f275 5d39
00000140: d607 d739 0c7e a237 18b7 e9b7 947f a539
00000150: f977 7939 cc1d 413a 8913 c639 fc74 7b39
00000160: 5482 0aba 80d2 0d3a 8536 91ba 3080 a1b7
00000170: 6da9 00ba c898 f537 1262 9f39 c806 dcb7
00000180: be57 263c 484d 97bd b29d 63ba 460f d13b
00000190: b9b4 47bc d3da 8dbb c382 c13a 50c1 85bc
000001a0: ab3e f33b ad35 04bc c069 383c 021b fdba
000001b0: 7e73 243c 407a 4ebb 041a 88b9 c469 9b3b
000001c0: 14d0 5dbb e8e7 273c c9d8 9bbc f959 33be
000001d0: 3beb cabb d6cf 203c 43da f5bc 9d6b 90bb
000001e0: 0465 813c 2744 a83a 1a39 90bb 1772 a0bb
000001f0: da89 8e3c 9a91 463c 0f6a a5bb 21c4 3cbc
00000200: 1e72 e7bb 1cea 36bb cbf5 543c d4cc 9dbb
00000210: dd6b 86bb 8773 8f3b c33f 6b3c 329d 0f3c
00000220: 4b7b 493b 7396 a9bb 2d00 253c 87c2 b83b
00000230: 253e 50bb c9a7 8f3b e2a4 06b9 cbb0 4a3c
00000240: 5e43 ea39 04ab a6ba 5a1c 86bb 3682 203b
00000250: 3669 f3b9 db8c c3bb 2f42 2f3b 42ca f1ba
00000260: 9419 fe3a fa10 643b cdc4 e13b 7ab6 153c
00000270: 791f 6bba 8d01 913b c970 c93b 5cbc ee38
00000280: 060f bcba 67a2 55bc fd40 963b 0653 a03a
00000290: cf30 963c 2267 a83b bdf7 d53a 05c4 2c3c
000002a0: 57cf ce3a 4b06 b93b b805 a53a bf64 143c
000002b0: 8e32 f93b 419f 5c3b 00d1 ec3b 6a3a 983c
000002c0: 0eb4 073c 925a 213c bfef afbb 2658 ba3b
000002d0: 78b1 0b3c 6a72 a0bb 4d7f 4e3c 048d 4fbb
000002e0: 82ae 13bb 814e b73b 98f4 55bb 3471 8e3b
000002f0: e3bd b4bb d42c 843c 361f 9e3c 3e80 0b3c
00000300: 2d8e 16bb 3f1e 45ba 56af 173b ab06 1bba
00000310: a031 ca39 7143 c7ba 6e27 d3ba fd95 fcbb
00000320: 5aee acba e505 a639 2ec6 7fbb 0fed a2bb
00000330: 0ac6 1e3a 0811 30bc 00f3 12ba b325 c9ba
00000340: 9e77 e1bb 3a39 49ba 0126 473c d413 65bc
00000350: be90 d839 1e7a 0a39 7fb7 83ba 2d83 e8ba
00000360: aac6 a33a ce30 063b fa72 96ba 0129 0b3e
00000370: 2d37 573b b394 fd3a 97cf 2bbc 4a6f b53c
00000380: a728 1cbc cbb0 fdbb 6ae6 66ba 401d 92b7
00000390: ebd0 1dbb 0274 0b3b 18cc 9439 6e89 9539
000003a0: a6f0 a4bb b49a 7fba dc02 de3b 03f1 02bb
000003b0: 1405 09bb a943 263a 242f 9f39 1eea be3a
000003c0: f6b8 89ba 7490 25bc a032 3a3a 8922 163a
000003d0: 2830 76ba 141e 9a3a 8c53 cc3b c382 d4b9
000003e0: 4d71 133a ac3d 04bb 1699 353b 35e9 293b
000003f0: 3926 5bbb eda2 9539 522e db3b 8132 f539

MLP.2.bias f4 [96]
0.00048205175 0.0040419623 -0.0001070236 -0.00036192557 -0.00074027345 0.00020730612 0.0011636199 0.002028932
0.00069096254 -0.0003272522 0.00042515964 0.002119817 0.0021190518 0.00023503038 0.00025272157 -0.00016771632
0.0010357415 0.0004497825 -0.00043503585 0.00024532754 0.0017850195 0.0007664863 -0.00022339984 0.0023858002
0.00021632691 0.002191927 0.00017085765 0.00030116577 0.00035653065 0.0015223516 0.00026146855 0.0031993215
0.0007289052 0.00034198398 0.00030068844 0.00033343714 -0.00057386904 0.001881038 0.0026779713 -0.00047414104
0.00036542077 0.0010718127 0.0019226635 -0.00033658594 -0.0019804516 -0.0011356997 0.0006520887 -4.0350118e-05
0.0020335692 -0.00021816735 -0.00032604864 -0.0006094394 0.00071860594 -0.00047219306 0.0012987035 0.00071913574
0.00040581488 0.0008289764 0.001414315 0.00026439698 -0.0029480266 -3.7781574e-05 0.0016828416 0.0009112933
0.0037371474 -0.0028269915 -0.0018034637 -3.9488346e-05 0.0044062114 -0.0017471407 0.000103142695 -0.009897687
0.00674025 -0.0085208155 0.015296759 0.0021654554 0.008072211 -0.003594241 0.018258188 -0.00022067103
-0.005381027 -0.0026690105 -0.010339322 -0.0024824652 -0.0028542655 -0.013660802 -0.004300119 -0.012380471
0.007708097 -0.006132918 -0.0014679708 0.005253424 -0.007037398 -0.0058428408 -0.0058110747 0.008384243
00000000: e4bb fc39 7072 843b dc71 e0b8 d4c0 bdb9
00000010: e90e 42ba 5060 5939 9b84 983a d5f7 043b
00000020: b621 353a 0c93 abb9 f6e7 de39 a1ec 0a3b
00000030: cadf 0a3b 7d72 7639 b77f 8439 02dd 2fb9
00000040: b8c1 873a c9d0 eb39 8615 e4b9 4e9f 8039
00000050: 51f7 e93a 06ee 483a 7040 6ab9 165b 1c3b
00000060: d0d5 6239 6fa6 0f3b 4028 3339 c9e5 9d39
00000070: bcec ba39 a589 c73a b715 8939 b5ab 513b
00000080: 0014 3f3a 504c b339 b8a5 9d39 2dd1 ae39
00000090: b36f 16ba 298d f63a e780 2f3b 2296 f8b9
000000a0: f295 bf39 117c 8c3a e201 fc3a cd77 b0b9
000000b0: 77ca 01bb c2db 94ba eff0 2a3a 9c3d 29b8
000000c0: a145 053b dac3 64b9 82f1 aab9 c9c2 1fba
000000d0: d460 3c3a ae90 f7b9 4239 aa3a 6284 3c3a
000000e0: 8dc3 d439 aa4f 593a 8960 b93a c39e 8a39
000000f0: ae33 41bb a877 1eb8 cb92 dc3a dce3 6e3a
00000100: eeea 743b 0c45 39bb 3362 ecba 4aa0 25b8
00000110: fb61 903b 5000 e5ba 504e d838 e829 22bc
00000120: 51dd dc3b e49a 0bbc 429f 7a3c 50ea 0d3b
00000130: 4f41 043c 5c8d 6bbb 3292 953c ee63 67b9
00000140: 5353 b0bb 91ea 2ebb 4266 29bc dbb0 22bb
00000150: a10e 3bbb 8ed1 5fbc 03e8 8cbb 76d7 4abc
00000160: 3494 fc3b a5f6 c8bb ed68 c0ba ea24 ac3b
00000170: f999 e6bb 4d75 bfbb d46a bebb 105e 093c
