pretrained_models/ENZYMES/CalcModel.pth (torch, 76203 bytes, 4 tensors)

MLP.0.weight f4 [96, 96]
00000000: 682f 02bc 74c4 763d 68bb 13bd aa97 ce3d
00000010: 183b 293c a37b 96bd 154a b7bd 68d1 0abd
00000020: 4e7f b2bd 4e36 c43d bcbc 443d 6c6a 19bd
00000030: 30f1 3fbd 1208 893d 50c1 0f3d 4232 be3d
00000040: 000f ae3c 0814 e6bc 79c8 53bd 8a45 96bd
00000050: d082 89bc 9893 bf3c 20e9 93bb 0527 d0bd
00000060: 52dc 13bd 30a3 df3c a8a3 3c3c 9953 b5bd
00000070: 4cf6 7e3d 4c24 543d de1b 843d 9a2b c03d
00000080: 0b81 95bd e0fa 643d b0e2 e1bc ee5f 3abd
00000090: 56b8 8c3d 80aa c53b 7b68 a6bd 20f9 2a3d
000000a0: 580f e53c b0dd 693d ceb9 0cbd 204e f7bc
000000b0: d00c 61bc 4c1d 18bd 9815 0bbc 7485 d7bc
000000c0: 9800 f93c 44bd b8bc 61d7 68bd 60cd c7bc
000000d0: 8cdd 2d3d 7c3b 17bd c925 5cbd bb92 75bd
000000e0: f8c6 02bc e028 6b3d e456 613d 7658 adbd
000000f0: 52a7 cf3d 1b49 3ebd 4ba3 9dbd c87d 12bd
00000100: 7841 a73d e676 cb3d 50bf 75bc f01d 733d
00000110: 08fb 1e3d fc32 47bd a021 123b 70c0 d03b
00000120: 5023 e63c 1c27 183d 28c6 3bbc 83c3 32bd
00000130: fcfa 703d c9b3 23bd 2299 89bd 38ea c33c
00000140: 4cf9 833d d820 3b3d fc28 96bd 1e8c a4bd
00000150: 20ea 123c 9cc4 cf3d a4c2 c73d d05e a93d
00000160: daa6 8bbd e876 893c 52f1 bb3d b0e2 a53d
00000170: 4c39 81bc 684b 043d e62c 9b3d 0c18 b13d
00000180: 6262 af3d e01e 72bb 2a78 a73d d8f7 49bd
00000190: a055 e43c ee87 993d 0953 58bd 209a 3e3d
000001a0: 2aba bf3d 5ed2 b7bd cc2b d9bc 78f6 9d3c
000001b0: a056 f63b 5dfa c7bd 5745 a8bd 0ce8 babd
000001c0: b81a 963d ced4 92bd 1685 83bd a6ee 9b3d
000001d0: 8684 9ebd 108f d4bc b63c b1bd 48dd 6c3d
000001e0: 7941 b9bd 2fbe 27bd 80d4 dd3c bedf ac3d
000001f0: 2079 c5bd c88e 653c 20d3 3b3c b441 b33d
00000200: 4120 4cbd f2c5 02bd 0ef3 933d 80be a13b
00000210: 5907 45bd 7061 663d bcee 1e3d 4ab0 8b3d
00000220: 86ae a33d 3078 5f3d f325 a6bd 4139 40bd
00000230: 2a62 cdbd d471 683d d86b f33c 9997 85bd
00000240: 1436 d03d 0ce8 a5bd 3822 86bc 6015 e63b
00000250: 6e74 1abd 69b9 5abd 7e53 843d 2caf 873d
00000260: d497 a73c 30d5 bd3c d88d 9abc 2c0a 8cbc
00000270: f546 65bd 3800 743d f5da b3bd 767f 9a3d
00000280: b051 dc3c f78d a5bd 8eb7 b6bd bf5e 2bbd
00000290: 22cc 903d b88e 0dbd 9030 bdbb 36f6 863d
000002a0: 8a46 9cbd c851 d33c 7822 c8bc 1e4e 9dbd
000002b0: 7c8c 8d3c 92fb 37bd 50e7 5abc f32a 5dbd
000002c0: 6c7b 843d e5bf 8ebd 343a b23d a8cd 6e3d
000002d0: 1ab0 8d3d 3099 97bc 5c2c ba3c c6ae af3d
000002e0: 0cff 923d 0846 32bc 2474 d3bc 605f 17bd
000002f0: 80e6 47bb af7c 96bd 2e13 973d 6842 7e3c
00000300: b066 9abb de11 b9bd c6c2 8abd df9c 24bd
00000310: e059 483d aa14 88bd 2099 af3b 886f 213d
00000320: 5e8e 813d 3889 12bd 5438 403d dc1b 943d
00000330: a0a1 093c 009c 9dbc 88e3 783c 9c2e 103d
00000340: 69db 35bd 85e6 c2bd 40ea c9bc 5457 9fbc
00000350: 388c 77bd b47c 10bd 2017 88bd 2c1e a6bd
00000360: 6e54 83bd 0c1e acbd 44de 40bd 8080 1eba
00000370: bdc5 92bd 94bb 8b3d ce6c a2bd 3c48 a43c
00000380: 78c6 6d3d 6601 c63d b031 14bd 280a b63c
00000390: b891 d0bd b4d6 c3bc 8041 503d f280 c6bd
000003a0: 748c 563d e08d 98bd c4cd c73d e85c 4bbc
000003b0: 0099 e7bb 63ea 63bd 10c4 c2bb 86bc a43d
000003c0: 3434 5bbd e01f bb3d b118 6cbd a013 3cbb
000003d0: b608 b13d d8a8 323d 90f4 a93b c852 3dbd
000003e0: c08a 31bc 821f c93d c87d 673d 6d44 5ebd
000003f0: b16b c3bd 7c3a f3bc 4c7a 693d 03b2 ccbd
-0.007945873 0.060245946 -0.036067396 0.100875214 0.01032903 -0.073478006 -0.08949677 -0.03389111
-0.08715688 0.0958067 0.048031554 -0.037455007 -0.046860874 0.066909924 0.035096467 0.0928693
0.021247387 -0.028085724 -0.051704857 -0.07337482 -0.01678601 0.023385808 -0.0045138747 -0.101636924
-0.036098786 0.027299494 0.011513628 -0.088538356 0.062246606 0.051792428 0.06450628 0.09383316
-0.073000036 0.055903316 -0.027573913 -0.045501642 0.06871097 0.006032288 -0.08125397 0.04174149
0.027961418 0.057096183 -0.034356885 -0.03018862 -0.013735965 -0.037137315 -0.008489035 -0.026308753
0.030395791 -0.022551186 -0.056846026 -0.024389923 0.04244761 -0.036921963 -0.053746972 -0.059954386
-0.007982008 0.05741203 0.055014506 -0.08464138 0.10139336 -0.046456438 -0.07697161 -0.035764486
0.08166784 0.099347875 -0.014999226 0.059354722 0.03881362 -0.048632607 0.0022297874 0.0063705966
0.02809301 0.037146673 -0.011460818 -0.043643486 0.058833107 -0.03996638 -0.06718661 0.023915395
0.06444034 0.04568562 -0.07332036 -0.08034538 0.008966953 0.10144922 0.09753922 0.08270037
-0.06818934 0.016780332 0.091768876 0.08099878 -0.015774392 0.032298476 0.07576923 0.08647165
0.08563687 -0.0036944672 0.08177216 -0.049308628 0.02787286 0.0749663 -0.052813563 0.046533704
0.0936168 -0.08975671 -0.026510142 0.019282565 0.0075176507 -0.0976455 -0.082163505 -0.09126291
0.07329315 -0.071694955 -0.064218685 0.07613878 -0.077401206 -0.025947124 -0.08654158 0.057828218
-0.09045691 -0.040952858 0.027078867 0.08441113 -0.096422434 0.0140110925 0.01146391 0.08752766
-0.049835447 -0.031927057 0.072240934 0.0049360394 -0.04810271 0.056245267 0.038801894 0.06820734
0.07992272 0.05455798 -0.08112707 -0.0469296 -0.10028489 0.05674918 0.02971451 -0.065230556
0.101665646 -0.081009 -0.016373739 0.007021591 -0.037708692 -0.053399477 0.06461237 0.06625208
0.02045814 0.023172945 -0.018866464 -0.017094694 -0.055975873 0.05957052 -0.08781997 0.075438425
0.02689442 -0.08083718 -0.08921729 -0.041838404 0.07070185 -0.034559935 -0.0057736114 0.0658993
-0.07630642 0.025795832 -0.024430498 -0.07680915 0.017278902 -0.04491765 -0.013360813 -0.053996038
0.06468853 -0.06970195 0.087025076 0.058301598 0.06918354 -0.018505663 0.02272623 0.08578257
0.071775526 -0.010880955 -0.025812216 -0.03695619 -0.003050238 -0.07348 0.07376705 0.015518762
-0.0047119483 -0.09036611 -0.06775431 -0.040188666 0.048913836 -0.06644566 0.00535883 0.039413005
0.063259825 -0.035775393 0.04692872 0.07231876 0.008400351 -0.019239426 0.015190966 0.0352007
-0.0443987 -0.09516624 -0.024647832 -0.019450821 -0.060436457 -0.035275176 -0.06645036 -0.081112236
-0.06412588 -0.084041685 -0.04708697 -0.00060463697 -0.07166622 0.06822887 -0.07930909 0.020053975
0.058050603 0.096682355 -0.0361802 0.02222164 -0.10184044 -0.02390609 0.050843716 -0.09692563
0.05238004 -0.074489355 0.097560436 -0.012412287 -0.0070677996 -0.05564345 -0.0059437826 0.080437705
-0.05351658 0.09136939 -0.057640735 -0.002869822 0.086442396 0.043618053 0.005186625 -0.046221524
-0.010836303 0.09820463 0.05651644 -0.054264475 -0.09542025 -0.029690973 0.057001397 -0.099948905

MLP.0.bias f4 [96]
00000000: a488 af3d 73e1 bfbd 7827 ce3c e687 b1bd
00000010: 8821 733d 7c11 813d d47c 553d a2b4 66bd
00000020: ded5 8e3d 409a 8e3c 20ff dcbb 7cb9 cb3d
00000030: be73 79bd b2a1 a23d fc67 c1bd b1ca 65bd
00000040: ef15 36bd 70a5 d2bb 78c2 2f3d 5054 45bd
00000050: fd82 2cbd a896 773c d969 38bd 9716 8fbd
00000060: 68d3 86bc 6c26 3c3d f42f 153d 4159 7abd
00000070: a0b9 863b 91f0 94bd a67f a83d ec0f 94bd
00000080: 9c4a b03d 2c0d b2bd 2606 c7bd 5eaa 64bd
00000090: 82b4 2ebd 9458 5bbd e449 813d 0c9e 863c
000000a0: 003a f3ba a288 61bd a642 20bd f643 cb3d
000000b0: 7590 c9bd 5c59 ce3d cae2 cabd 720f 893d
000000c0: 746b 0abd 2e86 26bd 7471 6c3d ac3a c3bc
000000d0: 2c1d 7a3d bce3 043d b58f d0bd f2a5 c7bd
000000e0: a0eb d03c b05f d2bc 88fa 74bd c0e9 bebd
000000f0: 20c5 793b f619 13bd 4014 5ebb 2002 473c
00000100: 6c7d 873d 5875 973d 4234 cabd 0820 c53d
00000110: 589c 5e3d c640 16bd 4c00 d03d 3400 f8bc
00000120: 4849 b0bd 8eb7 17bd 94ee babd 80b8 513d
00000130: 30e6 9ebc e017 fabb 0427 51bd dc20 803c
00000140: de51 bc3d 4c4a c4bd f069 ffbb 1052 a23c
00000150: 7022 e6bc dc2c 613d e0b7 60bd 9396 abbd
00000160: f6f1 933d 207d 6f3b f02f fabc c8de 333d
00000170: f70b 69bd 8412 a63d 803e 1ebb f06e 75bc
0.08570984 -0.09369173 0.025165305 -0.08668499 0.05935815 0.06302163 0.052121 -0.05632461
0.06974386 0.017407537 -0.0067442805 0.09947488 -0.060901396 0.07940997 -0.094436616 -0.056101505
-0.04445451 -0.006428413 0.04291007 -0.04817611 -0.042117108 0.015111603 -0.04502282 -0.069867305
-0.016458228 0.04593508 0.036422685 -0.061120275 0.0041114837 -0.07272447 0.08227472 -0.07229599
0.086079806 -0.086939186 -0.097179696 -0.055826537 -0.042652614 -0.05355127 0.06312922 0.016432784
-0.0018556714 -0.055061944 -0.03912606 0.09925072 -0.09842006 0.10075638 -0.09906538 0.06692399
-0.03379388 -0.040655307 0.057725385 -0.023831688 0.061062977 0.032443747 -0.1018366 -0.097484484
0.02550298 -0.025680393 -0.059809238 -0.09321928 0.003811188 -0.03591343 -0.0033886582 0.012146503
0.06615719 0.073954284 -0.09873249 0.0962525 0.05434832 -0.036682867 0.101563066 -0.030273534
-0.08607727 -0.037040286 -0.091275364 0.051201344 -0.019396871 -0.0076322407 -0.0510626 0.015640669
0.091953024 -0.095844835 -0.007794611 0.019814521 -0.028092593 0.05497442 -0.054862857 -0.08378329
0.07223885 0.0036543086 -0.030540437 0.043913633 -0.056896176 0.08109 -0.002414614 -0.014980063

MLP.2.weight f4 [96, 96]
00000000: d646 a2bd 68d3 79bc 30a0 243d 8026 6a3a
00000010: 00cb 2b3a 18e9 9d3d 1495 603d 8088 2cbc
00000020: 4817 f13c a97d 4ebd 7073 2a3d 10d9 e83b
00000030: 789a a13d c20e 2abd 4e29 5dbd 0258 bd3d
00000040: b296 36bd 406c 5d3d 0098 59bb 90f2 fa3b
00000050: 1a8e a03d 845a 283d 5724 c5bd a0e8 583d
00000060: 7559 64bd d0f5 8fbb b4f5 03bd 4413 7a3d
00000070: ec70 48bd 842f 113d 7804 bd3d 601b 01bc
00000080: 22e0 5abd ecb4 773d 56e0 cd3d 7011 373c
00000090: e2d0 c6bd f812 033d 98b1 edbc 4087 2e3c
000000a0: 4845 843c 18fa df3c 00a2 db3b 80b2 913b
000000b0: e887 c0bd d06e e6bc 3ab2 6dbd 3d77 6bbd
000000c0: a897 0e3d 66cf 9cbd 4c53 5bbd 8098 70ba
000000d0: df82 24bd 3870 02bc 58b3 f6bc c4d4 7b3d
000000e0: c0a2 7bbb 60ae b83c d6ac c83d 8c43 a23c
000000f0: 18e0 cdbc 3b65 9cbd 5ec2 87bd b834 febc
00000100: cc74 5e3d 4cbc 723d e8a3 bc3c f634 8ebd
00000110: a0d3 6ebc d0ef 323d 740a 70bd 480a bf3c
00000120: 3c3f b63c a01e 78bd d8ac a23d 54d0 463d
00000130: 9094 373c 81fc 71bd 5260 873d f8a5 423c
00000140: 62f9 abbd 76c4 ca3d be4e 31bd e8c3 4d3c
00000150: 62a1 953d 785b 8b3d df1e 9cbd e505 adbd
00000160: 6c36 473d 3a4b 10bd a01d 4dbc 9224 a13d
00000170: f19a bcbd c4d4 813c 5ecc c23d 4015 34bb
00000180: 0424 b03d 2803 1a3d d498 7c3d 5aac 993d
00000190: f029 473c b0ab 7f3d 80de 6f3b 48f8 13bc
000001a0: f04f 983d 5c02 1a3d c6a0 813d ec36 5bbd
000001b0: 70eb b23d aa86 833d 48e7 77bc fa01 57bd
000001c0: 685a 47bc 3c3f 923d debd 84bd 807f debb
000001d0: 2e1e 9d3d 2876 2a3d 58a9 113d c256 b7bd
000001e0: ace4 cabc c053 063d ae33 9abd b05b 853b
000001f0: 9c27 d9bc 8404 adbd a0e8 193d 040c 933d
00000200: 30dc b03b d813 de3c 78ea d03c b26e 90bd
00000210: 26c6 9bbd b8c9 773c 0016 db3c 4502 87bd
00000220: 2ed3 923d 1157 cabd 966e 7fbd f48b c73d
00000230: bc94 1a3d d869 cc3c 2030 52bb 38f2 62bc
00000240: 9849 cc3d eb99 adbd 21c3 87bd 341a ffbc
00000250: 705e 0dbc f4ce 89bd f9ef 6ebd b935 8bbd
00000260: 58ff 61bd c3e0 41bd 2c48 b23d 78a2 173d
00000270: 8075 343d 6038 06bd 78c5 413d 5804 293d
00000280: 70d2 e13b dca6 8bbd 2ef7 af3d 1c69 a0bc
00000290: b0b6 1f3c 607c c43d e769 bdbd 3c89 c2bd
000002a0: c015 193d 70d1 8dbb 062b 06bd 986d 74bd
000002b0: 4ced 93bd 0648 1ebd f9f0 30bd a604 af3d
000002c0: 6971 c7bd 4ebc 853d 7c83 cfbc fe40 c73d
000002d0: 6c29 a9bd 2eaf 3ebd 703d 0a3d 10ca 043d
000002e0: b6f7 953d c460 21bd 326b 80bd b87b 3d3c
000002f0: cc5d b8bd a8e3 80bd 909b 9fbc 72e7 b43d
00000300: e6c5 09bd 3cca 9f3d 60a7 7dbb a0a2 96bc
00000310: 607b cf3b 5e03 aebd b09a 893d 0014 c33c
00000320: e441 313d c899 5e3d 7e99 a3bd 9842 8abc
00000330: fcf8 493d eaf6 17bd 1bee 4fbd 848c 0c3d
00000340: 4457 353d b8b0 4c3c 8044 63bb 201d 2e3d
00000350: 0233 a1bd 20f8 cf3c 7814 243d 9c8c 94bd
00000360: 9431 343d e0a7 ebbc 40b4 a53d 955b afbd
00000370: f497 38bd 2543 c8bd f592 76bd 3e84 88bd
00000380: d07a 86bd 5ec0 99bd b83c 353d ed82 d0bd
00000390: aa14 c53d 9014 123c af11 cdbd 0ca6 dfbc
000003a0: 5ae1 abbd 9cbb 59bd 485e 953d 24b0 303d
000003b0: 4a3c 87bd 90ff 0ebd 4099 34bc 4e3c 863d
000003c0: 836b 8fbd ad58 2ebd c0c9 55bb b079 0a3d
000003d0: ad69 27bd ccb3 aabc c885 313d 28b1 3e3c
000003e0: 94a9 0a3d 088e c3bc a0f4 8dbd c8d6 b2bd
000003f0: 60a9 b93b 1687 46bd b09b c0bd cf3d 25bd
-0.07923667 -0.015248157 0.04019183 0.00089321285 0.00065533817 0.07710475 0.054829672 -0.010530591
0.029430047 -0.050412808 0.041613996 0.007105954 0.07890791 -0.04151798 -0.05399447 0.09245302
-0.044577308 0.054058313 -0.0033202171 0.0076583102 0.07839604 0.041101947 -0.09626072 0.052956223
-0.055749375 -0.004393317 -0.032216743 0.06105353 -0.048935816 0.035445705 0.09229368 -0.007880062
-0.053436406 0.060475275 0.10052554 0.011173591 -0.0970781 0.032000512 -0.029015347 0.010652363
0.016146317 0.027340934 0.0067026615 0.0044463277 -0.09400922 -0.028129011 -0.0580313 -0.05748676
0.0348126 -0.076567456 -0.053546235 -0.00091779977 -0.04016387 -0.007961325 -0.030114815 0.061482206
-0.0038396567 0.022544086 0.09798591 0.0198076 -0.02513127 -0.07636496 -0.066288695 -0.031030998
0.054310605 0.059261605 0.023027375 -0.06943695 -0.0145768225 0.043685734 -0.05860372 0.023320332
0.02224695 -0.06057608 0.079431236 0.04853852 0.011204854 -0.059078697 0.066101685 0.01188039
-0.08397175 0.09900753 -0.043287985 0.012558915 0.07306172 0.06804556 -0.07623076 -0.0844839
0.048635885 -0.03522799 -0.01251927 0.07868303 -0.0920924 0.015848525 0.09511636 -0.0027478486
0.086006194 0.037600666 0.061669186 0.075035766 0.012155995 0.062419593 0.0036601126 -0.009031363
0.07437122 0.037599906 0.06329493 -0.053519174 0.087363124 0.064221695 -0.015130825 -0.05249212
-0.012167551 0.07140967 -0.06481527 -0.0067901015 0.07671772 0.04161659 0.03556189 -0.089520946
-0.024767242 0.032794714 -0.07529388 0.004069768 -0.026508145 -0.08448127 0.037575364 0.07180026
0.005397342 0.027109072 0.025502428 -0.070523635 -0.07606153 0.015123777 0.026743889 -0.0659223
0.071691856 -0.09879888 -0.062361322 0.09743491 0.0377395 0.024952814 -0.0032072142 -0.013851695
0.099749744 -0.08476623 -0.06629015 -0.031140424 -0.008628473 -0.06728926 -0.058334325 -0.06797356
-0.055175155 -0.04733349 0.08705172 0.037020177 0.04405737 -0.032768607 0.04730746 0.04126391
0.006891541 -0.06818935 0.08592068 -0.01958137 0.009748146 0.09594035 -0.09248715 -0.09498832
0.037374258 -0.0043279454 -0.032755874 -0.05967483 -0.07222995 -0.038642906 -0.04319856 0.085458085
-0.09738428 0.06530057 -0.025331251 0.09729193 -0.08259854 -0.046553783 0.033749998 0.032419264
0.07322638 -0.039398924 -0.06270446 0.011565141 -0.09002265 -0.06293422 -0.019483358 0.08833207
-0.033635996 0.07802245 -0.00387045 -0.018388093 0.006331846 -0.08496736 0.067189574 0.023813248
0.04327573 0.054345876 -0.07988261 -0.016877457 0.049309716 -0.03710071 -0.050764184 0.034313694
0.044272676 0.012493305 -0.003467828 0.042508245 -0.07871057 0.02538687 0.040058583 -0.072533816
0.043992594 -0.028766572 0.080910206 -0.0856239 -0.04506679 -0.09778432 -0.060198743 -0.06665848
-0.065663934 -0.07507394 0.04424736 -0.10181222 0.09623082 0.008916035 -0.100131385 -0.027300857
-0.08392592 -0.053157434 0.07293373 0.04313673 -0.06603296 -0.034911692 -0.011022866 0.06554471
-0.07002928 -0.042565037 -0.0032621473 0.033807456 -0.040872265 -0.020837687 0.043340474 0.011638917
0.03385313 -0.023871437 -0.06931424 -0.087323725 0.005665943 -0.04846867 -0.09404695 -0.04034215

MLP.2.bias f4 [96]
00000000: 4426 a7bd cc6b 8bbc d404 b23c a0a0 1a3d
00000010: 18fc 923c bb24 71bd 0083 52bb bad7 2cbd
00000020: 2429 d0bd 6ed8 7dbd 7ddc b1bd 1e43 993d
00000030: 9c20 5fbd d4ef 8abd 98e1 6d3c 5c32 42bd
00000040: 9815 033c ea72 1dbd 2ea0 983d c0ce e4ba
00000050: 4843 933c 0791 aabd a76f b6bd 8a48 883d
00000060: 743b ccbd 68c7 b8bd 70d5 c73c c045 0c3d
00000070: 9c6c 9d3d 74b8 b3bd dab7 4ebd 402c 76bb
00000080: b2eb c73d 30ec b4bb 9212 b2bd 584b 53bd
00000090: 3ca9 843d 2a80 37bd d44d cdbc 88d5 373d
000000a0: 1225 17bd bcd1 b7bc 2668 58bd b863 ae3c
000000b0: 089b 283d b87e 06bd 6c46 1d3d 38d6 103c
000000c0: 98df 57bc 4c3b a23c c0e1 45bc 0cbb 913d
000000d0: 2ca4 97bc 0f2a c5bd f002 91bb 9889 2b3c
000000e0: 3022 c0bc 8cb4 b03c 38a4 633d 1547 5dbd
000000f0: 2087 b83d 3672 8c3d b081 9f3b fafa b93d
00000100: ee1f bc3d 88aa a5bd 5090 b4bb 9ada c13d
00000110: a029 3b3b 03bc 51bd d4a4 a3bc 9e19 64bd
00000120: 96c8 a13d f89a b3bc f0e0 9c3d 50b4 b93d
00000130: bd27 69bd dcd7 b13d 3044 cabb 2483 fabc
00000140: 5043 90bc 2048 113c c2e2 98bd 34ab 163d
00000150: c82a 943c 00f0 9a38 1842 d03d 4896 be3c
00000160: 3013 c9bc 1a8d b23d 35ef a0bd 69ea 5bbd
00000170: 04ea 233d e885 cc3c 0489 d03d 82a8 b23d
-0.081615955 -0.017019175 0.021730818 0.03775084 0.017942473 -0.05887292 -0.003212154 -0.04219792
-0.10164097 -0.06197398 -0.08684633 0.07483505 -0.054474458 -0.06784025 0.014519118 -0.047411308
0.008000754 -0.03843967 0.07452427 -0.0017456636 0.017976418 -0.08328443 -0.08908015 0.06654461
-0.09972277 -0.09022409 0.024393767 0.034246206 0.07686731 -0.08775416 -0.050468303 -0.0037562996
0.09761752 -0.00552132 -0.08694948 -0.051585525 0.064775914 -0.04479996 -0.025061525 0.044881374
-0.036900587 -0.022438876 -0.0528337 0.021287784 0.041163474 -0.032835692 0.038397238 0.008840136
-0.0131758675 0.019803666 -0.012077749 0.071157545 -0.0185109 -0.09627163 -0.004425399 0.010469817
-0.023453802 0.021570466 0.055576533 -0.054022867 0.09010148 0.068577215 0.004867755 0.09081073
0.091857776 -0.08089167 -0.0055103675 0.09465523 0.0028558746 -0.051204693 -0.019976057 -0.055688493
0.07899587 -0.02192448 0.07660091 0.09067595 -0.056922663 0.0868375 -0.0061726794 -0.03058011
-0.017610222 0.008867294 -0.074651256 0.036784366 0.018086806 7.387996e-05 0.101688564 0.023265019
-0.024545282 0.08718319 -0.07858125 -0.053690348 0.040018097 0.024966195 0.10182384 0.087235466
