pretrained_models/ENZYMES/epoch_200_NodeCLModel_withoutAGMTT.pth (torch, 35755 bytes, 24 tensors)

convList.0.nn.0.weight f4 [32, 21]
0.115667194 -0.20675933 -0.070536025 0.10746786 -0.12801665 0.1630098 0.1381522 -0.02775763
-0.16403982 0.013060498 -0.24934319 -0.021515317 -0.110080525 0.00777655 -0.08738101 -0.1334758
0.007384143 -0.038788483 0.11078504 0.07887669 -0.43729424 0.16741592 0.058903135 0.10451775
-0.14437675 0.02800223 -0.113270074 0.030698095 0.1976361 -0.13930787 0.117623396 -0.2564615
0.21155712 0.22458547 -0.16706759 0.085908785 0.1318687 0.13315089 -0.10099783 -0.11942104
0.2934134 0.018479487 0.13606574 0.16479003 -0.022436325 -0.09076704 0.0029419377 -0.13670214
0.03857173 -0.065382496 0.030199872 0.01806422 0.045394294 -0.0612657 -0.05138929 0.06805548
-0.014289179 0.008395278 -0.033668857 0.030166874 0.12627268 -0.054888714 -0.0311341 -0.071059585
0.17062226 -0.017968453 0.02725543 0.00930392 -0.08627503 2.9614486e-05 0.025899198 -0.00081850926
-0.01236815 0.017888645 0.023179155 0.02698297 0.009444339 -0.008017807 0.008631262 0.016760537
-0.0008185967 0.0009726153 0.07824266 -0.008599807 -0.2201893 -0.15123037 -0.16789417 0.06978947
-0.13771571 0.14834553 -0.28758448 2.1917767e-05 0.14528042 0.13004047 0.05565979 -0.11595663
0.16494432 -0.26036146 -0.189402 0.16116369 -0.0693616 -0.1161872 -0.2691723 -0.1111411
0.09775944 -0.040701155 -0.21922113 -0.021356348 0.07635906 -0.06750276 0.07300167 -0.08276593
0.11546426 -0.16893628 -0.051315576 -0.084289126 0.105944134 -0.0820757 0.22816943 0.15157515
-0.058137733 -0.10747534 0.04697971 -0.18247497 0.11884279 -0.22808266 -0.08507709 0.027067177
0.023671614 -0.20277101 -0.23316249 0.12006191 -0.02551352 0.04319684 -0.06608622 0.087123424
-0.16419043 -0.074802235 0.014416192 0.07281259 -0.25733247 -0.0031461897 0.002214902 0.108476296
0.0049980315 0.10527263 0.39475122 -0.11389767 0.23841166 0.10973604 -0.06993781 -0.041333314
-0.10131807 -0.03783593 -0.049203757 -0.15014076 -0.19486007 0.10637796 -0.010073553 -0.14897372
0.041435853 0.24291828 0.010454992 -0.0733554 0.14966294 -0.66996855 -0.015898269 0.07740287
0.060424346 -0.04675837 -0.12532048 -0.03510238 0.11275221 0.117530294 0.11966989 0.1393014
-0.0011718399 -0.11938923 0.019691579 -0.031395245 0.07487544 -0.075002745 -0.08986918 0.010786183
-0.11946103 -0.14556608 -0.3359334 0.065189846 0.44110745 -0.017779686 0.1291696 -0.13246118
0.08292752 -0.03513986 0.095357664 0.12564968 -0.30597037 0.043497518 -0.1300468 0.096238695
-0.0016022235 0.015967302 -0.25269252 0.11569018 -0.26011252 -0.04004347 -0.06103267 -0.3360127
-0.25680634 -0.59534484 -0.11511616 -0.1435971 -0.109174274 0.16204718 -0.1390593 0.104582496
0.058456633 -0.061998554 -0.19391148 0.108233444 -0.09931082 -0.13390847 0.13644658 0.12079659
0.14003049 0.16464603 -0.16650116 0.01957938 -0.17860317 -0.090415746 0.4603162 -0.2422181
0.0029585345 0.029036278 9.946439e-05 0.034370128 0.013044653 0.0839608 -0.0019125894 -0.0074829236
0.040214323 0.056690574 -0.039466362 0.07632322 0.004417775 -0.03597566 0.017359793 0.039927553
-0.007364363 -0.19335373 0.023234943 -0.65638983 0.15146421 -0.2266662 -0.007382583 -0.1639623
00000000: ece2 ec3d b8b8 53be 3175 90bd 1c18 dc3d
00000010: cc16 03be 0aec 263e c577 0d3e f863 e3bc
00000020: 0efa 27be b3fb 553c d253 7fbe e440 b0bc
00000030: e671 e1bd 6ed2 fe3b d1f4 b2bd e1ad 08be
00000040: aef6 f13b ace0 1ebd 44e3 e23d 1a8a a13d
00000050: 08e5 dfbe 146f 2b3e 6a44 713d 670d d63d
00000060: 80d7 13be ef64 e53c 24fa e7bd 927a fb3c
00000070: 1e61 4a3e b9a6 0ebe 89e4 f03d ec4e 83be
00000080: 6ea2 583e bcf9 653e c413 2bbe f2f0 af3d
00000090: 9708 073e b558 083e f3d7 cebd 0593 f4bd
000000a0: 483a 963e 4b62 973c d154 0b3e b8be 283e
000000b0: 62cc b7bc 12e4 b9bd 86cd 403b a5fb 0bbe
000000c0: 64fd 1d3d 42e7 85bd b965 f73c 6afb 933c
000000d0: 5eef 393d bef1 7abd 937d 52bd ac60 8b3d
000000e0: 291d 6abc 598c 093c 5be8 09bd 8520 f73c
000000f0: a04d 013e fdd2 60bd f10c ffbc b087 91bd
00000100: 9ab7 2e3e 9432 93bc c846 df3c 786f 183c
00000110: f7b0 b0bd a06c f837 8e2a d43c 3a91 56ba
00000120: c8a3 4abc 358b 923c 36e2 bd3c 640b dd3c
00000130: 6ebc 1a3c 1f5d 03bc 236a 0d3c 654d 893c
00000140: 1897 56ba 1cf7 7e3a b03d a03d 34e6 0cbc
00000150: 4e79 61be 22dc 1abe 73ec 2bbe c8ed 8e3d
00000160: 5905 0dbe e4e7 173e 463e 93be 0cdc b737
00000170: 64c4 143e 5429 053e 85fb 633d ab7a edbd
00000180: 2ae7 283e 194e 85be 99f2 41be 1808 253e
00000190: 740d 8ebd 8ef3 edbd f4d0 89be f29d e3bd
000001a0: 1a36 c83d 41b6 26bd 817b 60be 82f3 aebc
000001b0: 2462 9c3d e33e 8abd e681 953d 2f81 a9bd
000001c0: 8778 ec3d a2fd 2cbe 4830 52bd c79f acbd
000001d0: 3df9 d83d 4e17 a8bd 3fa5 693e 8436 1b3e
000001e0: d521 6ebd 081c dcbd cc6d 403d b8da 3abe
000001f0: d963 f33d 808e 69be e63c aebd fcbb dd3c
00000200: f9ea c13c 34a3 4fbe 26c2 6ebe 05e3 f53d
00000210: bb01 d1bc 2bef 303d 3658 87bd c46d b23d
00000220: 8921 28be ea31 99bd e431 6c3c c41e 953d
00000230: 15c1 83be 4e30 4ebb e427 113b d228 de3d
00000240: 87c6 a33b 2d99 d73d d51c ca3e 2e43 e9bd
00000250: 3022 743e 4abd e03d 8e3b 8fbd 1f4d 29bd
00000260: d97f cfbd d9f9 1abd e189 49bd 80be 19be
00000270: 6689 47be b0dc d93d 8b0b 25bc 918c 18be
00000280: a4b8 293d 92bf 783e 6a4b 2b3c 5b3b 96bd
00000290: 3e41 193e 0f83 2bbf 163d 82bc 6585 9e3d
000002a0: 857f 773d b485 3fbd 0354 00be 83c7 0fbd
000002b0: a1ea e63d b9b3 f03d 7d15 f53d 07a5 0e3e
000002c0: 6c98 99ba 5782 f4bd 3c50 a13c 4d98 00bd
000002d0: 4b58 993d 0a9b 99bd 550d b8bd 88b8 303c
000002e0: fca7 f4bd 460f 15be 76ff abbe 4182 853d
000002f0: d6d8 e13e b4a6 91bc 0945 043e e7a3 07be
00000300: e7d5 a93d d0ee 0fbd e14a c33d 4faa 003e
00000310: 26a8 9cbe 742a 323d fd2a 05be cb18 c53d
00000320: b301 d2ba dccd 823c ea60 81be f9ee ec3d
00000330: 782d 85be 9f04 24bd 65fd 79bd db09 acbe
00000340: 1f7c 83be 8568 18bf 05c2 ebbd 1e0b 13be
00000350: c396 dfbd b2ef 253e 9065 0ebe 592f d63d
00000360: 3970 6f3d 32f2 7dbd bb90 46be 7fa9 dd3d
00000370: 7963 cbbd 4d1f 09be a7b8 0b3e 3464 f73d
00000380: 2764 0f3e f898 283e 487f 2abe f064 a03c
00000390: c0e3 36be e42b b9bd 91ae eb3e 0608 78be
000003a0: f9e3 413b 7ddd ed3c 8a97 d038 b1c7 0c3d
000003b0: 3eb9 553c a4f3 ab3d daaf faba 5033 f5bb
000003c0: c6b7 243d 6034 683d 7ba7 21bd 594f 9c3d
000003d0: fcc2 903b 375b 13bd 2036 8e3c 138b 233d
000003e0: c150 f1bb 85fe 45be 3557 be3c 2a09 28bf
000003f0: 6f19 1b3e 2f1b 68be 98e9 f1bb bce5 27be

convList.0.nn.0.bias f4 [32]
-0.029285077 0.03097356 0.0066513866 0.023836046 -0.052663147 0.04623948 0.17015928 -0.007701284
-0.022689823 -0.26221463 -0.014701944 -0.264932 0.23369116 0.07452229 0.1260768 -0.22184663
-0.00066997873 0.10552877 -0.08492887 0.06153161 0.02367069 0.06611565 0.05269799 -0.08618314
-0.15951958 -0.20946296 0.18346003 0.003148573 0.087705724 -0.05168967 0.23064952 0.079400085
00000000: 42e7 efbc 43bc fd3c e0f3 d93b d043 c33c
00000010: 50b5 57bd 9c65 3d3d 3c3e 2e3e 0d5b fcbb
00000020: 02e0 b9bc ff40 86be 6ce0 70bc 2ba5 87be
00000030: bc4c 6f3e 249f 983d 471a 013e c32b 63be
00000040: 83a1 2fba 781f d83d 30ef adbd 9208 7c3d
00000050: 09e9 c13c a467 873d d9d9 573d c980 b0bd
00000060: 1a59 23be 757d 56be f2dc 3b3e 4a58 4e3b
00000070: 0f9f b33d 8cb8 53bd 632f 6c3e 839c a23d

convList.0.nn.2.weight f4 [32, 32]
0.16168067 0.12033196 0.24833483 0.050099872 -0.18374164 -0.09855653 -0.13113675 -0.11547358
0.014305517 -0.04531429 -0.021684242 0.052512083 -0.20884702 -0.111420795 -0.1283333 -0.06446
-0.008529013 0.16314454 -0.12219268 -0.020104032 0.09547753 0.105550066 0.15405719 -0.09879335
-0.04258743 0.18169384 0.06887903 -0.08000214 -0.039892446 -0.046165198 0.0786479 -0.16507204
-0.018350383 1.5539775e-30 -1.4785822e-30 -7.840752e-35 -0.015204444 -0.016651833 -0.019924536 -1.150668e-34
-0.018701527 -0.01008927 -0.017307695 -1.4876955e-13 -0.010203578 -4.1385347e-06 -8.187908e-31 -0.02002238
-9.6103296e-29 -0.022676803 -0.01780537 -0.008730659 7.39468e-40 -0.020195728 2.34605e-40 -0.020070564
-0.021312619 -0.00030024772 -0.017070757 -0.01879682 5.6030474e-31 -0.015875963 -0.0042182095 -0.019030774
-0.092211485 0.011066754 0.01571641 -0.030408837 -0.022541309 0.10318448 -0.079664 -0.30636528
0.1571125 0.011643463 0.01561736 0.05159155 0.04345371 -0.23989987 0.21688579 -0.12649582
0.0028463942 -0.021010682 -0.098255 -0.18006264 -0.010394675 0.06986018 0.112931594 0.020307492
0.17525533 0.11165283 0.14167258 0.05209808 -0.14881064 -0.08099994 0.056328587 -0.009993143
0.044752415 -0.020362932 -1.7649303e-27 1.1955919e-32 -0.13571778 -0.062076613 0.109537855 -0.16266431
-0.052500773 0.13639854 0.08485187 0.08393761 0.05550977 -0.16711877 0.02424106 -0.14571601
0.006015767 0.10027247 0.12129669 -0.13209063 7.947199e-35 -0.049039815 -0.29997334 0.023440974
0.10464865 0.104223035 -0.09103948 -0.17619583 -0.04668298 -0.20553127 -0.06135523 -0.14651567
0.08352341 0.035274565 0.07686805 -0.02266802 -0.036018193 0.094512686 -0.03187314 -0.19021693
-0.12752382 0.12962852 0.030034596 0.08785476 -0.27408892 -0.32616457 0.1854619 -0.015476995
-0.010222163 0.0580942 -0.057981826 -0.11519431 0.060902975 0.07437401 0.11633431 -0.12295819
0.020658497 -0.18513882 0.124568634 0.080385745 -0.11977823 -0.1669799 0.09085597 -0.10414995
-0.07398206 -0.13392335 -0.01477689 -0.013565223 0.17724279 0.07021843 0.059320327 -0.28896394
0.05477863 -0.12371273 -0.06785274 0.13027404 0.19444585 -0.18220298 0.15702224 0.0037758625
0.004069287 0.07054555 0.09558251 -0.1298437 -0.0017535137 -0.116112895 0.10706351 -0.03899986
0.18588997 0.017881516 0.0666373 0.08520147 -0.026137976 -0.07639179 -0.008692913 -0.09944851
-0.06387633 -0.010307689 -0.090506144 0.0015923297 -9.24581e-40 -1.2224716e-12 -0.032132905 -0.037911497
0.048689935 -0.02657198 -2.0247711e-20 -6.2267964e-07 -0.022725923 0.102742724 0.046543475 -0.028721783
0.0045576533 -0.10880163 -2.184602e-10 -0.02464518 -0.01316367 0.0053109205 0.0033298086 -0.02760234
0.11230394 0.09276735 -0.056975175 -0.023071121 0.07606044 -1.9074926e-21 -0.02395684 -0.013851415
0.077208005 0.030998087 0.012585249 0.1283688 -0.10100212 0.033961922 0.09268109 -0.12005236
-0.08703734 -0.08922901 -0.01893352 -0.10049916 0.09547282 0.043297525 0.05067082 0.10661084
-0.0007212684 -0.027717033 -0.11037886 0.094568454 0.038737047 -0.13536029 0.21085902 0.1400452
-0.07496475 -0.42306817 0.034497462 -0.1391733 -0.041237928 -0.12917769 0.050721943 -0.035165384
00000000: 9e8f 253e 9a70 f63d 7c4b 7e3e 8635 4d3d
00000010: c526 3cbe 02d8 c9bd b648 06be 6a7d ecbd
00000020: b061 6a3c 7a9b 39bd 27a3 b1bc e916 573d
00000030: fedb 55be 9630 e4bd ce69 03be 9b03 84bd
00000040: 46bd 0bbc 5d0f 273e 2840 fabd 36b1 a4bc
00000050: b989 c33d a22a d83d 2bc1 1d3e 2b54 cabd
00000060: 2870 2ebd f30d 3a3e 7310 8d3d 29d8 a3bd
00000070: 4366 23bd b817 3dbd 2612 a13d a508 29be
00000080: 8b53 96bc b325 fc0d e7e9 ef8d 6571 d086
00000090: 0f1c 79bc 6d69 88bc c838 a3bc 34f3 1887
000000a0: f233 99bc 774d 25bc dec8 8dbc e77f 27aa
000000b0: e82c 27bc bedd 8ab6 3ddb 848d f905 a4bc
000000c0: 9ba6 f390 b4c4 b9bc 91dc 91bc 0a0b 0fbc
000000d0: 560d 0800 8371 a5bc fc8d 0200 066b a4bc
000000e0: cd97 aebc 916a 9db9 f9d7 8bbc cafb 99bc
000000f0: 4cd4 350d 4f0e 82bc e838 8abb 6de6 9bbc
00000100: 60d9 bcbd 5551 353c b3bf 803c f41b f9bc
00000110: 8da8 b8bc 6252 d33d e126 a3bd e9db 9cbe
00000120: 19e2 203e 39c4 3e3c f5df 7f3c a951 533d
00000130: 84fc 313d 50a8 75be 4f17 5e3e 1f88 01be
00000140: 928a 3a3b 981e acbc eb39 c9bd 5762 38be
00000150: 6d4e 2abc db12 8f3d ae48 e73d e65b a63c
00000160: 2276 333e 3daa e43d 9e12 113e cc64 553d
00000170: d161 18be 4ce3 a5bd ceb8 663d 48ba 23bc
00000180: 4f4e 373d 2ad0 a6bc 0ad5 0b93 9250 780a
00000190: 9af9 0abe 0c44 7ebd 6255 e03d 7991 26be
000001a0: 0d0b 57bd 0fac 0b3e d1c6 ad3d 7be7 ab3d
000001b0: 365e 633d 2f21 2bbe 3095 c63c 9436 15be
000001c0: e91f c53b a75b cd3d 666a f83d c442 07be
000001d0: d545 d306 f9dd 48bd 1b96 99be 4907 c03c
000001e0: 0852 d63d e372 d53d e872 babd ae6c 34be
000001f0: a736 3fbd ca76 52be 9f4f 7bbd 3408 16be
00000200: 520e ab3d 107c 103d ff6c 9d3d 49b2 b9bc
00000210: d087 13bd de8f c13d 698d 02bd 3ac8 42be
00000220: 9b95 02be 57bd 043e 1d0b f63c 32ed b33d
00000230: 6255 8cbe 0bff a6be b9e9 3d3e 3993 7dbc
00000240: dc7a 27bc 2ff4 6d3d 5a7e 6dbd ffea ebbd
00000250: 6675 793d 6751 983d af40 ee3d 81d1 fbbd
00000260: 023c a93c 0895 3dbe d71d ff3d 48a1 a43d
00000270: 4a4e f5bd c7fc 2abe b212 ba3d 924c d5bd
00000280: e883 97bd 3423 09be c51a 72bc ab40 5ebc
00000290: 227f 353e aece 8f3d dff9 723d 15f3 93be
000002a0: 8f5f 603d 1a5d fdbd 61f6 8abd 8f66 053e
000002b0: d01c 473e 6b93 3abe 70ca 203e 7674 773b
000002c0: a757 853b 2f7a 903d c3c0 c33d bff5 04be
000002d0: 28d6 e5ba 99cc edbd 1d44 db3d 51be 1fbd
000002e0: f159 3e3e 427c 923c 2379 883d 1c7e ae3d
000002f0: 4f1f d6bc 4c73 9cbd b86c 0ebc a9ab cbbd
00000300: 98d1 82bd 95e1 28bc 495b b9bd b8b5 d03a
00000310: 5b11 0a80 2e0c acab cb9d 03bd 1649 1bbd
00000320: 196f 473d 7bad d9bc f63b bf9e 3826 27b5
00000330: b72b babc c76a d23d 5fa4 3e3d f249 ebbc
00000340: 5e58 953b 64d3 debd 1433 70af b0e4 c9bc
00000350: 6fac 57bc 3b07 ae3b eb38 5a3b 4d1e e2bc
00000360: 9cff e53d cffc bd3d cd5e 69bd a6ff bcbc
00000370: 93c5 9b3d 4620 109d 2341 c4bc 0cf1 62bc
00000380: 3b1f 9e3d b3ef fd3c 5c32 4e3c 1c73 033e
00000390: 33da cebd a81b 0b3d 95cf bd3d 03de f5bd
000003a0: a240 b2bd b3bd b6bd 781a 9bbc 81d2 cdbd
000003b0: 4187 c33d bf58 313d 358c 4f3d c956 da3d
000003c0: 8113 3dba d50e e3bc 500e e2bd 1bad c13d
000003d0: bdaa 1e3d e39b 0abe 6deb 573e 0268 0f3e
000003e0: 1e87 99bd 649c d8be 364d 0d3d 7283 0ebe
000003f0: 1ae9 28bd 2847 04be d0c1 4f3d 9409 10bd

convList.0.nn.2.bias f4 [32]
0.16102572 -0.00043353083 0.09976318 -0.2088323 0.3305908 0.13234745 0.040314704 0.18843533
-3.132495e-07 -1.5325319e-05 0.02616807 0.114290826 0.45675397 -0.00016815307 -0.051880106 0.14137684
0.1615045 0.2132183 0.05565025 0.1103153 0.34966174 0.0853476 0.18516229 0.26506
0.0075006927 0.322783 0.10014375 0.19576687 -2.0668264e-38 0.11982397 0.09064882 -0.108744994
00000000: ede3 243e 864b e3b9 a350 cc3d 22d8 55be
00000010: 3343 a93e 1786 073e 0821 253d 31f5 403e
00000020: af2c a8b4 df8e 80b7 6c5e d63c 4f11 ea3d
00000030: a8db e93e 3f52 30b9 3c80 54bd 17c5 103e
00000040: 7061 253e e655 5a3e 84f1 633d fdec e13d
00000050: dd06 b33e b9ca ae3d 2f9b 3d3e f2b5 873e
00000060: 5fc8 f53b d043 a53e 2b18 cd3d 1c77 483e
00000070: b60e e180 4566 f53d 17a6 b93d b2b5 debd

convList.1.nn.0.weight f4 [32, 32]
0.07070818 0.05691521 0.0619808 0.09021849 -0.1229541 0.021008858 0.09585327 -0.14096342
-0.05311108 -0.0636782 0.11937111 -0.085360155 -0.0069278674 0.05783045 -0.105475046 -0.0531203
-0.095243275 -0.0053516654 -0.05779786 -0.04946848 -0.05390273 -0.04797827 0.008957321 -0.005014014
-0.00017075706 -0.012762613 -0.05431461 0.064866506 0.06713122 -0.016597815 -0.0733333 -0.0625511
0.09045045 0.039892763 0.009332666 -0.08651568 0.081287436 -0.03032521 -0.036275044 0.12742361
-0.05644363 -0.045230266 0.024257997 -0.03127847 0.0055179815 0.05225217 -0.072445825 -0.012106179
0.0062799747 -0.022667818 -0.046406668 -0.034311734 -0.06469418 -0.03189776 0.06157926 0.13540794
0.023361567 0.08186911 -0.052641552 0.07606397 0.06835598 -0.07231473 -0.086212866 -0.004909815
-0.09848913 -0.011914829 -0.08123352 0.13840967 0.039922956 -0.06345933 0.01929905 0.07132698
-0.006307184 0.015060216 -0.013245213 -0.043829262 0.032346044 0.010666738 -0.022455996 -0.14164484
-0.01494963 0.013355861 -0.023300331 -0.013502614 0.019755093 -0.033081353 -0.21470241 0.08264039
-0.27404007 0.08336076 -0.022308348 0.04232532 0.015523655 0.052185226 0.09048522 0.085046105
0.057404198 -0.010471485 -0.022995051 0.01833445 0.054971073 0.05007927 0.0070244214 0.02286614
-0.0027771294 0.002581461 -0.029852068 -0.0090578785 0.16953425 -0.0028582497 0.0834833 -0.06319945
-0.022172926 -0.03993039 0.021143125 0.005737194 0.06319249 0.009562476 -0.03207411 0.10169935
0.026590107 -0.021908792 0.0050969734 -0.11363787 -0.011882302 0.0013580319 -0.10145356 -0.22525004
0.0046013696 -0.0012096674 -0.25676733 0.038601793 -0.09188111 -0.09097435 -0.023106325 0.06935227
0.014013662 0.028090453 -0.047500666 -0.03359331 0.033391017 -0.022051247 -0.048383668 -0.058623806
-0.17944376 -0.02983641 -0.026370723 -0.04522084 -0.12557419 -0.026327284 -0.11698973 0.00018310525
-0.08474527 0.077797085 -0.057082843 -0.047822297 -0.0056877234 -0.054724276 -0.046936072 -0.0088161705
0.037080593 -0.05522975 0.09421858 0.006703418 -0.026379421 0.090844646 -0.05698181 -0.004309132
0.08076643 0.06875504 -0.03898799 0.031754766 0.037178192 -0.06348867 0.039200816 0.045057423
-0.07411011 0.038698584 -0.0012281615 0.004307802 -0.16975246 0.0131551055 0.043745942 0.01279547
0.043319646 -0.20375599 0.009451941 -0.042831153 -0.052523356 -0.0945553 -0.10381205 0.037055388
-0.16126055 -0.07130784 -0.14557916 -0.059545964 -0.10803423 -0.20414455 0.03719471 0.11586493
0.06587199 0.07530051 0.087797776 0.041373815 0.03503938 -0.07336454 -0.083765835 0.011533415
-0.05436075 -0.020871274 -0.016737865 0.026336316 0.0680589 0.01445266 0.054219764 -0.06932679
-0.04963954 -0.045412052 0.022492396 0.11188161 -0.07726062 0.110517934 0.11766586 0.0498133
-0.04842195 0.042706978 -0.008862263 0.034035496 -0.062345617 -0.033524465 0.019936875 0.027050678
-0.032866646 -0.03348296 0.038136855 -0.055847593 0.080620065 0.052306026 -0.09649864 -0.11200041
0.15472236 -0.022950498 -0.05456632 -0.06248076 0.10007081 -0.04911942 0.06770223 -0.0062988102
-0.10212473 0.03740347 -0.05447648 0.09507637 0.051832166 0.024817294 0.01282555 -0.064360976
00000000: 73cf 903d ec1f 693d 94df 7d3d 79c4 b83d
00000010: 5ccf fbbd c51a ac3c b84e c43d b758 10be
00000020: 018b 59bd b769 82bd d778 f43d 4ed1 aebd
00000030: 2a03 e3bb 9fdf 6c3d 4d03 d8bd ac94 59bd
00000040: e80e c3bd 065d afbb 73bd 6cbd 769f 4abd
00000050: 1cc9 5cbd dd84 44bd bac1 123c 994c a4bb
00000060: 400d 33b9 471a 51bc ff78 5ebd bbd8 843d
00000070: 187c 893d 24f8 87bc c52f 96bd cb1a 80bd
00000080: 163e b93d 9866 233d 0ae8 183c 222f b1bd
00000090: 077a a63d 936c f8bc 2495 14bd 567b 023e
000000a0: 7031 67bd 5f43 39bd b5b8 c63c da1d 00bd
000000b0: 2fd0 b43b 5f06 563d 7a5e 94bd ff58 46bc
000000c0: 3fc8 cd3b dcb1 b9bc eb14 3ebd 768a 0cbd
000000d0: 627e 84bd 3aa7 02bd 893a 7c3d 61a8 0a3e
000000e0: c260 bf3c feaa a73d ab9e 57bd 6dc7 9b3d
000000f0: 38fe 8b3d bf19 94bd 5f90 b0bd 83e2 a0bb
00000100: abb4 c9bd 6a36 43bc c25d a6bd 44bb 0d3e
00000110: 4186 233d f7f6 81bd 0b19 9e3c e113 923d
00000120: 7fac cebb 20bf 763c 7302 59bc 5086 33bd
00000130: 497d 043d 8bc3 2e3c a3f5 b7bc 580b 11be
00000140: 4bef 74bc 8bd2 5a3c 56e0 bebc 113a 5dbc
00000150: 6fd5 a13c 5080 07bd f3da 5bbe 5d3f a93d
00000160: fb4e 8cbe 0cb9 aa3d ffbf b6bc 515d 2d3d
00000170: ee56 7e3c 2dc0 553d 5150 b93d a72c ae3d
00000180: aa20 6b3d 9790 2bbc 1e60 bcbc 2132 963c
00000190: 5929 613d ec1f 4d3d 1e2d e63b c551 bb3c
000001a0: 8000 36bb bb2d 293b 538c f4bc 7f67 14bc
000001b0: 639a 2d3e 7951 3bbb 4bf9 aa3d b76e 81bd
000001c0: ffa3 b5bc 0c8e 23bd 5934 ad3c 12ff bb3b
000001d0: 106b 813d eeab 1c3c 2460 03bd c047 d03d
000001e0: 7fd3 d93c 117a b3bc 8304 a73b f9ba e8bd
000001f0: fdad 42bc fdff b13a e2c6 cfbd f2a7 66be
00000200: 16c7 963b b48d 9eba 0277 83be ea1c 1e3d
00000210: 2a2c bcbd c350 babd 7a49 bdbc 9008 8e3d
00000220: 8f99 653c f31d e63c 0f90 42bd 2399 09bd
00000230: 05c5 083d d1a4 b4bc f42d 46bd 841f 70bd
00000240: 1bc0 37be 7d6b f4bc 6a07 d8bc 7d39 39bd
00000250: 8596 00be 51ac d7bc 5098 efbd f1ff 3f39
00000260: ee8e adbd 1454 9f3d b3cf 69bd 50e1 43bd
00000270: 1560 babb 9026 60bd 0a40 40bd b371 10bc
00000280: d2e1 173d 9738 62bd acf5 c03d 59a8 db3b
00000290: a819 d8bc c20c ba3d c265 69bd 9f33 8dbb
000002a0: df68 a53d 71cf 8c3d dfb1 1fbd 4911 023d
000002b0: 2948 183d 5906 82bd 0991 203d 228e 383d
000002c0: 0bc7 97bd 6882 1e3d 43fa a0ba 7628 8d3b
000002d0: 97d3 2dbe 8388 573c f22e 333d 17a4 513c
000002e0: f16f 313d 69a5 50be 50dc 1a3c b86f 2fbd
000002f0: bb22 57bd 36a6 c1bd 699b d4bd 64c7 173d
00000300: 7c21 25be d809 92bd b412 15be 78e6 73bd
00000310: 0d41 ddbd 450b 51be 7b59 183d 984a ed3d
00000320: e5e7 863d 2737 9a3d 52cf b33d 9777 293d
00000330: 7485 0f3d 2640 96bd 6c8d abbd a6f6 3c3c
00000340: 61a9 5ebd 3cfa aabc d91d 89bc 42bf d73c
00000350: 7762 8b3d daca 6c3c 8b15 5e3d 34fb 8dbd
00000360: d552 4bbd fd01 3abd f941 b83c 2f22 e53d
00000370: d13a 9ebd 3a57 e23d ccfa f03d 0809 4c3d
00000380: 1856 46bd 83ed 2e3d 0633 11bc ce68 0b3d
00000390: 1e5e 7fbd f350 09bd a852 a33c 6299 dd3c
000003a0: 2d9f 06bd 6e25 09bd 6435 1c3d 72c0 64bd
000003b0: 221c a53d d83e 563d 14a1 c5bd 7960 e5bd
000003c0: 8a6f 1e3e af02 bcbc ef80 5fbd d3eb 7fbd
000003d0: edf1 cc3d 7231 49bd 77a7 8a3d 4066 cebb
000003e0: c526 d1bd 6234 193d bb22 5fbd 66b7 c23d
000003f0: f74d 543d a34d cb3c 4122 523c b0cf 83bd

convList.1.nn.0.bias f4 [32]
-0.024864228 0.06646865 -0.022026783 -0.0021869163 -0.01696409 0.21155028 0.0642406 0.059352413
0.2277068 0.046179008 -0.003922438 -0.14134824 0.07973337 0.08757088 0.002865011 -0.1717988
-0.04507342 0.0962731 0.18634465 -0.18261753 0.00033913992 -0.08047223 0.030840784 0.12748533
-0.08433917 0.17591664 -0.06121209 -0.102572024 0.015506147 0.03548429 -0.09808901 -0.077236176
00000000: 11b0 cbbc b720 883d 8371 b4bc 5e52 0fbb
00000010: 46f8 8abc a3a0 583e 9390 833d 841b 733d
00000020: f92b 693e 3326 3d3d cb87 80bb 98bd 10be
00000030: 404b a33d 5d58 b33d e9c2 3b3b 06ec 2fbe
00000040: e89e 38bd d52a c53d 22d1 3e3e 1700 3bbe
00000050: 97ce b139 a0ce a4bd d0a5 fc3c 848b 023e
00000060: 04ba acbd 7e23 343e 87b9 7abd 4811 d2bd
00000070: 7f0d 7e3c fa57 113d e4e2 c8bd 002e 9ebd

convList.1.nn.2.weight f4 [32, 32]
-0.021656 0.0719563 0.027496435 0.011023769 -0.021743637 -0.1942016 -0.1664193 -0.050469
-0.1339949 -0.15035272 -0.012917749 0.1570486 0.082940005 0.03770597 -0.11200558 -0.030569129
0.089361556 -0.021841597 -0.015095876 -0.23819128 -0.015233249 -0.036527675 0.0047455397 -0.10388637
-0.14791131 0.030836612 0.0007750423 0.10515722 0.042574517 0.07374011 0.034579724 0.049933434
0.18331522 0.088264294 -0.13787049 0.06689236 -0.09185689 -0.0938813 0.06725631 -0.10425293
-0.053739123 0.027076729 -0.06825908 0.07815886 -0.03956846 -0.09617855 -0.05939469 -0.11517245
0.06399568 -0.034495033 -0.076832935 -0.081876874 -0.042099733 -0.0052171964 0.10025466 -0.0050493623
-0.025061565 -0.017657185 -0.06455752 -0.13763182 -0.16699928 0.0929087 -0.0538136 0.12505546
0.042120587 0.052905932 -0.15931332 -0.04159274 -0.13880153 -0.072526544 0.11873856 -0.0768787
0.09771183 0.13153192 0.05403977 -0.077350944 -0.07044714 -0.01091129 -0.048904587 0.056274906
0.0036385886 0.028011449 -0.033639956 -0.052453678 0.002013071 -0.022417478 0.10066995 0.0476038
-0.028088178 0.0216941 0.010310795 0.07455558 -0.07163723 0.077803954 -0.1051832 0.043599986
0.010607354 -0.04308691 0.05287265 -0.034160193 -0.0014459081 0.018953634 0.012888594 -0.0010464684
-0.006916993 -0.005057668 0.048341952 -0.09309991 -0.057843346 -0.08201303 0.06295194 0.11852366
0.032080937 -0.14522663 0.12554057 0.06635255 0.047332704 -0.009862609 0.047113016 0.1426672
0.14276841 0.03734071 -0.104120865 0.12233466 -0.07923812 -0.12895946 -0.05373626 -0.07924288
-0.05187881 0.038043965 0.053087316 0.07782379 -0.07735176 -0.014738909 0.05338766 0.0046756244
0.065855876 -0.07572243 -0.06441415 0.17340541 0.04006431 0.0014226602 -0.062090993 0.012758194
-0.0248933 0.1815989 -0.078393415 -0.06671421 -0.14102289 -0.098037384 0.04120705 -0.017007345
-0.05727669 -0.109896295 -0.019485997 -0.07223443 -0.02685569 -0.046949655 0.04126563 0.04059195
0.060405962 -0.051543206 0.054960012 0.019636707 -0.033783257 -0.0064860773 0.018518042 0.021296171
0.04402193 0.02048276 -0.03219363 -0.121667184 -0.08647709 -0.09618187 -0.039951846 0.07510449
-0.115321964 -0.034380753 -0.068509646 0.13886362 0.03965352 0.081770666 0.043932356 0.018669484
0.031037008 -0.16631924 0.049007986 -0.09280265 0.041594006 -0.012667298 0.12233198 -0.026681675
0.08286114 0.056526974 0.13370568 0.10775276 -0.0024056896 -0.12290156 -0.090856194 0.016714228
-0.12160878 -0.03514447 0.042022884 -0.050700657 -0.018258233 -0.07160738 -0.078782134 0.08262749
0.05006794 -0.022012275 0.010608943 -0.11671751 0.11423206 -0.04849577 -0.04316725 0.12685363
-0.07785507 -0.109809235 -0.04911654 0.13947652 -0.13120437 0.024793394 0.035716753 -0.031511925
0.08730626 0.06736569 0.044845045 -0.07013193 0.0092389975 0.044946466 0.009129787 0.16860853
0.075646244 0.059058517 -0.058930997 -0.06447783 -0.16109039 -0.1115355 0.06252968 0.007419384
-0.09895221 -0.15562978 -0.043738868 0.04593891 0.113538325 -0.1489296 -0.07331897 0.08030344
-0.051216193 -0.014329529 -0.10253658 -0.07373623 -0.08004733 -0.056618296 0.0048919236 0.07303242
00000000: ec67 b1bc d35d 933d 3440 e13c 0a9d 343c
00000010: b61f b2bc c9dc 46be d269 2abe 95b8 4ebd
00000020: f635 09be 10f6 19be f7a4 53bc 59d1 203e
00000030: 73dc a93d 9371 1a3d 2e63 e5bd 1c6c fabc
00000040: 3103 b73d 26ed b2bc b154 77bc 6ae8 73be
00000050: e194 79bc 0b9e 15bd 7980 9b3b 61c2 d4bd
00000060: 1076 17be 109d fc3c 352c 4b3a ab5c d73d
00000070: 9e62 2e3d 0e05 973d 78a3 0d3d 0087 4c3d
00000080: fcb6 3b3e e9c3 b43d ec2d 0dbe ddfe 883d
00000090: 771f bcbd d744 c0bd adbd 893d 8f82 d5bd
000000a0: 8e1d 5cbd 04d0 dd3c 6bcb 8bbd c111 a03d
000000b0: 8a12 22bd 42f9 c4bd d947 73bd 89df ebbd
000000c0: 2b10 833d aa4a 0dbd 965a 9dbd 10af a7bd
000000d0: c570 2cbd 04f5 aabb 5152 cd3d 1f75 a5bb
000000e0: e94d cdbc cda5 90bc bc36 84bd 5bef 0cbe
000000f0: dc01 2bbe eb46 be3d a66b 5cbd 8a0e 003e
00000100: a386 2c3d e4b3 583d 0823 23be 265d 2abd
00000110: fd21 0ebe cc88 94bd 342d f33d 9472 9dbd
00000120: 241d c83d 4eb0 063e ce58 5d3d 2c6a 9ebd
00000130: 9746 90bd 44c5 32bc 2d50 48bd 8480 663d
00000140: 6375 6e3b 4478 e53c 0dca 09bd abd9 56bd
00000150: baed 033b dca4 b7bc 0c2c ce3d 34fc 423d
00000160: 2e19 e6bc d3b7 b13c 9cee 283c 99b0 983d
00000170: 8ab6 92bd ae57 9f3d 4a6a d7bd e695 323d
00000180: 78ca 2d3c e67b 30bd fe90 583d 8feb 0bbd
00000190: a084 bdba a744 9b3c ae2a 533c a729 89ba
000001a0: f1a7 e2bb cbba a5bb 3602 463d 2aab bebd
000001b0: 25ed 6cbd 73f6 a7bd f2ec 803d 88bc f23d
000001c0: 4d67 033d 4ab6 14be b58d 003e d9e3 873d
000001d0: f0df 413d c896 21bc 94f9 403d 5a17 123e
000001e0: e231 123e 93f2 183d 523d d5bd 988a fa3d
000001f0: 9847 a2bd f30d 04be 8d1a 5cbd 174a a2bd
00000200: e07e 54bd fdd3 1b3d 1672 593d 1462 9f3d
00000210: 996a 9ebd 777b 71bc 05ad 5a3d fb35 993b
00000220: 72df 863d 5d14 9bbd 91eb 83bd 3091 313e
00000230: 791a 243d 8e78 ba3a 2053 7ebd be07 513c
00000240: 09ed cbbc 10f5 393e ba8c a0bd 76a1 88bd
00000250: 4e68 10be d3c7 c8bd b9c8 283d fd52 8bbc
00000260: f69a 6abd 4f11 e1bd 19a1 9fbc a5ef 93bd
00000270: 7700 dcbc 484e 40bd 2606 293d bf43 263d
00000280: 3e6c 773d f81e 53bd c01d 613d 29dd a03c
00000290: 5060 0abd 2989 d4bb 26b3 973c 4f75 ae3c
000002a0: 5750 343d 76cb a73c 78dd 03bd a52c f9bd
000002b0: e71a b1bd 00fb c4bd 8ca4 23bd 62d0 993d
000002c0: ec2d ecbd d5d2 0cbd c94e 8cbd 4432 0e3e
000002d0: bb6b 223d 6177 a73d 6af2 333d bff0 983c
000002e0: 5341 fe3c 974f 2abe 99bc 483d 510f bebd
000002f0: 7a5e 2a3d 808a 4fbc 3089 fa3d 8793 dabc
00000300: 1ab3 a93d d488 673d 24ea 083e 7bad dc3d
00000310: c6a8 1dbb d0b3 fbbd d012 babd 47ec 883c
00000320: 060e f9bd a6f3 0fbd 3020 2c3d 7eab 4fbd
00000330: 4a92 95bc e4a6 92bd 8758 a1bd 9a38 a93d
00000340: 0a14 4d3d 1653 b4bc 22d1 2d3c 9709 efbd
00000350: 80f2 e93d 80a3 46bd 24d0 30bd ebe5 013e
00000360: 7b72 9fbd aae3 e0bd 6d2e 49bd efd2 0e3e
00000370: 705a 06be 841b cb3c bb4b 123d a612 01bd
00000380: a0cd b23d 06f7 893d 70af 373d 54a1 8fbd
00000390: 2a5f 173c c919 383d 1a95 153c b7a7 2c3e
000003a0: 6bec 9a3d 58e7 713d a161 71bd f40c 84bd
000003b0: e1f4 24be b96c e4bd 900f 803d 4e1e f33b
000003c0: 75a7 cabd 6a5d 1fbe 8727 33bd 702a 3c3d
000003d0: c886 e83d 0081 18be 4228 96bd 2176 a43d
000003e0: 12c8 51bd 67c6 6abc b3fe d1bd 0503 97bd
000003f0: dbef a3bd 96e8 67bd 6e4c a03b 0592 953d

convList.1.nn.2.bias f4 [32]
0.027506106 0.027367461 -0.01302463 0.05591495 0.11861893 0.035930786 0.086777434 -0.075007804
0.00026754074 0.047177143 0.02031965 0.051137436 0.092401765 0.17233784 -0.0029630593 0.042689107
0.087920874 0.13678019 -0.02723342 0.07340008 0.10048034 -0.0052641863 -0.03879388 0.042821616
0.043653168 0.08554809 0.0088986475 0.0631861 0.08213111 0.07285636 0.054272085 0.05182332
00000000: 7c54 e13c ba31 e03c 4265 55bc 1307 653d
00000010: 7bee f23d 292c 133d 5eb8 b13d b19d 99bd
00000020: b644 8c39 d23c 413d 6575 a63c 7d75 513d
00000030: 233d bd3d 5579 303e e32f 42bb c6da 2e3d
00000040: dc0f b43d 1b10 0c3e 9f18 dfbc c852 963d
00000050: a3c8 cd3d 327f acbb 55e6 1ebd b865 2f3d
00000060: aacd 323d d633 af3d a2cb 113c b767 813d
00000070: 5b34 a83d b735 953d 684c 5e3d b144 543d

convList.2.nn.0.weight f4 [32, 32]
0.01958145 -0.03880721 -0.029704142 0.03556886 0.04940243 -0.009878324 0.032425746 0.017632741
0.013369565 -0.14338678 -0.13572432 -0.023456244 -0.033622522 0.0019066171 -0.0060735275 -0.044592608
0.10951541 0.01916379 -0.0017609989 -0.10762611 -0.031219635 -0.1259168 0.031948008 -0.050982896
0.11217603 -0.080822155 0.119868666 0.08238119 -0.0033255704 0.021888305 -0.0076521924 0.02831854
-0.15101834 0.078494094 0.054736514 -0.07170563 -0.032929916 -0.0844655 0.0072331373 0.09556755
-0.11321737 0.035936493 0.04249952 0.029922364 0.03332103 -0.115842015 -0.003264679 0.023501758
0.020950954 -0.10457882 0.002709719 -0.11561167 -0.053748287 0.03789667 0.014594843 -0.11016131
-0.02570303 -0.059435178 -0.06716641 -0.04218923 -0.11007833 0.075129986 0.004910369 -0.016253095
0.066181585 0.12307562 0.04893596 -0.009598487 0.016854446 0.01820446 -0.02995957 0.085354276
-0.040159453 0.051614683 0.02471479 0.096111566 0.100359015 0.012958242 -0.1105899 0.031059885
-0.07675833 0.004188345 -0.00034319764 -0.01542787 -0.05959849 -0.04166849 0.008301237 -0.031011235
-0.009308848 0.0007278778 -0.097283795 -0.019379556 0.034352493 0.011757491 0.055830523 -0.07493879
0.0319182 0.020829557 -0.019558867 0.01949627 0.032651022 -0.02563544 0.09341696 0.09213948
-0.029530324 -0.10714819 0.009112334 0.011040368 -0.024061428 0.032959994 0.0067073954 0.054998558
0.03909942 -0.04498352 0.0013195723 -0.07205717 -0.06120735 -0.013293004 0.046426207 -0.012061624
0.09793024 -0.22732443 0.1056822 0.076967835 0.014541572 -0.006274323 -0.0265183 0.059996005
-0.11525682 -0.0093055 -0.01384521 -0.08268335 -0.041050576 0.023141759 -0.078603595 -0.03295336
-0.06154327 -0.036572173 -0.03361189 0.021771846 -0.012624409 -0.029638832 -0.06235919 -0.072826095
0.01933916 0.14760259 -0.0023183308 -0.017390447 -0.09412723 -0.08351039 -0.17043626 -0.008748962
-0.025529418 0.0039427103 -0.018298153 -0.04835778 0.020961877 0.034729276 -0.064064644 -0.029029353
-0.01619381 -0.013540708 -0.046879206 -0.0048985034 0.011167988 0.002845796 -0.022647388 0.23920573
0.012573884 -0.049510617 0.0360392 -0.012009708 -0.036252785 -0.01098687 -0.030216549 -0.054288004
-0.011494856 0.022234675 0.00019559829 -0.0647411 0.01646928 -0.089830086 0.096624926 -0.016834207
-0.06800991 0.019917471 -0.06035844 -0.024777414 -0.09157598 -0.0077262917 0.1301819 -0.0010863049
0.009807468 -0.07439696 -0.023643455 -0.06464299 0.06821438 -0.03959891 -0.08879662 -0.060181476
0.16464703 -0.0442339 0.055444345 -0.00612545 -0.027048795 0.0031494815 -0.05256607 0.025230844
-0.047048748 0.053577732 -0.0007331323 0.07427469 0.019989144 0.001539847 -0.044725288 -0.10725993
-0.0011235927 0.027409162 -0.0006228363 -0.038099773 -0.054280963 0.03282835 -0.038857933 0.011466053
0.015221291 0.1535713 -0.014222406 0.002709279 -0.010436773 -0.046190858 0.10164309 0.07292407
-0.025438024 -0.013211683 0.036300063 -3.856951e-05 0.02815207 -0.035317563 0.008510053 0.06846403
-0.022979045 -0.109041095 -0.0005154169 -0.079630576 0.006556862 0.045641012 -0.0045494805 -0.061983287
-0.03717687 -0.07167869 0.044330116 0.015877126 -0.084474556 0.04575341 0.03138524 0.074596204
00000000: 4769 a03c 4ff4 1ebd 1a56 f3bc a7b0 113d
00000010: 345a 4a3d b2d8 21bc dcd0 043d 8a72 903c
00000020: 050c 5b3c fcd3 12be 51fb 0abe 4f27 c0bc
00000030: c5b7 09bd 74e7 f93a 7104 c7bb bda6 36bd
00000040: 9e49 e03d 61fd 9c3c 51d1 e6ba 146b dcbd
00000050: 52c0 ffbc 55f0 00be eadb 023d 71d3 50bd
00000060: 8cbc e53d 1686 a5bd b47d f53d 78b7 a83d
00000070: d0f1 59bb 1a4f b33c 3ebf fabb 48fc e73c
00000080: 8da4 1abe 83c1 a03d 6533 603d 67da 92bd
00000090: 85e1 06bd 40fc acbd f403 ed3b ebb8 c33d
000000a0: 82de e7bd 2532 133d fa13 2e3d bf1f f53c
000000b0: a27b 083d 943e edbd 3af4 55bb c286 c03c
000000c0: 56a1 ab3c 6c2d d6bd 8a95 313b d0c5 ecbd
000000d0: 2a27 5cbd 8a39 1b3d 351f 6f3c 419c e1bd
000000e0: 298f d2bc 4d72 73bd 8b8e 89bd 9dce 2cbd
000000f0: bf70 e1bd c0dd 993d 29e7 a03b 3625 85bc
00000100: 368a 873d 120f fc3d 1371 483d f942 1dbc
00000110: 5612 8a3c 8521 953c c66d f5bc 39ce ae3d
00000120: 3d7e 24bd eb69 533d ac76 ca3c 24d6 c43d
00000130: 0789 cd3d ce4e 543c f57c e2bd 4d71 fe3c
00000140: 7933 9dbd 623e 893b 35ef b3b9 2dc5 7cbc
00000150: 8c1d 74bd 94ac 2abd e901 083c 460b febc
00000160: 2384 18bc 0dcf 3e3a ba3c c7bd e0c1 9ebc
00000170: 33b5 0c3d 7ea2 403c 8cae 643d 8279 99bd
00000180: a9bc 023d bfa2 aa3c eb39 a0bc a4b6 9f3c
00000190: 14bd 053d 6a01 d2bc 6451 bf3d a0b3 bc3d
000001a0: 94e9 f1bc 8370 dbbd e64b 153c a9e2 343c
000001b0: 791c c5bc 0f01 073d b6c9 db3b 2b46 613d
000001c0: b726 203d a440 38bd 80f5 ac3a b692 93bd
000001d0: 8fb4 7abd e6ca 59bc 6829 3e3d 1e9e 45bc
000001e0: a68f c83d bcc7 68be e96f d83d 50a1 9d3d
000001f0: c63f 6e3c d698 cdbb e83c d9bc 5fbe 753d
00000200: c50b ecbd 1976 18bc 05d7 62bc e355 a9bd
00000210: a624 28bd c993 bd3c ecfa a0bd 1afa 06bd
00000220: cc14 7cbd b4cc 15bd 9fac 09bd df5a b23c
00000230: 9cd6 4ebc 23cd f2bc 5a6c 7fbd d925 95bd
00000240: 286d 9e3c 2225 173e 23ef 17bb 6976 8ebc
00000250: c7c5 c0bd 7f07 abbd d886 2ebe ce57 0fbc
00000260: 1223 d1bc da31 813b 02e6 95bc cf12 46bd
00000270: 3eb8 ab3c 4940 0e3d 5334 83bd f7ce edbc
00000280: e2a8 84bc d9d9 5dbc 6904 40bd a083 a0bb
00000290: f0f9 363c 8980 3a3b 0487 b9bc 59f2 743e
000002a0: b102 4e3c a5cb 4abd d79d 133d 5ec4 44bc
000002b0: cd7d 14bd 4602 34bc b288 f7bc 195d 5ebd
000002c0: ec54 3cbc 7e25 b63c 8419 4d39 fb96 84bd
000002d0: 95ea 863c d6f8 b7bd 4ae3 c53d e4e7 89bc
000002e0: c848 8bbd f729 a33c 693a 77bd 01fa cabc
000002f0: 308c bbbd d52c fdbb 674e 053e 5862 8eba
00000300: 81af 203c 6f5d 98bd ebaf c1bc 8b63 84bd
00000310: fbb3 8b3d 7732 22bd 01db b5bd da80 76bd
00000320: 3b99 283e 9b2e 35bd 9c19 633d 00b8 c8bb
00000330: 6f95 ddbc 8867 4e3b 854f 57bd eab0 ce3c
00000340: 30b6 40bd 5374 5b3d ad2f 40ba 541d 983d
00000350: 46c0 a33c b1d4 c93a dd31 37bd 18ab dbbd
00000360: 8445 93ba 2e89 e03c d645 23ba 820e 1cbd
00000370: b755 5ebd 0577 063d 7f29 1fbd 1ddc 3b3c
00000380: b962 793c cb41 1d3e 1805 69bc 298e 313b
00000390: 00ff 2abc a032 3dbd 412a d03d 3759 953d
000003a0: 6763 d0bc d175 58bc 60af 143d b2c5 21b8
000003b0: 2b9f e63c 26a9 10bd c06d 0b3c df36 8c3d
000003c0: 8d3e bcbc f050 dfbd 0b1d 07ba 5b15 a3bd
000003d0: f2da d63b 12f2 3a3d cf13 95bb 30e2 7dbd
000003e0: c646 18bd 47cc 92bd 7f93 353d bf10 823c
000003f0: ff00 adbd ed67 3b3d cf8d 003d e5c5 983d

convList.2.nn.0.bias f4 [32]
0.07790799 0.05199321 -0.21804743 -0.20858912 0.14969273 0.067191035 0.14060777 -0.21129343
-0.031856496 0.0032660428 0.06618134 -0.2698085 -0.079641305 0.21255605 0.008229249 0.009146598
-0.05455088 -0.3049042 0.116038546 -0.020040514 -0.22793233 0.03424311 -0.011427695 -0.11410576
0.076635025 0.22052792 -0.03279713 0.037087355 -0.050082702 0.12472367 0.0800839 0.06931626
00000000: 398e 9f3d d5f6 543d d347 5fbe 6398 55be
00000010: 0d49 193e 749b 893d 7cfb 0f3e 4e5d 58be
00000020: f57b 02bd 1b0b 563b 158a 873d 5724 8abe
00000030: fb1a a3bd 4ba8 593e f9d3 063c 9ddb 153c
00000040: be70 5fbd 671c 9cbe 9ea5 ed3d 012c a4bc
00000050: 1867 69be 8142 0c3d 3a3b 3bbc 48b0 e9bd
00000060: d3f2 9c3d 12d2 613e 4956 06bd e9e8 173d
00000070: 8523 4dbd 206f ff3d 0703 a43d aff5 8d3d

convList.2.nn.2.weight f4 [32, 32]
-0.088015795 -0.096081235 -0.056670886 0.043699995 -0.0379139 -0.070997044 0.088640034 0.030321531
-0.0792046 0.076890245 -0.106667474 -0.110575475 -0.001998508 -0.080956034 -0.0082577625 0.09721894
0.08730121 -0.005300101 0.05640575 0.058579158 -0.04037288 0.08296992 0.0029742408 -0.0047626547
0.018319443 0.10867245 -0.011321699 -0.011374056 0.10864281 0.08524322 -0.031081906 0.0072168624
-0.029681135 0.05010761 -0.10963775 -0.05116547 -0.09932987 0.060318585 0.0007253328 -0.056511875
-0.15961343 0.09159985 -0.02372401 -0.091326535 -0.04905003 -0.11075253 0.07710085 0.0016268085
0.0752003 -0.04526412 0.059171118 0.062082585 0.0063775154 -0.031770736 0.068908386 0.0048704813
-0.014994855 -0.047262564 0.10361453 0.016434679 0.057447843 -0.032477293 0.09548709 6.23556e-05
0.08393401 -0.07354662 -0.06726306 -0.08568836 0.002589117 0.06689138 0.0129188895 0.029166652
-0.0079537295 0.048998013 -0.04462785 0.004403593 -0.078210585 -0.03546093 0.05491437 0.0041948557
0.081504464 -0.09471291 -0.029797755 0.03672618 0.031321324 -0.10002735 0.07138255 0.0440319
0.14590627 -0.17157374 -0.047616925 0.071325935 -0.0391418 -0.042938255 0.03107758 0.051724613
0.06942474 0.002914094 -0.07874992 -0.105829656 -0.07619264 -0.07891807 0.015818937 -0.077778295
0.021091172 0.05603094 -0.012493699 -0.05774979 -0.027289854 -0.17030732 -0.039559152 0.020025982
0.069535814 0.048231263 0.062151335 -0.04593392 0.02419112 0.02514012 0.04817893 -0.11278095
0.040476315 -0.07799804 0.14381254 -0.030969033 0.0059553306 -0.041118946 0.11056429 -0.01828001
0.10565911 -0.02684233 -0.07148036 -0.0889792 0.09568037 -0.12946884 -0.021563902 0.056576803
-0.07266142 0.15385827 -0.07502895 -0.07745818 -0.019898316 -0.0025786147 0.021195551 0.0038723683
0.11842489 -0.10736598 -0.025405867 0.10920999 -0.07037926 -0.028138341 0.037261013 0.073716566
0.07661588 -0.005521862 -0.09958463 0.08017617 0.08159366 -0.014448672 0.007048501 0.00922992
0.04972989 -0.08532552 0.03827008 -0.0742393 -0.045776777 -0.10032439 -0.018701894 -0.0076044896
-0.02238844 0.07198686 -0.030994475 0.013573165 0.056385625 0.032159053 0.08689321 -0.009646208
-0.033244472 -0.060234427 -0.05649675 0.0054163868 -0.051720023 -0.07656922 0.045831956 0.035563976
0.11844134 -0.07042135 0.047785964 0.030924235 -0.099591546 -0.044487588 0.073349886 0.103812106
0.051732145 -0.054286726 -0.035903435 -0.05540479 0.022181159 0.040769257 -0.04225754 0.0341068
-0.036581412 0.032515768 0.019367594 0.0028441122 -0.07556248 0.039033346 0.070962176 -0.02229935
0.031744014 -0.12974781 -0.0573682 0.076286525 -0.0041315113 -0.1257938 0.08220303 0.10747609
0.11912877 -0.09665697 -0.039449893 0.1015322 -0.008457262 -0.053394612 0.02761213 -0.002968004
-0.022656702 0.010938128 -0.028777488 -0.060598016 -0.124971606 0.05735703 -0.06719941 -0.101915725
-0.12039088 0.08135766 -0.014132173 -0.036649168 0.10525317 -0.10588513 0.07036899 0.0144878365
0.0355894 -0.059986558 0.03831651 0.056550518 -0.010528608 0.024297442 0.029861595 -0.06496199
-0.00228204 -0.033604298 0.11600122 0.043787193 -0.051105738 0.0028411953 0.103687376 0.053322725
00000000: a041 b4bd 3dc6 c4bd bb1f 68bd c4fe 323d
00000010: 9b4b 1bbd e666 91bd e888 b53d dc64 f83c
00000020: 0536 a2bd a278 9d3d 7a74 dabd 6575 e2bd
00000030: 67f9 02bb 47cc a5bd 914b 07bc b91a c73d
00000040: faca b23d 78ac adbb b709 673d b3f0 6f3d
00000050: 085e 25bd 22ec a93d 7beb 423b 0b10 9cbb
00000060: a812 963c a98f de3d a67e 39bc 405a 3abc
00000070: 1f80 de3d ff93 ae3d 7b9f febc 6e7b ec3b
00000080: da25 f3bc a33d 4d3d c289 e0bd e292 51bd
00000090: 756d cbbd 9f10 773d 4324 3e3a ff78 67bd
000000a0: b471 23be b498 bb3d db58 c2bc 6809 bbbd
000000b0: afe8 48bd 39d2 e2bd 0de7 9d3d a33a d53a
000000c0: 9d02 9a3d df66 39bd 6a5d 723d 4f4a 7e3d
000000d0: 7afa d03b 0822 02bd d71f 8d3d 8f98 9f3b
000000e0: fbac 75bc 6496 41bd db33 d43d 05a2 863c
000000f0: 6e4e 6b3d e906 05bd bc8e c33d e8c4 8238
00000100: 98e5 ab3d 9c9f 96bd 37c1 89bd 617d afbd
00000110: 2dae 293b 59fe 883d c0a9 533c e7ee ee3c
00000120: 5c50 02bc 24b2 483d b1cb 36bd 044c 903b
00000130: df2c a0bd 7b3f 11bd e4ed 603d 0075 893b
00000140: d0eb a63d d8f8 c1bd 6c1a f4bc 316e 163d
00000150: ca4a 003d 24db ccbd 0431 923d cb5a 343d
00000160: 7468 153e 07b1 2fbe f709 43bd 5513 923d
00000170: 2753 20bd 06e0 2fbd 6996 fe3c 30dd 533d
00000180: 8f2e 8e3d 62fa 3e3b a347 a1bd 38bd d8bd
00000190: e30a 9cbd cc9f a1bd b796 813c 3a4a 9fbd
000001a0: 65c7 ac3c b380 653d 5fb2 4cbc 0b8b 6cbd
000001b0: f98e dfbc 0b65 2ebe c708 22bd 870d a43c
000001c0: cb68 8e3d 258e 453d 6692 7e3d 3525 3cbd
000001d0: 752c c63c a7f2 cd3c 4557 453d b3f9 e6bd
000001e0: 7eca 253d 70bd 9fbd 9843 133e c5b2 fdbc
000001f0: ef24 c33b 576c 28bd 886f e23d f6bf 95bc
00000200: ce63 d83d 72e4 dbbc 4c64 92bd ba3a b6bd
00000210: 12f4 c33d 7b93 04be c8a6 b0bc 14bd 673d
00000220: 83cf 94bd 068d 1d3e c7a8 99bd 65a2 9ebd
00000230: cb01 a3bc fafd 28bb 4ba2 ad3c 8fc7 7d3b
00000240: c088 f23d b2e2 dbbd f71f d0bc 7da9 df3d
00000250: 0023 90bd 6182 e6bc 019f 183d b6f8 963d
00000260: c9e8 9c3d bcf0 b4bb 07f3 cbbd 6733 a43d
00000270: 941a a73d 1fba 6cbc 1df7 e63b 1739 173c
00000280: 92b1 4b3d 25bf aebd 16c1 1c3d c60a 98bd
00000290: 6e80 3bbd e076 cdbd b734 99bc 152f f9bb
000002a0: f667 b7bc d96d 933d 20e8 fdbc fb61 5e3c
000002b0: 9df4 663d 36b9 033d 11f5 b13d 210b 1ebc
000002c0: 5b2b 08bd 60b8 76bd 2369 67bd f27b b13b
000002d0: 60d8 53bd 53d0 9cbd 4aba 3b3d 88ab 113d
000002e0: 6091 f23d 1239 90bd 37bb 433d d254 fd3c
000002f0: a7f6 cbbd 9e38 36bd 7738 963d 719b d43d
00000300: 16e5 533d c25b 5ebd 7b0f 13bd 22f0 62bd
00000310: 43b5 b53c aafd 263d 3e16 2dbd 92b3 0b3d
00000320: 64d6 15bd 412f 053d caa8 9e3c 4964 3a3b
00000330: 80c0 9abd 6ee1 1f3d 9e54 913d 20ad b6bc
00000340: 0306 023d 9cdc 04be ebfa 6abd 1c3c 9c3d
00000350: a161 87bb 17d0 00be 105a a83d 6d1c dc3d
00000360: c9f9 f33d 17f4 c5bd 3696 21bd 1df0 cf3d
00000370: 5490 0abc 4fb4 5abd d532 e23c d882 42bb
00000380: 8c9a b9bc d635 333c c4be ebbc a035 78bd
00000390: 1df1 ffbd 35ef 6a3d d89f 89bd 31b9 d0bd
000003a0: 7e8f f6bd d89e a63d a18a 67bc 701d 16bd
000003b0: f98e d73d 4eda d8bd 9e1d 903d 645e 6d3c
000003c0: 31c6 113d 77b4 75bd c6f1 1c3d 84a1 673d
000003d0: 2f80 2cbc 6e0b c73c 4ea0 f43c cb0a 85bd
000003e0: 478e 15bb a9a4 09bd 0c92 ed3d 335a 333d
000003f0: 4054 51bd 5933 3a3b 0c5a d43d ee68 5a3d

convList.2.nn.2.bias f4 [32]
0.1822924 0.13831407 0.119245805 0.14266904 0.07030999 0.17229821 0.13577643 0.15421697
0.14733662 0.13956793 0.10639823 0.18246634 0.12984304 0.18007442 0.15840553 0.13814707
0.1605081 0.11207572 0.17714702 0.1579093 0.2575879 0.16184895 0.19501945 0.15240347
0.17967469 0.120248154 0.11334473 0.09149488 0.16153759 0.17569062 -0.008769676 0.06769158
00000000: dcaa 3a3e 34a2 0d3e 2537 f43d d517 123e
00000010: affe 8f3d f16e 303e fa08 0b3e 0eeb 1d3e
00000020: 69df 163e e5ea 0e3e 51e7 d93d 75d8 3a3e
00000030: 93f5 043e 6e65 383e 0f35 223e 6d76 0d3e
00000040: 3c5c 243e f587 e53d 0766 353e fab2 213e
00000050: 90e2 833e bbbb 253e 2eb3 473e a80f 1c3e
00000060: a4fc 373e aa44 f63d 4821 e83d ab61 bb3d
00000070: 1c6a 253e 3ee8 333e b0ae 0fbc e2a1 8a3d

bns.0.weight f4 [32]
0.32524234 0.020663818 0.25378883 0.17618097 0.3650647 0.33464882 0.53514206 0.20063925
0.17118189 0.04191769 0.50535065 0.4180548 0.36350447 0.021016715 0.35771415 0.53675616
0.20533374 0.69058734 0.4083558 0.4629985 0.34476674 0.47515824 0.20315912 0.22611864
0.20938623 0.21611863 0.4712513 0.17882246 0.020667328 0.29336664 0.24933182 0.29768643
00000000: 2a86 a63e 2b47 a93c 9cf0 813e c968 343e
00000010: c3e9 ba3e 1757 ab3e 12ff 083f 6074 4d3e
00000020: 4e4a 2f3e e2b1 2b3d a95e 013f 470b d63e
00000030: 421d ba3e 3f2b ac3c 4f26 b73e da68 093f
00000040: 0243 523e 55ca 303f 0314 d13e 240e ed3e
00000050: 4485 b03e f147 f33e f208 503e a58b 673e
00000060: 5869 563e 344e 5d3e da47 f13e 3c1d 373e
00000070: 874e a93c 2734 963e d750 7f3e 5b6a 983e

bns.0.bias f4 [32]
0.04376234 0.012906264 0.060420197 0.0296321 0.04633405 0.048950557 0.017426156 0.050739866
-0.014506199 -0.016495094 0.022851242 0.023917027 0.019984566 0.014266562 0.00237731 0.0830747
-0.02130559 0.04962017 0.020580154 0.021065962 0.05265798 0.023567231 -0.0025050433 -0.031003233
0.04491282 -0.019535819 0.023025667 -0.0058226646 0.013338307 0.040350296 0.056753453 0.064815246
00000000: 2440 333d cb74 533c 2b7b 773d 05bf f23c
00000010: c6c8 3d3d 6180 483d 4cc1 8e3c 9bd4 4f3d
00000020: 69ab 6dbc b820 87bc 8732 bb3c a4ed c33c
00000030: acb6 a33c 4cbe 693c a5cc 1b3b 1123 aa3d
00000040: 1089 aebc 853e 4b3d b697 a83c 8692 ac3c
00000050: e5af 573d 1110 c13c a72b 24bb 7efa fdbc
00000060: 81f6 373d 9509 a0bc 53a0 bc3c 0dcc bebb
00000070: ea88 5a3c 5a46 253d 4f76 683d dbbd 843d

bns.0.running_mean f4 [32]
0.96538013 6e-45 1.4235582 0.21138467 0.9680366 1.4521506 0.00014145371 0.5462557
6e-45 6e-45 0.00011841648 0.030544113 0.85175323 6e-45 0.0055564414 0.086692154
1.4987153 0.084637284 0.02079566 0.040109187 1.2453457 0.039317705 0.9373897 0.85450697
0.7444817 0.8882013 0.053719733 0.96787447 6e-45 0.78658324 0.20711112 0.38636222
00000000: 2723 773f 0400 0000 2837 b63f 3975 583e
00000010: 3fd1 773f 12e0 b93f 3153 1439 6ad7 0b3f
00000020: 0400 0000 0400 0000 5d56 f838 a637 fa3c
00000030: 800c 5a3f 0400 0000 cf12 b63b a88b b13d
00000040: e7d5 bf3f 5056 ad3d a95b aa3c 8849 243d
00000050: 7d67 9f3f 9a0b 213d c5f8 6f3f f8c0 5a3f
00000060: 5a96 3e3f 2961 633f 3909 5c3d 9fc6 773f
00000070: 0400 0000 855d 493f f014 543e 45d1 c53e

bns.0.running_var f4 [32]
1.2792991 6e-45 2.2220893 0.31011665 0.86688197 2.4925153 7.912044e-05 1.3707516
6e-45 6e-45 5.5526063e-05 0.0147585375 0.6067505 6e-45 0.0048927134 0.10522191
0.7735904 0.10390978 0.010066057 0.026358536 1.3617661 0.024327578 0.544617 0.3401422
0.6281958 0.29430264 0.049716 0.57583404 6e-45 0.8534158 0.31297344 0.6162159
00000000: 13c0 a33f 0400 0000 b636 0e40 9cc7 9e3e
00000010: faeb 5d3f 5f85 1f40 76ed a538 ca74 af3f
00000020: 0400 0000 0400 0000 a8e4 6838 cbcd 713c
00000030: 0054 1b3f 0400 0000 0e53 a03b 967e d73d
00000040: 050a 463f a7ce d43d 1aec 243c dbed d73c
00000050: 5a4e ae3f a14a c73c 056c 0b3f 1e27 ae3e
00000060: 71d1 203f d6ae 963e 01a3 4b3d dc69 133f
00000070: 0400 0000 7579 5a3f 0e3e a03e 53c0 1d3f

bns.1.weight f4 [32]
0.39802924 0.35583612 0.43681437 0.5375258 0.25205275 0.396355 0.38175175 0.3927646
0.21484746 0.59070694 0.33988294 0.28014824 0.39023867 0.4917749 0.6268153 0.37746885
0.5648083 0.3170443 0.09802176 0.47105458 0.58402526 0.4439955 0.40463942 0.46289536
0.26156163 0.5372814 0.34474814 0.3406397 0.4293282 0.34895086 0.28620353 0.5607427
00000000: 7dca cb3e 2730 b63e 22a6 df3e 4a9b 093f
00000010: 0f0d 813e 0bef ca3e f774 c33e 7118 c93e
00000020: f900 5c3e 9238 173f 2305 ae3e 976f 8f3e
00000030: 5dcd c73e ebc9 fb3e f876 203f 9943 c13e
00000040: 4797 103f a153 a23e a2bf c83d 112e f13e
00000050: ae82 153f 6153 e33e e62c cf3e 9f00 ed3e
00000060: 68eb 853e 468b 093f d482 b03e 5468 ae3e
00000070: e8d0 db3e b0a9 b23e 4589 923e d58c 0f3f

bns.1.bias f4 [32]
0.028139438 0.029315794 0.07407655 0.04708785 0.007078972 0.06655076 -0.0010282482 0.037814137
0.016529385 0.048871502 0.04823314 0.012422373 0.007781235 0.024892468 0.06021359 0.020375209
0.049511347 -0.0023327197 -6.8329246e-05 0.07007352 0.05664844 0.07192988 0.05679575 0.069707476
0.043745607 0.056649074 0.022240661 0.0060380064 0.066258594 0.027047664 0.017950684 0.042141277
00000000: ae84 e63c ad27 f03c 72b5 973d 30df 403d
00000010: b9f6 e73b c44b 883d 49c6 86ba ffe2 1a3d
00000020: a268 873c 7c2d 483d 1d90 453d 3587 4b3c
00000030: bbf9 fe3b 4aeb cb3c 86a2 763d e9e9 a63c
00000040: 69cc 4a3d 8be0 18bb fc4b 8fb8 b582 8f3d
00000050: 3208 683d f94f 933d a9a2 683d cbc2 8e3d
00000060: 982e 333d dc08 683d 0c32 b63c 78da c53b
00000070: 96b2 873d 1093 dd3c 500d 933c 559c 2c3d

bns.1.running_mean f4 [32]
0.017693108 0.029619953 0.060281374 0.11136967 0.100867964 0.043074004 0.065545246 0.007673311
0.03863907 0.11115871 0.045912016 0.084739625 0.07666415 0.18550445 0.025223376 0.02203579
0.13674986 0.11885672 1.0597843e-07 0.14601856 0.09548395 0.08977047 0.047788188 0.09470953
0.03162294 0.029255765 0.039281204 0.02811884 0.04356529 0.06560683 0.035404753 0.04080216
00000000: 23f1 903c 8ba5 f23c 9ae9 763d c815 e43d
00000010: dd93 ce3d 5e6e 303d 963c 863d 6670 fb3b
00000020: 0044 1e3d 2ea7 e33d 3d0e 3c3d f88b ad3d
00000030: 1802 9d3d e1f4 3d3e 41a1 ce3c 6784 b43c
00000040: 2808 0c3e 276b f33d 4296 e333 e485 153e
00000050: 178d c33d 95d9 b73d 8cbd 433d 12f7 c13d
00000060: 0e87 013d c9a9 ef3c 54e5 203d 7b59 e63c
00000070: 8471 323d e05c 863d 9304 113d 2a20 273d

bns.1.running_var f4 [32]
0.010667297 0.01296074 0.01759102 0.03750884 0.0077462373 0.016316256 0.035876643 0.0019331421
0.010666485 0.02442171 0.019856002 0.008461717 0.022345563 0.029820427 0.0050832327 0.017814728
0.03658646 0.025797756 1.8430938e-09 0.037964 0.027620902 0.04094353 0.020020364 0.017366273
0.0052599483 0.0056627537 0.033345435 0.012689996 0.015449385 0.03416916 0.0062655094 0.008196678
00000000: e3c5 2e3c 4959 543c 0b1b 903c dfa2 193d
00000010: 26d4 fd3b aba9 853c 63f3 123d 7c61 fd3a
00000020: 7bc2 2e3c 0a10 c83c 0ea9 a23c 03a3 0a3c
00000030: 0b0e b73c f849 f43c 3f91 a63b 31f0 913c
00000040: afdb 153d d155 d33c 1950 fd30 2480 1b3d
00000050: 3b45 e23c 67b4 273d bf01 a43c b743 8e3c
00000060: a55b ac3b 9f8e b93b 3995 083d b3e9 4f3c
00000070: 6b1f 7d3c f6f4 0b3d e74e cd3b 5c4b 063c

bns.2.weight f4 [32]
0.8707988 0.92676574 0.93905133 0.86133516 0.8863246 0.89167297 0.94068295 0.9316244
0.8784694 0.9306159 0.8685057 0.8641597 0.86055166 0.8956544 0.8798218 0.8663028
0.8953836 0.955023 0.88609385 0.90142214 0.89813197 0.8721938 0.8718683 0.9272712
0.90396565 0.8406054 0.8568829 0.9358609 0.85502076 0.86045897 0.03290078 0.78579456
00000000: acec 5e3f 8540 6d3f ab65 703f 7680 5c3f
00000010: 2be6 623f ae44 643f 99d0 703f f07e 6e3f
00000020: 5fe3 603f d83c 6e3f 6456 5e3f 9239 5d3f
00000030: 1d4d 5c3f 9b49 653f 003c 613f 05c6 5d3f
00000040: dc37 653f 637c 743f 0cd7 623f 9ac3 663f
00000050: faeb 653f 1848 5f3f c332 5f3f a561 6d3f
00000060: 4b6a 673f ea31 573f ae5c 5b3f 9494 6f3f
00000070: a4e2 5a3f 0a47 5c3f f8c2 063d d529 493f

bns.2.bias f4 [32]
-0.01599671 0.02289115 0.034913342 0.00885458 0.0023142875 0.010544962 0.034228228 0.016296644
-0.01412818 0.048216317 -0.029725285 0.023956085 -0.00080502377 -0.005617068 0.0020401764 0.012981301
0.0016433317 0.056358084 -0.016813857 0.024182342 -0.031554073 0.013689082 0.049640644 0.008706601
-0.0008974862 -0.0096421745 -0.015437892 0.00984518 0.01024112 0.008267179 2.4028159e-05 -0.011242656
00000000: 880b 83bc 3986 bb3c 4b01 0f3d cd12 113c
00000010: 4dab 173b c7c4 2c3c e632 0c3d 8a80 853c
00000020: e279 67bc 797e 453d 7182 f3bc 8d3f c43c
00000030: 3b08 53ba 620f b8bb 7bb4 053b 86af 543c
00000040: 1065 d73a bcd7 663d 37bd 89bc 0c1a c63c
00000050: d83e 01bd 2c48 603c fd53 4b3d 22a6 0e3c
00000060: 4845 6bba 36fa 1dbc 36ef 7cbc ae4d 213c
00000070: 5fca 273c 1073 073c 1490 c937 1e33 38bc
