pretrained_models/ENZYMES/epoch_20_NodeCLModel.pth (torch, 35179 bytes, 24 tensors)

convList.0.nn.0.weight f4 [32, 21]
0	0xbc98a208	-0.01863195
1	0x3a7dce90	0.00096819643
2	0xbb68db8e	-0.0035531255
3	0xba6e2a25	-0.00090852595
4	0xb686febf	-4.0231675e-06
5	0xbabea8e0	-0.0014546178
6	0xb993cdd8	-0.0002819139
7	0xbab80bc3	-0.0014041591
8	0xb9f8c5e1	-0.00047449677
9	0xba175771	-0.00057732227
10	0xb987b294	-0.00025882258
11	0xba91e5b1	-0.0011131075
12	0xbb038ee5	-0.0020074185
13	0x3737b0db	1.0948827e-05
14	0x394deb6e	0.00019638028
15	0xba2b9a12	-0.00065460906
16	0x3a18581b	0.00058114686
17	0xb9f899a6	-0.00047416723
18	0x39091962	0.00013074794
19	0x34530c4b	1.9655378e-07
20	0x800794e2	-6.96258e-40
21	0xbe37e1f7	-0.17957292
22	0x3bbf615c	0.0058404636
23	0xb9f76a7b	-0.00047190845
24	0xb6c5ec87	-5.898593e-06
25	0x38577dc1	5.1377112e-05
26	0xbad74386	-0.0016423322
27	0xb8c45e14	-9.363532e-05
28	0xb842da0a	-4.645627e-05
29	0x389a0c1a	7.345546e-05
30	0x381a7503	3.6825437e-05
31	0xb862f45c	-5.4110176e-05
32	0xb7dfa1dc	-2.6659043e-05
33	0xb8332d1f	-4.2718948e-05
34	0xb7cfd0de	-2.4773584e-05
35	0x37d5d54e	2.5490906e-05
36	0xb88e5435	-6.7867724e-05
37	0xb88feaae	-6.862484e-05
38	0x389a0758	7.34466e-05
39	0x3a6f176d	0.0009120617
40	0xb44e1f40	-1.9196614e-07
41	0xa4ad2086	-7.508189e-17
42	0x3a4b699a	0.00077595713
43	0xba173b07	-0.00057689886
44	0xb93e4ec7	-0.00018149159
45	0xb54d5c0c	-7.6502397e-07
46	0xb7e24edd	-2.6978023e-05
47	0xba85cfdc	-0.0010209042
48	0x383e879a	4.542582e-05
49	0x382363c4	3.8955142e-05
50	0x37ce44bc	2.458912e-05
51	0x37cba6a9	2.4277093e-05
52	0x36de5ebf	6.6271455e-06
53	0xb7bcc79c	-2.2504297e-05
54	0xb71577f5	-8.909022e-06
55	0x380361d8	3.1323958e-05
56	0x38016fcb	3.0860112e-05
57	0x37ade6b5	2.0730638e-05
58	0x3859a9f7	5.1895124e-05
59	0x37ceb9f7	2.464371e-05
60	0x39919a40	0.0002777148
61	0x3975c57f	0.00023438594
62	0xb6f59be0	-7.319715e-06
63	0xbcc7971b	-0.024364045
64	0xbb9a8048	-0.0047149993
65	0xbc92e19c	-0.017929845
66	0x38e8179d	0.000110670204
67	0xb98d3d3a	-0.00026939233
68	0xbcbee10f	-0.023300676
69	0xbb4e08e6	-0.003143841
70	0xbb8c040c	-0.0042729434
71	0xbb2dce1a	-0.0026520551
72	0xbb603a3c	-0.0034214398
73	0xbb947f2c	-0.0045317616
74	0xbb184e0a	-0.0023239874
75	0xbb391fb0	-0.0028247647
76	0xbb306281	-0.0026914182
77	0xbb9ff62b	-0.0048816404
78	0xbb67c617	-0.0035365873
79	0xbb82fb77	-0.003997262
80	0xbb2dd5f2	-0.0026525226
81	0x38688a47	5.544189e-05
82	0xb4863c4c	-2.5003317e-07
83	0x151925a2	3.092779e-26
84	0xbca72ddd	-0.020407612
85	0xbc5979d4	-0.013273675
86	0xbc0a57bf	-0.008443772
87	0xbb9413fa	-0.004518983
88	0xb96fffff	-0.00022888182
89	0x3a527284	0.00080279284
90	0xbb03214c	-0.002000886
91	0x3a887f81	0.0010413976
92	0xbaf9e9c5	-0.0019066861
93	0x3b8e9364	0.0043510664
94	0xbb3b236b	-0.0028555046
95	0xbb7062ab	-0.0036679904
96	0xbb6f23da	-0.0036489875
97	0xbab8eb79	-0.0014108262
98	0x3b5b24a4	0.0033438588
99	0xba2b224e	-0.0006528244
100	0xb8f08db2	-0.000114704846
101	0xbaf9e9c5	-0.0019066861
102	0x3915f0f5	0.00014299511
103	0xb7b5f49a	-2.1690783e-05
104	0x0b134bcc	2.8368193e-32
105	0x3d9cc43f	0.076546185
106	0xbe0ec836	-0.13943562
107	0x3eb824c6	0.35965556
108	0xbf0f00e4	-0.55860734
109	0xbdbce0f8	-0.09222597
110	0xbb2421d6	-0.0025044582
111	0xbeac68c5	-0.33673683
112	0xbe17ef50	-0.14837384
113	0x3c8473d7	0.016168518
114	0xbe75a7d1	-0.23989798
115	0xbe31d277	-0.17365442
116	0xbda42632	-0.08015098
117	0x3dd421f1	0.10358036
118	0xbebb60ee	-0.3659739
119	0xbe4d42c6	-0.20045003
120	0xbf0b81b4	-0.54494786
121	0x3ce76d90	0.028250486
122	0x3ce6c270	0.028168887
123	0x3f02ba08	0.5106511
124	0x3effbeb6	0.49950188
125	0xbf6af5dd	-0.9178141
126	0xbdc8beb3	-0.09801998
127	0x3b6dc20a	0.0036278986
128	0xbb45a60d	-0.0030158788
129	0x344b2c6c	1.8922009e-07
130	0x93a8f824	-4.2653848e-27
131	0xbbab1042	-0.005220444
132	0xb42d7996	-1.6156113e-07
133	0xb1bfc7b3	-5.581535e-09
134	0xaab73f97	-3.2551454e-13
135	0xb28879bd	-1.5887844e-08
136	0xb33ff776	-4.4695717e-08
137	0x30dbf05d	1.6002663e-09
138	0x2f5c65aa	2.0045002e-10
139	0xb2887789	-1.5886842e-08
140	0xb1ef7474	-6.9690547e-09
141	0xb4004c17	-1.194861e-07
142	0x32aef67c	2.0368354e-08
143	0xaab65b70	-3.2393142e-13
144	0x3a651a8b	0.0008739612
145	0x1a08d79e	2.8298315e-23
146	0x000227f2	1.98e-40
147	0xbcbd0f1e	-0.023078497
148	0x3a511520	0.0007975865
149	0xb7e75ddc	-2.7581053e-05
150	0x82e10352	-3.3062684e-37
151	0x000e0f11	1.291102e-39
152	0xba8b99a4	-0.0010650647
153	0x06be6cc2	7.162986e-35
154	0x8aacca31	-1.6639053e-32
155	0x83994262	-9.0077725e-37
156	0x000cf185	1.188667e-39
157	0x88d8f370	-1.3057259e-33
158	0x83242d77	-4.824746e-37
159	0x87a1d64d	-2.4350542e-34
160	0x81941c08	-5.4406837e-38
161	0x80f3cd8a	-2.2389759e-38
162	0x84d8298c	-5.081951e-36
163	0x038196d3	7.616566e-37
164	0x83994262	-9.0077725e-37
165	0xb8b022e0	-8.39883e-05
166	0x800abdea	-9.86483e-40
167	0x80066983	-5.88863e-40
168	0x3df3c194	0.119021565
169	0x3ca8e506	0.02061702
170	0x3a96a46c	0.0011493093
171	0x3c8de7e5	0.01732249
172	0x3ae86af3	0.0017732069
173	0xbd85f949	-0.06541688
174	0xbbec8612	-0.007218131
175	0x3c52585b	0.012838448
176	0xbb4a53fc	-0.0030872812
177	0xba959672	-0.0011412634
178	0xbc25378c	-0.010084044
179	0x3c4c7783	0.012479666
180	0x3c4ad467	0.012379742
181	0xbc46fea1	-0.012145669
182	0x3a97657c	0.001155063
183	0xbc060802	-0.00818062
184	0x3c64d21a	0.013966108
185	0xbb4a53fc	-0.0030872812
186	0xbd5afb24	-0.053462163
187	0x3bcd91d8	0.0062734894
188	0x3c314e4d	0.010821891
189	0xbd912908	-0.07087904
190	0x395a8932	0.0002084121
191	0xb8c58026	-9.4175615e-05
192	0x3852973e	5.0208757e-05
193	0x9102eeee	-1.0328818e-28
194	0xbc272c56	-0.010203442
195	0xb5c09ff4	-1.4351667e-06
196	0xafefe6dd	-4.3637885e-10
197	0x1ced8c64	1.5719635e-21
198	0xb58a2c64	-1.0294721e-06
199	0x11f25f74	3.8239695e-28
200	0x930507f9	-1.679089e-27
201	0x1d533334	2.7952089e-21
202	0x125c8845	6.9587725e-28
203	0xb43e7ca6	-1.7740476e-07
204	0xb591dee8	-1.0868216e-06
205	0xb25bc184	-1.2791478e-08
206	0x1cc8b12e	1.328069e-21
207	0x38ce8f9b	9.849594e-05
208	0x9e474c6a	-1.0550774e-20
209	0x1153a39b	1.669538e-28
210	0xbceb0b6d	-0.028691972
211	0x38839202	6.273763e-05
212	0xb9b2387e	-0.00033992896
213	0xb49c8e27	-2.9160694e-07
214	0xb2357bd0	-1.0563738e-08
215	0xba9d36b5	-0.0011994453
216	0xb3d4e2ff	-9.9133096e-08
217	0xb37482a6	-5.69295e-08
218	0x3367c745	5.3965113e-08
219	0xb2c3822e	-2.2760187e-08
220	0x33e8c9b4	1.08400315e-07
221	0xb2f5293c	-2.8540505e-08
222	0x34945f37	2.7636426e-07
223	0xb3a5112a	-7.6865334e-08
224	0x32b8cdcc	2.1514005e-08
225	0xb3e846b6	-1.0816204e-07
226	0xb348201d	-4.6595336e-08
227	0x3367c745	5.3965113e-08
228	0x39a9df96	0.00032400776
229	0xb3ed45f0	-1.1048894e-07
230	0x0024d1fa	3.381403e-39
231	0xbdb32792	-0.08747782
232	0x3b5dfb77	0.0033871809
233	0xb9176ee3	-0.0001444179
234	0x328a7469	1.6118252e-08
235	0xb2ecf8b2	-2.758711e-08
236	0xbb24fe38	-0.002517594
237	0x32a2b44c	1.8941272e-08
238	0xb2b03d33	-2.0516927e-08
239	0xb34053ac	-4.4779583e-08
240	0x31e05740	6.529177e-09
241	0xb388c95c	-6.3696206e-08
242	0x3321bb2b	3.7655962e-08
243	0x333598bc	4.2281258e-08
244	0xb331caa3	-4.139532e-08
245	0x336ec1f4	5.5590093e-08
246	0xb3a15157	-7.5119424e-08
247	0xb334470e	-4.197414e-08
248	0xb34053d2	-4.4779718e-08
249	0xb99edae9	-0.0003029921
250	0x332c3742	4.0097127e-08
251	0x27d6a790	5.9578603e-15
252	0xbdd9ca68	-0.10634309
253	0x3de462ff	0.111516945
254	0x3bec01db	0.0072023696
255	0xbe01f0de	-0.1268954

convList.0.nn.0.bias f4 [32]
0	0x38b770ff	8.747167e-05
1	0xb93817f3	-0.00017556529
2	0x39dea506	0.00042466092
3	0xb7c4a626	-2.344239e-05
4	0x3902097e	0.00012401302
5	0x3dbe9df6	0.093074724
6	0xb981847e	-0.00024703512
7	0x38fbd3dc	0.000120080746
8	0xbc465b86	-0.012106782
9	0xb828aec1	-4.0217074e-05
10	0xb7c352d2	-2.3284378e-05
11	0x38fa5754	0.00011937195
12	0x3de274f6	0.11057465
13	0x3cf6b9a9	0.030117827
14	0x389df12d	7.531266e-05
15	0x3a69d3b3	0.000891979
16	0x3dc0724d	0.09396801
17	0x39ebe576	0.00044993655
18	0xbc485016	-0.012226125
19	0x3a0016f2	0.00048862316
20	0x39384923	0.00017574853
21	0xbd71c279	-0.059023354
22	0xbc350636	-0.011048844
23	0x39aa5024	0.00032484636
24	0x39ad6148	0.00033069612
25	0x3cd0982f	0.025463192
26	0x3ed9747f	0.42471692
27	0xb847742d	-4.7553494e-05
28	0x3e162da4	0.14665848
29	0x89a3bb2c	-3.941684e-33
30	0x3a0595f5	0.00050958927
31	0x38843886	6.304779e-05

convList.0.nn.2.weight f4 [32, 32]
0	0x363c1573	2.8026668e-06
1	0x24309540	3.8290336e-17
2	0xbb5a88af	-0.003334563
3	0x3c2ecdf8	0.010669224
4	0x3c0c2954	0.008554775
5	0xbe2e6487	-0.17030536
6	0x9b0f8f4a	-1.1874982e-22
7	0x8ae45a11	-2.198948e-32
8	0x3c621638	0.013799243
9	0x8f2debc6	-8.574967e-30
10	0x342fa6c7	1.6358818e-07
11	0x32b7c713	2.1394532e-08
12	0x3dffd54a	0.124918535
13	0xbc2b5f24	-0.010459695
14	0xa0ae03f2	-2.9479357e-19
15	0xbc08c4fd	-0.008347747
16	0x3e79ea96	0.24405894
17	0xb80ea334	-3.4007433e-05
18	0x3ceb0488	0.028688684
19	0xbb2b8677	-0.0026172677
20	0x308298ad	9.502138e-10
21	0xbde15a2a	-0.110035256
22	0x3d94c1b7	0.07263511
23	0x3a82a558	0.0009967489
24	0x800a24a8	-9.31505e-40
25	0xbe72675a	-0.23672238
26	0x3e3f3069	0.18670811
27	0x37884e86	1.6249029e-05
28	0xbd06a1cd	-0.03286915
29	0x086c458a	7.110041e-34
30	0xb52ef952	-6.518286e-07
31	0x3a4238c1	0.00074089697
32	0x3b8b97d1	0.0042600413
33	0x3d031014	0.031997755
34	0xb969e332	-0.00022305248
35	0xbac2e06c	-0.0014867908
36	0xbb40f270	-0.002944138
37	0x3dc11eb9	0.09429688
38	0x3cdfaa5d	0.027302915
39	0x3c414915	0.011797209
40	0x3c65be06	0.014022356
41	0x3cc814bf	0.024423955
42	0x3c68a3ea	0.014199236
43	0x3ce6aef8	0.028159603
44	0xbd743ccb	-0.05962829
45	0xbe4504bc	-0.19240087
46	0x3c77e30b	0.015129815
47	0xbd575081	-0.05256701
48	0xbd634cff	-0.05549335
49	0xbb81cb44	-0.0039609987
50	0x3c846289	0.016160266
51	0x3ca96ea1	0.020682635
52	0x3c05dbc7	0.008170075
53	0xbd89bb2c	-0.06725153
54	0xbd7be61e	-0.061498754
55	0x3d0e8921	0.034798745
56	0x3c8fea22	0.017567698
57	0x3cce4a4d	0.025181914
58	0x3f24579b	0.64196175
59	0x3c0d1fea	0.008613566
60	0xbd798896	-0.060921274
61	0x8bd43d93	-8.1752076e-32
62	0x3d004683	0.031317245
63	0x39f787a3	0.00047212568
64	0x2ad4870a	3.7752467e-13
65	0x2de97263	2.6539831e-11
66	0xba0d2456	-0.00053841376
67	0x2ac561b4	3.5062025e-13
68	0xaac53758	-3.5032632e-13
69	0x3e31a9b7	0.17349897
70	0x2b97c037	1.0782546e-12
71	0xaa8e675f	-2.5295995e-13
72	0xbc933a20	-0.017972052
73	0xaae216af	-4.0161404e-13
74	0x320b1197	8.094864e-09
75	0x3285e9b2	1.558951e-08
76	0x3c8cfc14	0.017210044
77	0xbd4f7bbd	-0.050655115
78	0xaa344f6e	-1.6014769e-13
79	0xbcd6a27b	-0.026200524
80	0x3d893c0d	0.06700907
81	0xb6dca56b	-6.575768e-06
82	0xbac76747	-0.0015213274
83	0xb7b975b3	-2.2108527e-05
84	0x2abdfc0e	3.3748042e-13
85	0x3d22ed1f	0.039776918
86	0xbc83f0d9	-0.016106056
87	0xb84011dc	-4.5793e-05
88	0xaa2f6b1a	-1.558028e-13
89	0xbd3c33a4	-0.045947686
90	0x3d9fcc6f	0.078026645
91	0xab13610b	-5.2359565e-13
92	0x3b76ca6b	0.0037657272
93	0xb42a6bea	-1.5871743e-07
94	0x388f6478	6.837485e-05
95	0x2ab18a54	3.15375e-13
96	0xbacc2d17	-0.0015577403
97	0xa3da7fe8	-2.3689778e-17
98	0xb4fc316c	-4.6974617e-07
99	0x3a594575	0.0008288243
100	0x3ca26428	0.019823149
101	0xbe82ec0d	-0.25570717
102	0x9de01f11	-5.932443e-21
103	0x15974143	6.109138e-26
104	0xbc245ce7	-0.010031915
105	0x1024b71e	3.2484365e-29
106	0x332edfc8	4.071606e-08
107	0xb31ff5a2	-3.7243474e-08
108	0x3e15b70a	0.14620605
109	0x018e70ee	5.232461e-38
110	0x21336020	6.077478e-19
111	0xb0f8df29	-1.8107801e-09
112	0x3e105a72	0.14097002
113	0xbc694646	-0.014237946
114	0x3ceb868d	0.028750682
115	0xbb68827d	-0.0035478168
116	0x2cc168d0	5.4970264e-12
117	0xbe75a8fa	-0.2399024
118	0xbc28ea58	-0.010309778
119	0x3a0780d9	0.0005169041
120	0x8294ab86	-2.1845095e-37
121	0xbe4a26ed	-0.19741412
122	0x3e0694ea	0.13142744
123	0x38025a16	3.1078314e-05
124	0x3d827e06	0.06371693
125	0x00036176	3.10469e-40
126	0xb46df6f3	-2.2162185e-07
127	0x3a6e2c65	0.0009085595
128	0xad21d035	-9.198022e-12
129	0x0000f210	8.6836e-41
130	0x8054a1f2	-7.772277e-39
131	0x82ec97d0	-3.476422e-37
132	0x8a2da7d4	-8.361212e-33
133	0xb9fbdf40	-0.00048040785
134	0x0001e42b	1.73687e-40
135	0x00080a23	7.3832e-40
136	0xb2e2ccaf	-2.6402942e-08
137	0x0009f636	9.14843e-40
138	0x804828d6	-6.626805e-39
139	0x0007ca69	7.1546e-40
140	0xb6a46d33	-4.9002933e-06
141	0xaa67b826	-2.0580811e-13
142	0x8002bfb1	-2.52437e-40
143	0x0adf33a2	2.1493541e-32
144	0xbac1c5f3	-0.0014783725
145	0x80009a72	-5.5405e-41
146	0x30b6200d	1.3251352e-09
147	0x000434c7	3.86275e-40
148	0x80029711	-2.37863e-40
149	0x37e81167	2.7664659e-05
150	0xb9961161	-0.00028623178
151	0xb5bbe425	-1.3998985e-06
152	0x80034d13	-3.03156e-40
153	0xb8ec7c8d	-0.00011276556
154	0xbb5cfc98	-0.0033719894
155	0x000bff16	1.101698e-39
156	0xbaeb888e	-0.0017969774
157	0x8009890d	-8.75684e-40
158	0x80026397	-2.19397e-40
159	0x80061b48	-5.608e-40
160	0x3a0c081a	0.00053417834
161	0xbcad4e5f	-0.021155534
162	0xb8803883	-6.114042e-05
163	0xbcc5ab22	-0.024129454
164	0x3cd1e91b	0.025623849
165	0x3e8086a9	0.25102738
166	0xbb59f160	-0.0033255443
167	0xb4d60cfe	-3.987006e-07
168	0xbd344f14	-0.044020727
169	0x3d200c8f	0.039074477
170	0xb7a3c683	-1.9523553e-05
171	0xbb1607dd	-0.002289287
172	0x3d4b3015	0.0496064
173	0xbd08da3a	-0.033411242
174	0xb2b5a92a	-2.11481e-08
175	0x3d0e39f3	0.034723233
176	0x3e599a96	0.21250376
177	0xbc00bd73	-0.007857668
178	0xbc4c435d	-0.0124672325
179	0x3c4fcd78	0.012683265
180	0x393b2565	0.0001784764
181	0xbe3d4c30	-0.18486094
182	0x3d3075fd	0.043081272
183	0xbc3c2946	-0.01148445
184	0xb55fb38f	-8.3335266e-07
185	0xbd9e4f6b	-0.077299915
186	0x3dc8dae9	0.09807379
187	0xb7fe026a	-3.0280284e-05
188	0x3d98360b	0.07432183
189	0x8a853c01	-1.2830005e-32
190	0xbc2d7154	-0.010586102
191	0xbbb351a9	-0.005472381
192	0x3c59ef82	0.013301732
193	0x000f112e	1.383695e-39
194	0x3a625a76	0.00086346956
195	0xbc795888	-0.015218861
196	0xbb9a3aa5	-0.004706698
197	0xbeba7b39	-0.36422136
198	0x37b83781	2.1960355e-05
199	0xb57c1b5d	-9.3917134e-07
200	0xbcff25ae	-0.031145897
201	0x1075d902	4.8484907e-29
202	0x00162bd4	2.036103e-39
203	0x0013e505	1.827031e-39
204	0xbd7383a1	-0.059451703
205	0xbe2662ea	-0.1624867
206	0x800c41a9	-1.12558e-39
207	0xbe405380	-0.18781853
208	0xbd532269	-0.051546488
209	0x3c0da178	0.008644454
210	0xbd1fb74b	-0.03899316
211	0xbc988596	-0.018618386
212	0x3a595175	0.0008290031
213	0x3ec2812d	0.37989178
214	0xbdd3bbf1	-0.10338581
215	0x3c5508ce	0.0130025875
216	0x302f32bf	6.3736744e-10
217	0xbe1dfbff	-0.1542816
218	0xbda766ea	-0.08173926
219	0xbb89b2f3	-0.0042022406
220	0x3d7bc172	0.06146378
221	0x8a889431	-1.3152067e-32
222	0xb46363ac	-2.1177283e-07
223	0xbc2adbb3	-0.010428357
224	0xb882852e	-6.22369e-05
225	0xbd268430	-0.040653408
226	0x3a18ed94	0.0005833742
227	0xba10ca50	-0.0005523311
228	0x3c2239b6	0.009901455
229	0x3e6420df	0.22278164
230	0xbc1b36f6	-0.009473553
231	0xb7794eb6	-1.4859883e-05
232	0x3b9c420d	0.004768616
233	0x3c971ab2	0.018445347
234	0x368a5420	4.122514e-06
235	0xbbf70384	-0.007538261
236	0xbda7523c	-0.08169982
237	0xbdfd0294	-0.12354007
238	0xb6a8c626	-5.0298577e-06
239	0x3c8ff1f9	0.017571436
240	0xbda9908c	-0.08279523
241	0x3d4715be	0.04860472
242	0x3c8a9ab4	0.016919471
243	0xbb0c65c8	-0.002142297
244	0x3a118437	0.00055510126
245	0x3eb67d15	0.35642305
246	0x3c84ccad	0.016210878
247	0xbd1e607a	-0.038666226
248	0xb790a7d0	-1.7244281e-05
249	0x3c852f70	0.016257972
250	0xbeaba8f4	-0.33527339
251	0xbbcc4eae	-0.0062349653
252	0xbea8064a	-0.32817298
253	0x0e11d309	1.797424e-30
254	0xbca629e3	-0.020283645
255	0xbb233b29	-0.0024907088

convList.0.nn.2.bias f4 [32]
0	0xbc679444	-0.01413447
1	0x3db8cb3c	0.09023139
2	0xbb04187d	-0.0020156198
3	0x3d5cd8c4	0.05391766
4	0x1c8a531f	9.15356e-22
5	0x3c148e10	0.009067073
6	0xbdf95d2b	-0.121759735
7	0xbe373444	-0.17891032
8	0x3d852f86	0.06503205
9	0x94955072	-1.5076885e-26
10	0xb952a859	-0.00020089875
11	0xbd146431	-0.036228362
12	0xbe227808	-0.15866101
13	0xbe166a45	-0.14688976
14	0x3cf893a7	0.030343844
15	0x3d905f8c	0.07049474
16	0x3dbdcac3	0.09267189
17	0xbe097242	-0.13422492
18	0xbd2ad95b	-0.041711193
19	0x3ddb6b42	0.10713817
20	0x3caba38d	0.02095201
21	0x3cc1f112	0.023674522
22	0x3e24fe7b	0.16112702
23	0xbe0c7924	-0.13718086
24	0x3d0b71c8	0.034044057
25	0x3cbada4a	0.022809166
26	0x32a651e1	1.9362178e-08
27	0xbb1e749c	-0.0024178391
28	0xbda35a4d	-0.07976208
29	0x22433783	2.6456816e-18
30	0x235745a6	1.1669922e-17
31	0x3e0a1a66	0.13486633

convList.1.nn.0.weight f4 [32, 32]
0	0xbbf58e59	-0.007493776
1	0xbe91da3d	-0.28486815
2	0xbcccdd89	-0.02500798
3	0x3d871157	0.06595104
4	0x3d99bbaf	0.07506501
5	0x3d4dc9e2	0.05024136
6	0x3d30363f	0.043020483
7	0xbd79e5e9	-0.061010275
8	0xbc876232	-0.016526315
9	0x3c725ec5	0.014793103
10	0x3e72c3ea	0.23707548
11	0x3dcec565	0.10096244
12	0xbe6e0ded	-0.232475
13	0x3e11b385	0.14228638
14	0xbeb42349	-0.3518317
15	0x3eb136f7	0.34612247
16	0xbdc6054e	-0.096689805
17	0xbd8e1766	-0.06938057
18	0xbdc27c6e	-0.09496389
19	0xbe92b05a	-0.2865017
20	0xbe2fd6d3	-0.17171793
21	0xbd526525	-0.05136599
22	0xbe032d81	-0.12810327
23	0x3c738c6f	0.014865025
24	0xbdaab057	-0.083344154
25	0xbdd0345a	-0.10166235
26	0x3b106ecc	0.0022038696
27	0x3c4b8dd8	0.012423955
28	0x3e46bbe3	0.1940761
29	0x3cdf083a	0.027225602
30	0xbd0b5dfb	-0.034025174
31	0x3bbcf9d1	0.005767085
32	0x3d97d82d	0.07414279
33	0xbca2cfd2	-0.019874487
34	0xbd807f57	-0.06274288
35	0xbc806177	-0.015671475
36	0xbd6688bb	-0.05628274
37	0x3e9b07a4	0.30279267
38	0xbdae09dc	-0.08497974
39	0xbc9556fc	-0.018229954
40	0xbcd3914e	-0.025826123
41	0xbbbf1b3d	-0.0058321045
42	0x3d0a3df4	0.03375049
43	0xbd9d62cf	-0.07684862
44	0x3d9b7a5d	0.07591698
45	0x3dc71079	0.09719939
46	0x3d3b4527	0.045720246
47	0xbc94d1b3	-0.018166399
48	0xbdc78d72	-0.097437754
49	0xbd06cf0c	-0.0329123
50	0x3db1f37e	0.086890206
51	0xbdd2ccd3	-0.10292973
52	0xbe14604c	-0.1448986
53	0xbcbcf6ec	-0.02306696
54	0xbd856b9d	-0.06514666
55	0x3d787eb9	0.060667727
56	0xbe8b99a7	-0.27265665
57	0x3d12c1af	0.035829242
58	0xbaa5aaf2	-0.0012639447
59	0xbcdc5f59	-0.026900934
60	0xbdd978c4	-0.10618737
61	0xbc1bb019	-0.009502434
62	0xbb912079	-0.00442892
63	0x3d09304c	0.033493325
64	0xbc81feaa	-0.015868504
65	0xbe2c31a0	-0.16815805
66	0xbdb9277c	-0.09040734
67	0x3bd5232f	0.0065044384
68	0x3d26c42b	0.040714424
69	0xbba6b0c7	-0.0050869915
70	0x3d9072cb	0.07053145
71	0x3dabd239	0.08389706
72	0x3c56d8f3	0.013113248
73	0x3c77d053	0.015125352
74	0xbcdf8789	-0.027286308
75	0xbd058da3	-0.03260578
76	0x3e549af6	0.20762238
77	0x3e10c131	0.14136197
78	0x3d26589b	0.040611845
79	0x3dfb044c	0.12256679
80	0xbda52d6b	-0.080653034
81	0x3da4df50	0.08050406
82	0xbdb3cc09	-0.08779151
83	0xbd808210	-0.062748075
84	0x3d1f960f	0.038961466
85	0x3d1810d1	0.037125412
86	0xbecdad55	-0.40171304
87	0x3d3a7855	0.045524914
88	0x3d14433a	0.036196925
89	0xbd936a95	-0.07198063
90	0x3bb49d49	0.005511914
91	0x3cc31e32	0.02381811
92	0x3dd3b47b	0.10337158
93	0x3c8a1f18	0.01686053
94	0xbc97aa02	-0.018513683
95	0x3e13e975	0.14444526
96	0xbe61dffa	-0.22058097
97	0x3cb7695d	0.022389108
98	0x3d8623b4	0.065497786
99	0x3e3b27e0	0.1827693
100	0xbd5a9059	-0.053360317
101	0xbe047f6a	-0.1293923
102	0xbe50e06c	-0.2039811
103	0xbe87b609	-0.2650607
104	0x3c3b6cb4	0.011439491
105	0xbb41edf5	-0.0029591296
106	0x3dc4dcd0	0.09612429
107	0x3ced6d62	0.028982822
108	0xbea9e7ee	-0.3318476
109	0xbe7ab04d	-0.24481316
110	0xbe93bee1	-0.28856567
111	0x3db95694	0.090497166
112	0x3e829122	0.25501353
113	0xbe11f8bd	-0.14255042
114	0xbe8b0a0b	-0.271561
115	0xbe525a10	-0.20542169
116	0xbe9fe768	-0.31231236
117	0xbc571e6d	-0.013129813
118	0x3e0c32cb	0.13691251
119	0xbe3a378e	-0.18185255
120	0xbd745003	-0.059646618
121	0xbe3425ea	-0.17592588
122	0x3b561a5d	0.0032669522
123	0xbd4d7b5f	-0.050166484
124	0x3e71224f	0.23548244
125	0xbccc6d2f	-0.024954407
126	0xbbabcb5d	-0.0052427487
127	0xbe7bb483	-0.24580579
128	0xba8c75da	-0.0010716275
129	0x3e0484b6	0.1294125
130	0xbd3ecec6	-0.046583913
131	0xbca34f20	-0.01993519
132	0x3c134cbe	0.008990465
133	0xbdf52566	-0.11970024
134	0xbdd9f7e3	-0.10642984
135	0xbdc37006	-0.09542851
136	0xbd9dc021	-0.07702661
137	0x3a512d3c	0.0007979458
138	0x3e38a9a4	0.18033463
139	0x3cd4285d	0.025898153
140	0x3e4a9024	0.19781548
141	0x3d61bc1e	0.055111043
142	0xbddf551a	-0.10904904
143	0x3dc5355a	0.09629317
144	0x3e040f77	0.12896524
145	0x3d5191ad	0.051164318
146	0xbe7f4fbf	-0.24932764
147	0x3da22d9c	0.079188555
148	0x3d3815ab	0.04494254
149	0xbd415407	-0.047199275
150	0x3d85767c	0.0651674
151	0xbca48149	-0.02008118
152	0x3d92e419	0.071724124
153	0xbf069929	-0.52577454
154	0xba8faba8	-0.0010961192
155	0x3c4b82c1	0.012421311
156	0x3ba5e670	0.0050628707
157	0xbc8d022e	-0.017212953
158	0x3ce1986f	0.027538506
159	0x3de8f054	0.11373964
160	0xbdce04b9	-0.100594945
161	0xbda974c8	-0.082742274
162	0x3baf07fc	0.005341528
163	0x3d8549db	0.065082274
164	0xbc80787e	-0.015682455
165	0xbd0faa30	-0.035074413
166	0xbd991734	-0.07475129
167	0xbab8234c	-0.0014048605
168	0xbe603989	-0.21896948
169	0x3a8cf242	0.0010753351
170	0x3ddb5d8e	0.107112035
171	0x3da9eaa9	0.08296711
172	0x3d25ec97	0.040508833
173	0x3de236c6	0.110456035
174	0x3cdfb25c	0.027306728
175	0xbc3b09ab	-0.011415879
176	0x3d4024eb	0.046910208
177	0x3b4fdcaa	0.003171722
178	0xbdbf2427	-0.093330674
179	0x3d721a86	0.059107326
180	0x3d8cbbf9	0.068717904
181	0xbe3386f6	-0.17531952
182	0xbd0297e8	-0.03188315
183	0xbcae1952	-0.021252308
184	0xbb3cc030	-0.0028801076
185	0xbe86c480	-0.26321793
186	0x3b88f98e	0.00418014
187	0xbcdf78ee	-0.027279343
188	0xbdee4632	-0.116344824
189	0xbc32f03e	-0.010921536
190	0x3bbcecd3	0.0057655363
191	0x3d20d46e	0.03926509
192	0xbdcb5a5e	-0.099293455
193	0x3d77209c	0.060333833
194	0xbc409eff	-0.011756658
195	0x3dd85335	0.105627455
196	0x3d0ecd6d	0.034863878
197	0x3d2f9ed1	0.04287607
198	0x3e380349	0.17970003
199	0xbceaca7e	-0.028661009
200	0x3d26b4b0	0.04069966
201	0x3c024604	0.007951263
202	0xbcf32b28	-0.029683664
203	0x3e3bdbf6	0.18345627
204	0x3d751075	0.059830148
205	0x3da072df	0.0783441
206	0xbd491603	-0.049093258
207	0xbbb4399a	-0.0055000307
208	0x3dcc4b98	0.09975356
209	0x3d85438f	0.065070264
210	0xbce23626	-0.02761371
211	0xbcdfe9f0	-0.02733323
212	0xbd74e084	-0.059784427
213	0x3d308cd8	0.04310307
214	0x3d13fed3	0.03613169
215	0xbc954c77	-0.018224938
216	0xbd2249c9	-0.03962115
217	0xbcde2dfc	-0.027121536
218	0xb957c87d	-0.00020578686
219	0xbc3e8c75	-0.011630167
220	0xbc806e7b	-0.015677681
221	0xba22a87d	-0.0006204916
222	0xb4c39900	-3.6432903e-07
223	0x3d0df500	0.03465748
224	0x3d6f9013	0.05848701
225	0x3e3b6346	0.18299589
226	0xbd2d6795	-0.04233511
227	0xbd029679	-0.031881783
228	0xbc84e34a	-0.016221661
229	0x3e66d49f	0.22542046
230	0x3e061723	0.13094763
231	0xbe70d581	-0.23518945
232	0xbd26f664	-0.04076232
233	0x3c390bf9	0.011294358
234	0xbd669644	-0.05629565
235	0xbcaef4cd	-0.021356964
236	0x3e59efcc	0.21282881
237	0xbd782785	-0.060584564
238	0x3cf96c37	0.030447109
239	0xbe5ef2c1	-0.21772291
240	0x3d4af75a	0.0495523
241	0xbea839be	-0.32856554
242	0x3d7a9bbd	0.06118368
243	0x3dcad276	0.099034235
244	0x3ca86ec9	0.020560639
245	0xbd9b3488	-0.07578379
246	0x3d41ef25	0.047347207
247	0xbe28c8df	-0.16482876
248	0xbe9c13c6	-0.30483836
249	0x3e047c58	0.12938058
250	0xbb46e091	-0.0030346254
251	0x3be908a1	0.0071116243
252	0xbe040850	-0.12893796
253	0x3bf10f8b	0.007356589
254	0x3c1709e4	0.009218667
255	0x3d77bd88	0.060483485

convList.1.nn.0.bias f4 [32]
0	0x3f48841a	0.7832657
1	0x3e8df887	0.27728674
2	0xbe3aa96a	-0.18228689
3	0xbe1cc06a	-0.15307775
4	0x3f0618e9	0.5238176
5	0x3e350098	0.17676008
6	0xbdf96788	-0.1217795
7	0xbe5770b4	-0.21039087
8	0x3d9d70da	0.0768754
9	0x3ebf4a0b	0.37361178
10	0x3e22339a	0.15839997
11	0xbe113cd7	-0.14183365
12	0x3c28f527	0.010312355
13	0xbe2bd2bb	-0.16779606
14	0x3f20face	0.628827
15	0x3e14a35f	0.14515446
16	0xbe2fa025	-0.17150934
17	0xbe09b926	-0.13449535
18	0xbea226ce	-0.3167023
19	0xbe2d0ce2	-0.16899446
20	0x3e168b5f	0.14701603
21	0x3e131b29	0.1436583
22	0xbdbff827	-0.09373503
23	0xbd6c39f5	-0.05767246
24	0xbca7def9	-0.020492064
25	0xbe0167c2	-0.12637237
26	0xbdd43afa	-0.103628114
27	0xbe87bf8c	-0.26513326
28	0x3d404f96	0.0469509
29	0xbe80db40	-0.25167274
30	0xbe39fa57	-0.18161903
31	0xbe0d8af5	-0.13822539

convList.1.nn.2.weight f4 [32, 32]
0	0x3e4e9f71	0.2017801
1	0x3dd25cfa	0.1027164
2	0xbd604b00	-0.054759026
3	0xbcbdd897	-0.023174567
4	0x3ddf3e5b	0.10900565
5	0xbbe4d020	-0.0069828182
6	0xbdf0477f	-0.11732387
7	0xbd51a6ca	-0.051184453
8	0xbe28703b	-0.16449063
9	0x3dfd5c26	0.123710915
10	0x3da19be4	0.07891062
11	0x3dc61836	0.096725866
12	0x3d7dc254	0.061952904
13	0xbd1f9e77	-0.038969483
14	0x3e58053c	0.21095747
15	0xbec877de	-0.3915395
16	0xbdd4d136	-0.10391466
17	0x3ce189cd	0.027531529
18	0x3e0b6aef	0.1361501
19	0xbe041646	-0.12899122
20	0x3d61a8d0	0.055092633
21	0xbe265bf6	-0.16246018
22	0xbe35ff2e	-0.17773125
23	0xbe50d613	-0.20394163
24	0xbd14f707	-0.036368396
25	0xbd5337df	-0.051566955
26	0x3cdaca13	0.026707685
27	0xbda8e99f	-0.08247685
28	0xbcdf9f28	-0.027297571
29	0x3c339a0a	0.010962019
30	0xbd12cfa3	-0.03584255
31	0x3c8ea637	0.017413242
32	0x3e0a41a7	0.13501607
33	0xbd29eac2	-0.041483648
34	0xbdc00712	-0.093763486
35	0xbe31a2af	-0.17347215
36	0x3e30e490	0.1727469
37	0xbe180d4e	-0.14848825
38	0x3d9c7d9d	0.07641146
39	0xbe0a2f99	-0.1349472
40	0x3d00d231	0.031450454
41	0xbd6e2e17	-0.058149423
42	0x3da31f6b	0.07964977
43	0xbdce264e	-0.100659
44	0xbcbb6b2e	-0.022878256
45	0x3d6771a7	0.05650487
46	0xbdc82f9d	-0.097747065
47	0x3d712a19	0.058878038
48	0x3e0ed864	0.13949734
49	0xbe1b422c	-0.15161961
50	0x3dfb8722	0.12281634
51	0xbd372d57	-0.044720974
52	0x3e14a104	0.14514548
53	0xbe245d4f	-0.1605122
54	0x3dbf6e2d	0.09347186
55	0x3d9f8933	0.077898405
56	0x3da9ef8b	0.08297642
57	0xbe1e50d7	-0.15460525
58	0xbd8d6cd2	-0.069055215
59	0xbe212abb	-0.15738957
60	0x3e0a6192	0.13513783
61	0xbe47263f	-0.19448183
62	0x3e1f5388	0.15559208
63	0x3da6ea19	0.08150119
64	0xbd23fb2e	-0.040034465
65	0xbc59fa1f	-0.013304262
66	0xbe2d144f	-0.16902278
67	0xbea3744b	-0.31924662
68	0x3e9335fc	0.28752124
69	0x3dd37b34	0.103262335
70	0xbcbdc446	-0.02316488
71	0x3d6ab317	0.0572997
72	0x3d9e00d2	0.07715
73	0xbd0e57e2	-0.03475178
74	0x3d4d2858	0.050087303
75	0x3d30514f	0.043046292
76	0x3e4986e1	0.19680358
77	0x3d7c0066	0.061523817
78	0x3d92dd47	0.071711116
79	0xbebba5b9	-0.36649874
80	0xbd7c2a23	-0.061563622
81	0x3be5d036	0.007013346
82	0xbe327326	-0.17426738
83	0x3e2d9a87	0.16953479
84	0x3e11f567	0.1425377
85	0xbdad73f4	-0.08469382
86	0x3d6f453c	0.058415636
87	0xbd414227	-0.04718223
88	0xbc843659	-0.016139196
89	0xbd8add2d	-0.06780467
90	0x3dc46387	0.09589296
91	0x3dc765d3	0.09736218
92	0xbdf8686d	-0.12129293
93	0x3e3ce589	0.18446936
94	0xbd6e0cfa	-0.058117844
95	0xbe1d7a1e	-0.15378615
96	0x3e10c904	0.14139181
97	0xbe10d516	-0.14143786
98	0x3d08d41e	0.033405416
99	0xbdbbb616	-0.091655895
100	0xbd9ef856	-0.0776221
101	0xbdd36616	-0.10322206
102	0xbd263464	-0.040577307
103	0xbea66914	-0.32502043
104	0xbde9a4fe	-0.11408423
105	0x3de5f060	0.112274885
106	0x3e4a6bed	0.19767733
107	0xbe1a3f79	-0.15063275
108	0xbdcc2e2c	-0.09969744
109	0xbe096f6b	-0.13421409
110	0xbc8a51d0	-0.016884714
111	0x3d97d103	0.07412913
112	0x3daaf7fe	0.08348082
113	0xbd333738	-0.043753833
114	0x3e2913d2	0.16511467
115	0xbab9a454	-0.0014163353
116	0x3d12d01f	0.03584301
117	0xbd67aacd	-0.056559373
118	0xbe19cd72	-0.15019777
119	0x3c3e8a33	0.011629629
120	0x3e1b8f9e	0.15191504
121	0xbde3029b	-0.11084481
122	0xbd6332f0	-0.0554685
123	0xbd9abe63	-0.07555845
124	0xbafe1098	-0.0019383607
125	0xbdf67fa2	-0.12036063
126	0x3de1fbf6	0.11034386
127	0xbd182b28	-0.037150532
128	0x3e2e33b4	0.1701191
129	0x3ce51fae	0.027969208
130	0x3e33379b	0.1750168
131	0xbe636230	-0.22205424
132	0xbdd0f281	-0.10202504
133	0xbcffb3a3	-0.031213587
134	0xbdaeacb5	-0.08529035
135	0x3d930a8f	0.07179748
136	0xbdc99583	-0.0984297
137	0x3e8800fe	0.26563257
138	0x3d7fe005	0.0624695
139	0xbd554ef6	-0.052077256
140	0x3d2444de	0.04010474
141	0xbd363df5	-0.04449268
142	0x3e89030e	0.26760143
143	0x3d2a0ffe	0.041519158
144	0xbe1c92aa	-0.15290323
145	0x3d664561	0.05621851
146	0x3de7f9ac	0.11326918
147	0xbcd2a9e1	-0.02571577
148	0xbd1380ef	-0.036011633
149	0xbc01d83c	-0.007925089
150	0xbdfde06c	-0.12396321
151	0xbe0e3932	-0.13889006
152	0xbd3bafb7	-0.04582187
153	0xbd197669	-0.03746644
154	0x3c093d71	0.008376465
155	0x3e025e3f	0.12731265
156	0xbdcb32eb	-0.09921821
157	0x3e03ac61	0.12858726
158	0xbd986cec	-0.0744265
159	0xbb44ad2a	-0.003001044
160	0xbc85c580	-0.016329527
161	0xbd15dd24	-0.03658785
162	0xbda936e8	-0.08262426
163	0xbcc4b0a0	-0.024010003
164	0xbe3b9544	-0.18318659
165	0xbddfd15f	-0.10928606
166	0xbd0ef960	-0.03490579
167	0xbe625bb6	-0.22105297
168	0xbde7003d	-0.11279342
169	0x3e681202	0.2266312
170	0x3d2cda74	0.04220052
171	0xbe2b13dd	-0.16706796
172	0xbdfab280	-0.122410774
173	0xbdf4b826	-0.11949186
174	0x3e4fa550	0.20277905
175	0x3cd666c1	0.026172044
176	0xbd5b3384	-0.053515926
177	0x3c779e48	0.015113421
178	0x3e4458d7	0.19174515
179	0xbe13edaa	-0.1444613
180	0xbc47c674	-0.012193311
181	0x3da2ecc9	0.079553194
182	0xbe2c678f	-0.1683638
183	0xbce40086	-0.02783228
184	0xbc01504a	-0.007892678
185	0xbcb2ae1c	-0.021811537
186	0xbd963968	-0.07335168
187	0x3d6dd428	0.058063656
188	0xbd649e60	-0.0558151
189	0x3c8d489a	0.017246533
190	0x3d80546d	0.06266103
191	0x3ca65e87	0.020308746
192	0x3e36bc1d	0.17845197
193	0xbdb4faad	-0.08836875
194	0x3e3e3c6f	0.18577741
195	0xbda1dc1c	-0.07903311
196	0xbe2177cd	-0.15768357
197	0xbe2f5cd7	-0.1712526
198	0xbc16e646	-0.009210175
199	0xbd5227a0	-0.05130732
200	0xbd85158c	-0.0649825
201	0x3ddef7d0	0.1088711
202	0xbd41b595	-0.04729231
203	0xbe43d727	-0.19125043
204	0xbd7a0e9a	-0.06104908
205	0x3cfa6c89	0.030569332
206	0x3e1b3ad5	0.15159161
207	0x3e327132	0.17425993
208	0xbc875783	-0.016521221
209	0x3c3b920a	0.011448393
210	0x3dadafe1	0.08480812
211	0xbe0829ab	-0.13297145
212	0xbdbaa401	-0.091133125
213	0xbc6150d7	-0.013752184
214	0xbb779421	-0.00377775
215	0xbcfd3c6f	-0.030912606
216	0xbc8e8e64	-0.017401882
217	0x3c313678	0.010816209
218	0xbde158fd	-0.11003301
219	0xbd7e0f43	-0.062026273
220	0x3c59eec0	0.013301551
221	0xbdf70a41	-0.12062503
222	0x3d46ed85	0.04856636
223	0xbd245112	-0.040116377
224	0x3d8f56f9	0.069990106
225	0xbdc8c7b0	-0.09803712
226	0xbdf84764	-0.12122992
227	0x3d95b4bc	0.07309863
228	0x3d1d0a39	0.038339827
229	0x3dbfea26	0.09370832
230	0xbd8e6252	-0.06952347
231	0x3cc4bef8	0.024016842
232	0xbd817f59	-0.06323118
233	0x3e389d81	0.18028833
234	0x3e043550	0.12910962
235	0xbd33244b	-0.043735784
236	0xbdcbaa71	-0.099446185
237	0xbe568812	-0.20950344
238	0x3de586eb	0.11207374
239	0x3cd1b488	0.02559878
240	0xbdd9c9ff	-0.10634231
241	0xbd360158	-0.044434875
242	0x3e006279	0.12537564
243	0xbe35653b	-0.17714398
244	0xbd842e59	-0.064541526
245	0x3d81fe69	0.06347353
246	0xbdbe9a83	-0.093068145
247	0xbdb206e6	-0.08692722
248	0xbd362bbc	-0.044475302
249	0xbdec8fdf	-0.11550879
250	0xbdb73904	-0.08946422
251	0x3d66a106	0.056305908
252	0x3dd6dc29	0.10491211
253	0xbb69f7f4	-0.003570077
254	0x3e127c41	0.14305212
255	0x3d0893ce	0.033344083

convList.1.nn.2.bias f4 [32]
0	0x3de88437	0.11353343
1	0x3e3d3554	0.18477374
2	0x3e0f02d4	0.13965923
3	0xbc5a848a	-0.013337264
4	0x3e3eef22	0.1864591
5	0x3e1b3ca6	0.15159854
6	0x3e8c7f63	0.27440938
7	0x3e4bb57a	0.19893447
8	0x3db3dffe	0.087829575
9	0xbd3d2af8	-0.046183556
10	0x3d45d191	0.04829556
11	0xb97f31b4	-0.00024337211
12	0x3e6a6b6e	0.22892544
13	0x3bad6a51	0.005292215
14	0x3e3d4015	0.18481477
15	0x3d49898b	0.049203437
16	0x3d5cdb53	0.0539201
17	0x3c3f2c79	0.011668318
18	0xbd425a1a	-0.04744921
19	0x3dc12e2d	0.094326355
20	0xbd4814a8	-0.048847824
21	0x3d3abbf1	0.04558939
22	0x3cf1daf4	0.02952335
23	0x3d953f47	0.0728746
24	0x3d59c14e	0.053162865
25	0x3d8dd385	0.0692511
26	0xbdda585c	-0.106613845
27	0xbd4b07c4	-0.049567953
28	0xbb5a7e04	-0.0033339271
29	0x3e039d9b	0.1285309
30	0x3db877d7	0.09007233
31	0x3db67cfd	0.089105584

convList.2.nn.0.weight f4 [32, 32]
0	0x3d09b581	0.03362036
1	0x3d126872	0.035744138
2	0x3e3db519	0.18526115
3	0xbdb22533	-0.086985014
4	0xbda208d0	-0.07911837
5	0xbc027943	-0.007963481
6	0xbe51bab2	-0.20481375
7	0xbcde4d43	-0.02713645
8	0xbe0cd5b1	-0.13753392
9	0x3c3dba0d	0.0115800025
10	0x3e208cfc	0.15678781
11	0x3d6bc251	0.05755836
12	0xbd21c2bd	-0.039492358
13	0x3d877ad1	0.06615222
14	0xbdcac637	-0.09901088
15	0x3cf38c6d	0.029730046
16	0x3cb82ab5	0.022481302
17	0xbdaa7636	-0.08323328
18	0xbd397b71	-0.04528374
19	0x3c55315c	0.0130122565
20	0x3911300a	0.00013846174
21	0xbd32d2a8	-0.04365793
22	0x3d225c92	0.039639063
23	0x3df1eb36	0.11812441
24	0xbe111287	-0.14167224
25	0xbbaf2268	-0.0053446777
26	0xbd8bb04e	-0.06820737
27	0xbd36a0f8	-0.044587106
28	0x3b52388a	0.0032077157
29	0xbd92aa3d	-0.071613766
30	0x3cb9a98b	0.022663852
31	0x3cdce444	0.026964314
32	0xbe8c8eac	-0.274526
33	0xbe30c482	-0.17262462
34	0x3d2fc3a8	0.0429112
35	0xbe173b28	-0.1476866
36	0xbb87cd8a	-0.004144375
37	0xbd11c551	-0.035588566
38	0xbbc563e5	-0.0060238712
39	0xbc673538	-0.014111809
40	0x3e094f24	0.13409096
41	0xbe409675	-0.18807395
42	0xbd9e9317	-0.07742899
43	0x3c9ef475	0.019403676
44	0x3d3e5583	0.04646827
45	0xbe0f7fc1	-0.14013578
46	0x3d65e111	0.056122843
47	0xbd376d0d	-0.044781733
48	0x3c0fd2ed	0.008778316
49	0xbc4afb92	-0.012389081
50	0xbd507d35	-0.050900657
51	0xbd0ccfed	-0.03437798
52	0xbd964fcb	-0.07339438
53	0xbd676dee	-0.05650132
54	0x3d4d21c8	0.050081044
55	0x3ba14860	0.004921958
56	0xbe1087e5	-0.1411434
57	0x3d6da235	0.05801602
58	0xbd9ba248	-0.07599312
59	0xbde017ff	-0.10942077
60	0x3c7eb7bf	0.015546738
61	0xbda7dad2	-0.081960335
62	0xbd615e77	-0.05502173
63	0xbe341543	-0.17586236
64	0xbe048358	-0.12940729
65	0x3def9040	0.116974354
66	0x3d062c7a	0.03275726
67	0x3d159776	0.036521398
68	0xbe5ed0f3	-0.21759395
69	0xbcaac629	-0.020846443
70	0xbcff2ccb	-0.031149289
71	0x3c5cdca2	0.013480337
72	0xbd5dd617	-0.05415925
73	0xbdb79636	-0.08964197
74	0x3d8aa687	0.06770044
75	0xbe62d23c	-0.2215051
76	0xbd8c9de3	-0.06866052
77	0xbd92fafc	-0.07176778
78	0x3c93f997	0.01806335
79	0xbe15c5cc	-0.14626235
80	0xbda0763b	-0.07835051
81	0xbcad2d89	-0.021139877
82	0x3d37359a	0.044728853
83	0x3acece39	0.0015778012
84	0xbb508cfd	-0.0031822317
85	0x3dcd725c	0.10031578
86	0x3d9c106e	0.07620321
87	0x3e053e12	0.13011959
88	0x3cfc6da9	0.030814009
89	0xbd9c9ba2	-0.07646872
90	0x3c3cfcec	0.011534911
91	0xbe55be2a	-0.20873323
92	0x3ca53270	0.020165652
93	0x3cb9f23a	0.02269851
94	0xbdc2bb2a	-0.09508355
95	0x3c850bb1	0.016240926
96	0xbc91bcc7	-0.017790211
97	0x3bad0cb7	0.0052810567
98	0x3dc6ba65	0.09703521
99	0x3da68363	0.08130529
100	0xbca52d4b	-0.020163199
101	0x3c0ba710	0.0085237175
102	0xbe20eb17	-0.1571468
103	0x3dca2f73	0.098723315
104	0x3dad3e1a	0.084591106
105	0xbd369343	-0.044574033
106	0x3d6a8208	0.057252914
107	0xbe09d392	-0.13459614
108	0xbdca2d14	-0.09871879
109	0xbdd676ae	-0.10471855
110	0x3e0a28f1	0.1349218
111	0xbe04d1b7	-0.12970625
112	0xbd245b9c	-0.040126428
113	0xbc51ef69	-0.0128134275
114	0xbcb16054	-0.021652378
115	0xbdb57fcb	-0.08862265
116	0xbe1a6a1e	-0.15079543
117	0xbc388703	-0.011262658
118	0x3c88ff2b	0.016723236
119	0x3da629ce	0.08113442
120	0x3df90d03	0.12160685
121	0xbc6d8b5e	-0.01449856
122	0xbc0ec463	-0.008713814
123	0xbd738d33	-0.05946083
124	0xbc08835e	-0.008332102
125	0x3dc55ff7	0.096374445
126	0xbdc3e692	-0.09565462
127	0xbad10552	-0.001594702
128	0xbd2faad5	-0.042887527
129	0xbd3e43a3	-0.046451222
130	0x3bd9a66d	0.006642154
131	0xbdc1a4a4	-0.09455231
132	0xbd14a8e5	-0.036293883
133	0xbd9104fd	-0.070810296
134	0xbba5db5c	-0.00506155
135	0xbd22d285	-0.03975155
136	0x3ce0abac	0.02742561
137	0xbd5119b5	-0.051049907
138	0xbd269282	-0.040667064
139	0xbcbc35df	-0.022974906
140	0xbd989d6f	-0.07451903
141	0xbd2f00f2	-0.04272551
142	0x3d06d43d	0.03291725
143	0x39c96a15	0.00038416745
144	0xbcf04493	-0.029329574
145	0xbd0cdf76	-0.034392796
146	0x3c99ab1b	0.018758347
147	0x3c5bfabb	0.013426478
148	0xbcfd4dd2	-0.030920897
149	0xbdda93f1	-0.10672749
150	0xbcad6c44	-0.02116979
151	0x3cf6d83c	0.030132405
152	0x3ce9a2e4	0.028520055
153	0xbcb523d6	-0.022111814
154	0x3c2191f0	0.009861454
155	0xbd98daf0	-0.07463634
156	0xbd8688c1	-0.065690525
157	0xbd185cc3	-0.03719784
158	0xbc2d8a58	-0.010592066
159	0xbd2ecdee	-0.04267686
160	0xbd60b46c	-0.054859564
161	0xbd524ef3	-0.051344823
162	0xbdb8ee3e	-0.09029816
163	0x3ca7cfca	0.020484824
164	0xbd1ebb40	-0.038752794
165	0xbba88c39	-0.005143669
166	0x3b746783	0.0037293143
167	0x3d8b4dd3	0.06801953
168	0xbd135c52	-0.035976715
169	0x3c0cf821	0.00860408
170	0xbdbb20ac	-0.09137091
171	0x3b7340c1	0.0037117454
172	0x3b956794	0.0045594666
173	0xbdac3c17	-0.08409899
174	0x3d93550b	0.07193955
175	0xbd91551e	-0.07096313
176	0x3d6b2959	0.05741248
177	0xbcce10f5	-0.02515457
178	0x3aaf7cd5	0.0013388643
179	0xbd343c94	-0.044003084
180	0x3d4e61ec	0.050386354
181	0xbdec9a62	-0.11552884
182	0x3c4c2815	0.012460728
183	0xbda9df27	-0.08294516
184	0x39a5f95f	0.00031657048
185	0x3cff3784	0.031154402
186	0x3d12cecf	0.03584176
187	0xbd23f14b	-0.040025037
188	0x3ceb4d18	0.028723285
189	0xbad639a0	-0.0016344078
190	0xbda724ef	-0.081613414
191	0xbc9437ed	-0.018093074
192	0xbd18f6f9	-0.037344906
193	0x3d4b2268	0.04959336
194	0xbde29cb9	-0.11065049
195	0x3d86263d	0.06550262
196	0x3b396885	0.0028291058
197	0x3bb8d1a5	0.005640226
198	0x3dac62cc	0.084172815
199	0xbc334902	-0.010942699
200	0xbd913fb3	-0.07092228
201	0x39714946	0.00023010848
202	0xbd88f20e	-0.06686793
203	0xbe287f09	-0.1645471
204	0xbdf9d824	-0.12199429
205	0xbbec1592	-0.00720472
206	0xbe2d8960	-0.16946936
207	0x3cf54220	0.029938757
208	0xbdb2aae6	-0.087240025
209	0xbcf44481	-0.029817821
210	0xbc51dd15	-0.012809058
211	0xbd963132	-0.07333602
212	0x3c0c113f	0.008549034
213	0x3ce2cd99	0.027685927
214	0xbd3825ca	-0.044957913
215	0xbe8374d4	-0.2567507
216	0xbe2c4e9d	-0.16826864
217	0xbdd3857d	-0.10328195
218	0xbd6be347	-0.057589795
219	0x3b99c9a6	0.004693228
220	0xbd166261	-0.036714915
221	0x3be3ab05	0.0069478774
222	0xbc8aa0c3	-0.01692236
223	0x3a155464	0.0005696474
224	0x3d3eccdf	0.0465821
225	0xbdfed710	-0.12443364
226	0x3cbd4dbb	0.023108354
227	0x3d60d40b	0.05488972
228	0x3d9e63c9	0.07733876
229	0x3dbfa160	0.09356952
230	0x3d88a286	0.06671624
231	0x3db6c2da	0.08923884
232	0x3cc373fb	0.023859015
233	0xbd49a2e9	-0.04922763
234	0xbd2b8af1	-0.04188055
235	0x3da8eb07	0.08247953
236	0x3c9965fa	0.018725384
237	0xbe25c323	-0.1618772
238	0x3e1883bf	0.14894007
239	0xbd8be837	-0.06831401
240	0xbd18e327	-0.037326004
241	0xbdf07ce4	-0.11742571
242	0xbd1447be	-0.03620123
243	0xbe3eb9c8	-0.18625557
244	0xbd82caef	-0.06386363
245	0xbe21b54a	-0.15791813
246	0x3c856263	0.016282266
247	0x3c946c73	0.018118119
248	0x3e193b52	0.14964035
249	0xbd2ece8e	-0.042677455
250	0xbdb4c0a7	-0.08825808
251	0x3caaa7b4	0.02083192
252	0xbd31c05c	-0.04339634
253	0x3daf5b1b	0.08562299
254	0xbdbca2c8	-0.092107356
255	0xbdd47104	-0.103731185

convList.2.nn.0.bias f4 [32]
0	0xbd65b07e	-0.05607652
1	0x3e7e5eea	0.24840894
2	0x3e920b1a	0.28524095
3	0x3e318b24	0.17338234
4	0x3d99b8d4	0.07505956
5	0x3d493439	0.04912207
6	0xbdc5a27d	-0.09650133
7	0x3e249ecf	0.16076206
8	0xbdb2d310	-0.08731663
9	0x3df46088	0.119324744
10	0x3e02cdcd	0.1277382
11	0x3e36b10b	0.17840974
12	0x3dcef32f	0.10104977
13	0xbb707315	-0.0036689688
14	0x3e72fe65	0.23729856
15	0x3e9f2320	0.31081486
16	0xbe0bd157	-0.13654076
17	0x3a40dd89	0.000735723
18	0x3e2b000f	0.16699241
19	0x3d3ac51e	0.04559814
20	0x3d9a8d2f	0.0754646
21	0x3e929b44	0.28634083
22	0x3d82b753	0.063826226
23	0xbdd887c1	-0.10572768
24	0x3e6bd09a	0.23028794
25	0x3e3fa26c	0.18714303
26	0xbe1db091	-0.15399386
27	0x3e9d4c76	0.30722398
28	0x3e327568	0.174276
29	0x3f20df99	0.6284118
30	0x3e33dfd6	0.17565855
31	0x3e1ae226	0.15125331

convList.2.nn.2.weight f4 [32, 32]
0	0xbd477fc9	-0.04870585
1	0x3cf6a07b	0.03010582
2	0xbdc92254	-0.09821001
3	0xbc34d7c1	-0.011037768
4	0xbd6bd294	-0.05757387
5	0x3d97285d	0.073807456
6	0xbd2374c1	-0.039906267
7	0x3dba3843	0.09092762
8	0xbdc7ba78	-0.09752363
9	0x3db2c1cd	0.08728371
10	0x3d582889	0.052773032
11	0x3e712d91	0.23552538
12	0x3c9e69d3	0.01933757
13	0x3d024833	0.031807136
14	0x3d362eb2	0.044478126
15	0xbc1c532e	-0.009541316
16	0x3cd7d1f1	0.026345225
17	0x3e0dd38f	0.13850234
18	0x3da79b77	0.081839494
19	0x3e89a92f	0.2688689
20	0x3d141724	0.03615488
21	0xbe104e0b	-0.14092271
22	0xbe294d25	-0.16533335
23	0x3d32aeb1	0.04362363
24	0x3e096e38	0.13420951
25	0xbc8de1a3	-0.017319506
26	0xbde5e4d8	-0.11225289
27	0xbe116625	-0.14199121
28	0xbe0a456c	-0.13503045
29	0x3e6d5aa6	0.23179111
30	0xbdb5fba0	-0.08885884
31	0x3d9843d2	0.07434811
32	0xbc7b27da	-0.015329326
33	0x3d1fab3d	0.038981665
34	0x3d02b687	0.031912353
35	0xbaf190d9	-0.0018430009
36	0x3cae1f11	0.021255048
37	0x3cb2295b	0.021748235
38	0xbd5fb685	-0.054617424
39	0x3d34d33e	0.04414677
40	0x3d0fcf43	0.03510977
41	0xbd62f0ad	-0.055405308
42	0xbd8cd8c1	-0.0687728
43	0x3c8bdd76	0.017073374
44	0xbd04cebb	-0.032423716
45	0xbbf529ba	-0.007481781
46	0x3ce5eec9	0.028067963
47	0x3d9c0cf7	0.0761966
48	0x3d33cf1a	0.04389868
49	0xbb422ab6	-0.0029627508
50	0xbd1d5048	-0.03840664
51	0xbcc65b19	-0.02421336
52	0x3d0112bc	0.031512007
53	0x3c49c4c9	0.012314984
54	0xbd220d07	-0.039563205
55	0xbd0437dc	-0.032279834
56	0xbd8f1073	-0.06985559
57	0xbd74230c	-0.059603736
58	0xbd25d4bf	-0.040486094
59	0x3d85aba3	0.06526878
60	0x3d289c31	0.04116458
61	0x3d9dc071	0.07702721
62	0xbc894b2c	-0.016759478
63	0x3cc414b6	0.023935657
64	0x3dde4fc9	0.108550616
65	0xbcf3a06e	-0.029739585
66	0x3e242480	0.16029549
67	0x3e07736f	0.13227628
68	0x3d55d21d	0.052202333
69	0x3dc2455b	0.09485885
70	0xbe02a695	-0.12758859
71	0x3cc0db6c	0.023542129
72	0x3dddc3f0	0.10828388
73	0x3dbcba98	0.092152774
74	0xbd35d46b	-0.04439203
75	0xbe29269b	-0.16518633
76	0x3e1e58ab	0.15463512
77	0xbdb7862c	-0.08961138
78	0x3d075603	0.03304101
79	0x3d20c122	0.039246686
80	0x3c47ee28	0.012202777
81	0xbe0647b1	-0.13113286
82	0xbd297e29	-0.04138008
83	0x3d1dc7f7	0.03852078
84	0x3d8a9df9	0.06768412
85	0x3de0b3be	0.10971783
86	0xbc6ac016	-0.014328023
87	0xbd866abb	-0.06563326
88	0x3e744c08	0.23857129
89	0x3e1700b9	0.1474637
90	0xbde48c15	-0.11159531
91	0xbe10deb1	-0.1414745
92	0x3d84fd51	0.06493629
93	0xbd990947	-0.07472473
94	0x3e2d7fdc	0.16943306
95	0x3d309f32	0.04312057
96	0x3dac110d	0.0840169
97	0x3e3a3984	0.18186003
98	0xbbd97e52	-0.006637373
99	0x3d1ae60e	0.037817053
100	0xbd7bb0f7	-0.061448064
101	0xbcc8658a	-0.02446248
102	0xbe07adb2	-0.13249853
103	0x3dbcfafb	0.09227558
104	0x3de22a7e	0.11043261
105	0x3e03d79e	0.1287522
106	0xbcc77803	-0.024349218
107	0xbc71ea55	-0.014765342
108	0xbd89bab7	-0.06725066
109	0x3bc5ce5c	0.006036563
110	0x3e0568cb	0.13028257
111	0xbe3b08d7	-0.18265091
112	0xbd22710d	-0.039658595
113	0xbc802afd	-0.015645498
114	0xbd607a41	-0.05480409
115	0xbbc966b2	-0.0061462754
116	0x3d0d70a4	0.03453125
117	0xbe38b4aa	-0.18037668
118	0xbe1b8755	-0.15188344
119	0x3d7cf38b	0.0617557
120	0xbe0d2019	-0.13781776
121	0xbe482af8	-0.19547641
122	0xbcf1026d	-0.029420102
123	0x3d7e38bd	0.06206583
124	0xbdcdbc93	-0.10045733
125	0x3e643809	0.22287
126	0x3e5c07ee	0.214874
127	0x3ddde49c	0.108346194
128	0x3dface55	0.12246386
129	0xbd8a1da8	-0.06743938
130	0x3e5d0597	0.21584164
131	0x3e29d1dc	0.16583961
132	0xbd19ae42	-0.0375197
133	0x3c6b0f17	0.014346859
134	0xbd89e0a1	-0.06732298
135	0x3dccfd6c	0.10009274
136	0x3e4deadc	0.20109123
137	0xbd5b9ab7	-0.053614344
138	0xbe88bcb8	-0.2670648
139	0xbe23862a	-0.15969148
140	0xbd788a50	-0.06067878
141	0xbdaf8933	-0.085710905
142	0x3e166b98	0.14689481
143	0x3e702561	0.23451759
144	0x3dd78028	0.10522491
145	0xbe03ba94	-0.12864143
146	0xbdcb8d23	-0.09939029
147	0x3e33ef55	0.17571767
148	0xbd154cce	-0.0364502
149	0x3e843936	0.25824898
150	0xbe39cc6c	-0.18144387
151	0x3d53980e	0.051658683
152	0x3d53e214	0.051729277
153	0xbe2f15f4	-0.17098218
154	0xbd173d8f	-0.03692394
155	0xbc2246bb	-0.009904559
156	0x3dd9f900	0.10643196
157	0x3d406a64	0.046976462
158	0x3e49c30c	0.1970331
159	0x3d8fbe5c	0.0701873
160	0x3d0e8db5	0.03480311
161	0xbd4d9733	-0.050193023
162	0xbdd4f7d6	-0.103988335
163	0xbd3c7053	-0.04600556
164	0x3d79ab85	0.06095459
165	0xbd95d182	-0.07315351
166	0x3d4caca1	0.04996932
167	0xbd54d59f	-0.051961537
168	0xbe2a891c	-0.16653866
169	0xbd488276	-0.048952542
170	0x3dec185d	0.115280844
171	0x3e7e825d	0.24854417
172	0x3e12c5ce	0.14333269
173	0x3d804df0	0.062648654
174	0x3cee709a	0.029106427
175	0x3e3d2ea1	0.18474819
176	0x3d5b68b1	0.05356664
177	0x3dccbf96	0.099974796
178	0x3cd39545	0.025828013
179	0x3d590679	0.05298469
180	0x3da65874	0.0812234
181	0x3c9186c9	0.017764466
182	0x3e032bd5	0.1280969
183	0xbbdddf46	-0.006771001
184	0x3dac6f79	0.08419699
185	0x3e50b337	0.20380865
186	0xbe86e617	-0.2634742
187	0xbc97297c	-0.018452398
188	0x3c6f94b3	0.014622855
189	0x3ca8ea36	0.020619493
190	0xbe172ea6	-0.14763889
191	0x3e18925f	0.14899586
192	0x3c91f279	0.017815815
193	0x3e839a6b	0.2570375
194	0xbd07e2db	-0.03317533
195	0xbd1ece97	-0.03877124
196	0x3d1f57e5	0.038902182
197	0x3cba0ad7	0.022710247
198	0xbda45a9a	-0.080250934
199	0x3d313d4c	0.043271348
200	0x3c9d3e62	0.019194786
201	0x3d9d13b2	0.07669772
202	0xbd47d3cf	-0.04878598
203	0x3ca12f55	0.01967589
204	0x3ce7519c	0.028237157
205	0xbca10109	-0.019653814
206	0x3d045d44	0.032315508
207	0x3c5c96aa	0.0134636555
208	0xbdb84d72	-0.089991465
209	0x3da1dafd	0.07903097
210	0x3d0d00fc	0.034424767
211	0x3daf4178	0.08557409
212	0x3dd0defd	0.10198782
213	0xbd39c0a5	-0.045349736
214	0x3cf22c60	0.029562175
215	0xbcc4aef0	-0.024009198
216	0xbdf7ae7b	-0.120938264
217	0x3b1ca103	0.0023899681
218	0xbd95f406	-0.073219344
219	0x3e8da0e7	0.2766182
220	0x3c3c671f	0.011499195
221	0x3ea633e6	0.3246147
222	0x3e0db30a	0.13837829
223	0xbe0504c3	-0.12990098
224	0xbd4e5ffe	-0.050384514
225	0xbe0c7554	-0.13716632
226	0x3cb60bdd	0.022222454
227	0xbd89a3c4	-0.06720689
228	0x3daddb98	0.0848915
229	0xbca06d6e	-0.01958343
230	0x3dbfee06	0.09371571
231	0xbde924a3	-0.11383941
232	0xbd8d2679	-0.06892104
233	0xbdc203b9	-0.09473366
234	0xbd0e1916	-0.034691893
235	0xbce37ca2	-0.02776939
236	0xba87326e	-0.0010314712
237	0x3d94ca68	0.072651684
238	0x3e0f2708	0.13979733
239	0x3e2b6c82	0.16740611
240	0x3d6384be	0.055546515
241	0x3e624bce	0.2209923
242	0x3d2e2564	0.042516127
243	0x3da55929	0.080736466
244	0xbd869ae6	-0.06572513
245	0x3df79ef3	0.12090864
246	0x3dcfd075	0.10147182
247	0x3d47201b	0.048614603
248	0xbdd54338	-0.104132116
249	0x3c8ffd40	0.017576814
250	0xbdf51d44	-0.119684726
251	0x3e1dcbf2	0.1540983
252	0x3e2d41ad	0.16919585
253	0x3e254ceb	0.16142623
254	0xbde06845	-0.10957388
255	0x3e1642fd	0.14673992

convList.2.nn.2.bias f4 [32]
0	0x3eb53683	0.35393152
1	0x3e6e42e5	0.23267706
2	0x3e90befa	0.28270704
3	0x3e7eb972	0.2487543
4	0x3e78edce	0.24309465
5	0x3e855861	0.2604399
6	0x3e3e76ba	0.18599978
7	0x3e998bd5	0.29989496
8	0x3e288837	0.16458212
9	0x3e9c047e	0.30472177
10	0x3e7075a7	0.23482381
11	0x3e1e035b	0.15430968
12	0x3e2ff6bf	0.1718397
13	0x3e01d97c	0.1268062
14	0x3e833d5e	0.25632757
15	0x3e9c4201	0.30519107
16	0x3e91097b	0.28327546
17	0x3e736ce7	0.23772012
18	0x3e879899	0.2648361
19	0x3e87eef4	0.26549494
20	0x3dd17b6a	0.102286175
21	0x3e09d46d	0.1345994
22	0x3e6937a8	0.22775137
23	0x3e526dac	0.20549649
24	0x3e6724ee	0.22572681
25	0x3ea3ad58	0.31968188
26	0x3e691128	0.22760451
27	0x3eb91d03	0.36154947
28	0x3eed4c2e	0.46347183
29	0x3e9e1daa	0.30882007
30	0x3e8bf0c6	0.27332133
31	0x3e383cdd	0.17991967

bns.0.weight f4 [32]
0	0xbe8f807b	-0.2802771
1	0x3e255964	0.16147381
2	0x3def28b6	0.11677687
3	0x3e8dd3b9	0.27700594
4	0x3c829c01	0.01594353
5	0xbe74427c	-0.23853487
6	0x3e51d7fe	0.2049255
7	0x3e38dc66	0.18052825
8	0x3e267679	0.16256131
9	0x39f97227	0.0004757803
10	0xbe114cef	-0.14189504
11	0x3e99eef8	0.3006513
12	0x3e22ef14	0.15911514
13	0x3e44d807	0.19223033
14	0x3e208362	0.15675119
15	0xbe1e8c11	-0.15483119
16	0x3e727478	0.23677242
17	0x3e50f34d	0.20405312
18	0x3e351102	0.17682269
19	0x3e09254d	0.13393135
20	0x3e112ea8	0.14177954
21	0x3e23047b	0.15919678
22	0x3e1b85ed	0.15187807
23	0x3e4d7531	0.20064236
24	0x3e08fccc	0.13377684
25	0x3e026fd6	0.12737975
26	0xbcafe021	-0.021469178
27	0x3d7f828e	0.062380366
28	0x3e4708aa	0.19436899
29	0x2b98545d	1.0823665e-12
30	0xba885fb1	-0.0010404495
31	0xbe48d6c7	-0.19613181

bns.0.bias f4 [32]
0	0xbb9b84d6	-0.00474606
1	0xbbb2e002	-0.0054588327
2	0x3b0d5207	0.0021563785
3	0x3cb44300	0.022004604
4	0xbb54f95f	-0.003249727
5	0xbc7ffaee	-0.015623791
6	0x3c619714	0.01376893
7	0x3d0d67e7	0.034522917
8	0xbc8f5fa9	-0.017501669
9	0x3a13bb26	0.0005635492
10	0xbb7ee8e4	-0.0038896138
11	0x3d3aba82	0.045588024
12	0xbc2b5b86	-0.010458833
13	0x3b384d10	0.0028122105
14	0x3cdc3549	0.026880877
15	0xbb976523	-0.0046202107
16	0xbc1740da	-0.00923177
17	0x3d087a3f	0.033319708
18	0x3d860592	0.06544031
19	0x3b8a5862	0.004221962
20	0xbc8f5226	-0.017495226
21	0xbc9f1a93	-0.019421851
22	0x3c993c0a	0.018705387
23	0x3ccc9d60	0.024977386
24	0xbae257a6	-0.0017268553
25	0x3d108638	0.03528425
26	0x39eb8df0	0.00044928445
27	0xbb4cdb15	-0.0031258513
28	0x3c78bd71	0.015181885
29	0xba803069	-0.0009780052
30	0xbb062950	-0.0020471402
31	0xbc9208d8	-0.017826483

bns.0.running_mean f4 [32]
0	0x3f866b3b	1.0501474
1	0x40d46495	6.637278
2	0x4053e9d2	3.3111463
3	0x3f2de1fc	0.6792295
4	0x00000004	6e-45
5	0x407899b8	3.8843822
6	0x3e6475d9	0.2231058
7	0x40188dd8	2.3836575
8	0x4031b276	2.7765174
9	0x00000004	6e-45
10	0x40e55abd	7.1673265
11	0x3f8dbc57	1.1073102
12	0x3f80d69b	1.0065492
13	0x3dbb66bd	0.09150455
14	0x40ca2901	6.3175054
15	0x40b42a6a	5.6301775
16	0x40d290fe	6.5801992
17	0x3facce89	1.350053
18	0x4098e311	4.777718
19	0x40cbd54b	6.3697867
20	0x409d8bac	4.9233
21	0x40287aec	2.6325026
22	0x40886712	4.262582
23	0x3e95bf31	0.2924743
24	0x40b09390	5.518013
25	0x40b03a84	5.507143
26	0x00000004	6e-45
27	0x2b3da80a	6.737949e-13
28	0x3f897c1c	1.0741
29	0x0cb8cf42	2.8474428e-31
30	0x0698e316	5.750972e-35
31	0x3f999fe4	1.200192

bns.0.running_var f4 [32]
0	0x41555ccb	13.335155
1	0x41257018	10.339867
2	0x402711c5	2.6104596
3	0x40b78566	5.735034
4	0x00000004	6e-45
5	0x41323b25	11.13944
6	0x3f5a7c00	0.8534546
7	0x41994c06	19.16212
8	0x41049b00	8.287842
9	0x00000004	6e-45
10	0x414bd24b	12.738841
11	0x40d7cdc6	6.743869
12	0x4035b8d9	2.8394072
13	0x3de3ba2a	0.11119492
14	0x417d7332	15.840624
15	0x41506bf7	13.026359
16	0x4196e82d	18.863367
17	0x4121408c	10.0782585
18	0x4221dab0	40.463562
19	0x4143e65e	12.243742
20	0x41415058	12.082115
21	0x4113f9a1	9.248445
22	0x40af7377	5.482845
23	0x3eaf01ac	0.34180963
24	0x4171486f	15.080184
25	0x418aaccd	17.334375
26	0x00000004	6e-45
27	0x2a2a598d	1.5130102e-13
28	0x40c5fa6d	6.1868196
29	0x019b4689	5.703922e-38
30	0x00634a45	9.118357e-39
31	0x3eff8697	0.4990737
