pretrained_models/ENZYMES/epoch_200_CalcModel.pth (torch, 76263 bytes, 4 tensors)

MLP.0.weight f4 [96, 96]
000000 0a bd 8a bb d1 5b 20 3c 7a 4a 95 bc 9c 7e 1d 3d
       -0.004233961 0.009787516 -0.01822399 0.038450822
000010 83 db 92 bc cf fe 4d 3c 45 c8 a3 bc c7 1f 85 bd
       -0.017926937 0.012572958 -0.019992957 -0.06500202
000020 c4 d3 06 3d 64 91 1c 3c 61 bf 8f ba 87 3f ce 3c
       0.0329168 0.009556148 -0.001096707 0.025176777
000030 11 51 8b 3c e6 80 1c 3d 40 c0 b0 3c 5b 94 ed 3c
       0.017006429 0.038208865 0.021576047 0.029001405
000040 6d 29 04 3b 30 d4 85 3b 5b b8 45 bc a0 a2 63 3c
       0.0020166293 0.0040841326 -0.01206788 0.013893753
000050 1e 67 71 3d cf 80 96 3b ae 06 cd bc 0d 5e 1a 3d
       0.05893623 0.004592992 -0.0250276 0.03768735
000060 ad 3e 05 3d 46 06 d7 bb f0 84 1b 3c 88 2f 91 3c
       0.032530475 -0.006562027 0.009492144 0.01772286
000070 bc 8b 50 b9 c3 37 a2 3b 6f 97 c8 3c da c6 05 3d
       -0.00019888481 0.004950495 0.024486272 0.032660343
000080 ea 18 b2 3b b7 0a 9d bd dd 6f 66 3c 51 36 2f 3d
       0.005435099 -0.07668059 0.014064756 0.04277641
000090 9d be d9 3c 03 3b 20 bc a9 f8 38 3d a7 2f 96 3c
       0.02658015 -0.0097796945 0.045159016 0.01833327
0000a0 fe b4 3e 3c 94 c2 e4 3b 68 20 5d ba 4f 86 11 3c
       0.011639832 0.0069812033 -0.000843531 0.008882119
0000b0 a0 5a b1 bc d2 ce 3e bc bf ef bb ba 19 7c 3e 3b
       -0.021649659 -0.0116459895 -0.0014338418 0.0029065667
0000c0 cf cf c8 bc 04 e0 a4 3b c8 34 31 bd e5 d2 0e 3d
       -0.024513153 0.0050315876 -0.043263227 0.034869093
0000d0 da bc e0 bb e9 98 b5 b9 3e b4 9e 3b b0 d2 d0 bc
       -0.0068584504 -0.00034636937 0.004843264 -0.025491089
0000e0 cd 87 3f bd 5d 5c 63 bd 2a 06 e7 3c 70 2d 4f 3d
       -0.04676037 -0.055508006 0.028201181 0.050580442
0000f0 5c f9 20 bd 78 f4 10 bd c2 b0 76 b9 24 e9 91 bd
       -0.039300308 -0.035389394 -0.00023526236 -0.07124546
000100 02 76 f1 bc 4f f0 8c bb 39 11 4e 3d 2d b9 8d 3c
       -0.029475216 -0.004301108 0.050309394 0.017300213
000110 b8 aa 41 3d 3c 15 e1 3c 53 ab 4a 3d 31 12 2f bb
       0.04728195 0.027475946 0.049479794 -0.0026713724
000120 ca 71 c2 bc e8 2a 9d 3d 6c 40 f4 bc ed da 5b 3c
       -0.0237359 0.07674199 -0.029815875 0.013418895
000130 85 5d 45 3c f0 d1 e2 3c a0 89 f0 3c 10 e2 e9 3c
       0.012046223 0.027687997 0.0293625 0.028550178
000140 9a 2a b8 ba 1e 38 12 3c 80 00 3a bd 67 59 34 3d
       -0.0014050782 0.008924512 -0.045410633 0.044030573
000150 5e cc 83 3d cd ba 8c bb 8d a4 18 bd 3b 84 5a bd
       0.06435464 -0.0042947293 -0.037266303 -0.05334876
000160 8c 84 a8 3c 9e 67 f5 bc 9a ad 68 bd b7 24 30 3d
       0.020571016 -0.029956635 -0.056806184 0.043003764
000170 49 ed 1f bd 66 f0 0d bd 61 b2 c6 3c 31 8c 26 3c
       -0.039044652 -0.03465309 0.02425498 0.01016526
000180 64 c0 a1 bc 10 8d 02 bd ca 5b cd bd 73 84 37 3a
       -0.01974506 -0.03187281 -0.10027273 0.00070006325
000190 99 0a c2 3c d0 6f b4 bb a3 bc 1a bc 25 c9 32 3b
       0.023686694 -0.005506493 -0.009444389 0.0027280536
0001a0 bd f6 68 3c ba 81 c8 3c c2 46 34 3d 52 04 c0 3c
       0.014218983 0.024475921 0.044012792 0.02343956
0001b0 2f 12 a5 bc 44 dc 14 3c 11 6d 6d 3c d2 4e 3e bd
       -0.020150272 0.009085719 0.0144913355 -0.046461888
0001c0 38 47 17 3c c4 7d 3c bb 41 85 a0 bc bb ae 05 bc
       0.0092332885 -0.0028761486 -0.01959479 -0.008159335
0001d0 3d 8b a9 bc 68 6d fc ba 49 70 5f bd fd f9 73 3c
       -0.020696277 -0.001925868 -0.054550443 0.014891145
0001e0 f9 e0 41 bd 8e 10 6e 3b ea ec b8 bc 54 aa fc bc
       -0.04733369 0.0036325785 -0.022573907 -0.030842938
0001f0 bd 0d 4f bb 3d 58 32 bb 41 34 71 3d 38 97 9f bc
       -0.0031593882 -0.0027213239 0.058887724 -0.019481286
000200 a2 1b c6 3c eb 94 c5 3b 39 be 95 bb 3f 82 f9 3c
       0.024183098 0.0060297153 -0.0045697954 0.030457614
000210 4b 65 dd bc d3 3c cc bc 55 f2 e4 3b 4d f9 d5 3c
       -0.02702584 -0.024931347 0.006986896 0.026119852
000220 1d e2 c4 bb 0c 8d 13 bd 7f 09 2d 3c 20 40 f6 3b
       -0.0060084 -0.036023185 0.010561346 0.0075149685
000230 7a fa 15 bb d4 90 58 bc d0 27 19 bd 4d ef e9 3c
       -0.0022884891 -0.0132181235 -0.037391484 0.02855649
000240 00 c6 c7 bc 68 d2 dd 3c fb 91 39 3d fa 64 f9 3c
       -0.024386406 0.027077869 0.045305233 0.030443657
000250 94 cd 54 bc d7 15 60 bc 3f d4 2e bd 03 0a 21 bc
       -0.012988467 -0.013677082 -0.042682882 -0.009829047
000260 99 60 93 3c 45 c3 b7 bc d7 6a 75 bd b5 f0 1e bb
       0.017990397 -0.022431979 -0.059916344 -0.002425236
000270 e1 c8 b9 bb 06 a4 41 bc 39 91 49 bb 19 e9 2f bd
       -0.0056696986 -0.011818891 -0.0030756725 -0.04294691
000280 b5 07 6c 3c 43 8c 3d bb 6c 1e d3 3c 2c 8f e6 3b
       0.014406134 -0.0028922714 0.025771342 0.0070361104
000290 fc 78 9d 3b 95 a9 20 bd 33 f6 ab bc f0 11 7d bc
       0.004805682 -0.039224226 -0.02099142 -0.015446171
0002a0 50 79 21 ba c6 30 52 bc 96 e2 81 3c 59 3b a1 3d
       -0.00061597396 -0.012829011 0.015855115 0.07872648
0002b0 97 e8 85 3d 30 dc 39 3d d0 21 78 bb fa 47 89 b9
       0.065385036 0.045376003 -0.003786195 -0.00026184303
0002c0 71 01 a4 3b c8 e2 1b 3b 71 7d 6d 3d e5 49 4d bc
       0.0050050546 0.0023786295 0.05798096 -0.012529825
0002d0 1c 3d 0a bc 18 fa d6 bc 9c b6 06 3d 5f 80 31 3d
       -0.008437421 -0.0262423 0.032888994 0.043335315
0002e0 2d 14 4b bc 56 2f 92 3c f7 e0 a0 3b a4 c3 3b bd
       -0.012394947 0.017844837 0.0049096304 -0.045840874
0002f0 21 22 6b bb 3a a7 0e 3d 58 af 36 3b 04 bc dd bc
       -0.0035878497 0.03482745 0.002787551 -0.027067192
000300 8c 2f b3 bc 43 12 c8 bb b6 02 37 bd 22 fe 32 3c
       -0.021873258 -0.0061056926 -0.04468032 0.010924848
000310 6b 15 91 ba 65 c3 0f 3d e7 2d 96 3c f3 be fe 3c
       -0.0011069005 0.035098452 0.018332435 0.031096911
000320 8d c1 34 bd 8d 71 26 3c ac d8 81 3d e0 80 da 3b
       -0.044129897 0.010158909 0.06340155 0.006668195
000330 52 54 d6 bb e0 0a b5 3c 61 9f 8a 3c 04 2a 08 bd
       -0.0065408135 0.022099912 0.0169217 -0.033243194
000340 45 10 cf 3c c3 04 b9 bc 50 0c 04 bd b2 88 29 bd
       0.025276313 -0.022585278 -0.032238305 -0.04139013
000350 31 a2 9e bc cc 5b 1e 3a ba 59 93 3c 12 11 2d 3d
       -0.019364448 0.00060409005 0.01798712 0.042252608
000360 dd 27 b6 bb 25 d8 0c 3b f3 42 14 ba df cd 19 bd
       -0.0055589513 0.0021491137 -0.0005655728 -0.03754985
000370 11 68 22 3c 9a ee 2c 3c 04 e3 24 3d 04 c0 f6 bc
       0.009912507 0.010554934 0.04025556 -0.030120857
000380 5b 98 b3 bc 5f d0 ad bc 18 1d 86 bc 27 51 4a 3d
       -0.021923235 -0.021217523 -0.016371295 0.0493938
000390 d6 3c aa bc 86 98 7c 3c f2 fe 09 bd 84 e1 29 3d
       -0.020780962 0.015417224 -0.0336904 0.041474834
0003a0 a2 d8 97 3c 7a c2 05 bc 08 4f dc 3c c2 85 5c 3c
       0.018535916 -0.008164043 0.026893154 0.013459625
0003b0 a8 a0 02 bc a5 2a 91 bd b7 af 0e bd dd bc 4d 3d
       -0.007972874 -0.07088212 -0.034835543 0.050228942
0003c0 f5 52 83 bc 11 d8 9c 3c 6a da 5f bd 40 ac 43 3d
       -0.016030768 0.019145997 -0.054651655 0.047771692
0003d0 ce bb c3 3d 21 09 58 bd 6f 56 42 3d 06 7b 32 bd
       0.09557305 -0.05274308 0.04744571 -0.043574356
0003e0 2d 09 80 3c c6 3a f2 3c 2c 30 09 3d 6b 70 91 3c
       0.015629375 0.029569041 0.033493206 0.0177538
0003f0 37 b6 b8 3b 1c af 21 3d ec 44 8a 3d 68 d3 ad 3c
       0.005636956 0.039473638 0.06751427 0.02121897

MLP.0.bias f4 [96]
000000 b9 35 51 be d3 18 a1 bc 67 eb 28 be 8a 7c de bd
       -0.2043065 -0.019665157 -0.16496049 -0.10863598
000010 92 d4 8b 3b d4 53 06 be 31 6e 05 be ae 27 5b bd
       0.0042672837 -0.13117915 -0.13030316 -0.05350464
000020 2b 15 bc bc 2d 54 0d bd c8 f8 ee 3b 55 b8 57 bd
       -0.022959312 -0.034504104 0.0072928406 -0.052666027
000030 31 84 2c bd 4f 46 58 be 78 25 2f be de ba cd bd
       -0.042118255 -0.2112057 -0.17104137 -0.10045408
000040 f6 08 14 3d e2 34 6c be 04 18 67 be 9a b2 1e be
       0.03614136 -0.23067048 -0.22567755 -0.15497819
000050 c6 6c 10 bd 33 e0 da bd 2e 7b 6f bd d9 f1 3c be
       -0.035259984 -0.10687294 -0.058467083 -0.18451633
000060 70 54 47 bd fc d3 ae bd ed 51 04 bd 0f 62 f8 bd
       -0.04866451 -0.085365266 -0.032304693 -0.12128078
000070 64 51 15 bd ae 19 d6 be d5 d9 00 be 7b ea 5a be
       -0.036454573 -0.41816467 -0.12583096 -0.2137851
000080 aa 6f 06 bd ef 01 57 be fb a7 fe bd 27 0f 48 be
       -0.032821335 -0.20996831 -0.124343835 -0.1953703
000090 e4 03 19 be 60 21 ba bd ce 70 63 bd b0 ea 29 bd
       -0.1494289 -0.09088397 -0.0555275 -0.04148358
0000a0 d7 8d 66 bd 0b 5d cc bd 44 1b c7 bc 9a d3 08 be
       -0.056287613 -0.09978684 -0.024304993 -0.1336197
0000b0 7e ac 85 3d 81 47 68 be 02 3f c9 bd 65 96 0d be
       0.06527041 -0.22683527 -0.09826471 -0.13826902
0000c0 ec 0a b2 3c 44 69 a5 bc 76 68 98 bb 3b aa d1 bd
       0.021733724 -0.020191796 -0.0046511246 -0.10237547
0000d0 b2 90 5e 3c 8e 80 42 be 82 89 4a be 4e 9c 21 be
       0.013584303 -0.18994352 -0.19779018 -0.15782282
0000e0 62 0d b4 bd 8c 34 8a bc d4 ab 4a be a8 a5 ef bd
       -0.08791615 -0.01687076 -0.1979211 -0.11701518
0000f0 e9 b5 08 bf bc 5c 30 be 03 2e 4b be 5e b1 1b bc
       -0.5340257 -0.17222875 -0.19841771 -0.009502737
000100 a9 60 77 bd 4d 81 90 bc 20 c3 8a be 89 d1 87 3c
       -0.060394917 -0.01763978 -0.27101994 0.016579406
000110 b5 fd 26 be c8 ab 18 be d4 5b 33 bd 23 6b 2e be
       -0.16307719 -0.1490928 -0.043788746 -0.17033057
000120 40 f8 07 be cd 03 91 be 90 1e 32 bd 2c b5 f0 bd
       -0.13278294 -0.28323212 -0.043486178 -0.11753306
000130 72 02 0a 3d 5d bf 9a bb 50 18 ff b8 8a 1d 60 be
       0.03369374 -0.0047225193 -0.00012163876 -0.21886268
000140 fe e6 f4 bd e2 c6 02 be 51 4e 00 be 4b 94 2e bc
       -0.11958121 -0.1277118 -0.12529875 -0.010655473
000150 a1 bb ad bc 2e 1c 1b bd 96 ec ac be ba 5e b8 bc
       -0.021207632 -0.03786867 -0.3377425 -0.022506107
000160 cd 79 87 be 1b 09 f9 bd 80 b1 f4 bd b2 ef b3 bc
       -0.26460114 -0.1215994 -0.11947918 -0.021964882
000170 ee c4 8f be e5 d4 12 be 9e 68 d7 3c 91 6e 54 be
       -0.28079933 -0.14339025 0.026295003 -0.20745303

MLP.2.weight f4 [96, 96]
000000 54 b9 21 ba ed db e6 b8 2e d1 19 39 81 b7 0e b9
       -0.00061692786 -0.00011008219 0.00014669143 -0.00013610536
000010 e6 1a 68 38 4a 3a f8 b9 64 cd f1 b9 88 a7 2c 3a
       5.533816e-05 -0.00047345675 -0.0004612013 0.00065862434
000020 bc 42 1c ba 33 94 0a 3a 49 36 5c 39 e3 9d 90 3a
       -0.0005960872 0.00052863656 0.00021001058 0.0011033382
000030 82 16 0d 3a 12 89 af ba 1d cd 59 ba ba aa fb b9
       0.0005382077 -0.001339229 -0.00083084573 -0.00048001652
000040 19 cb 9a 3a ed f0 de ba 52 57 0d ba f0 cd 5d ba
       0.0011809795 -0.0017009057 -0.0005391735 -0.0008461168
000050 32 ab 0b 3a 5c 1e 1f 3a ed 3e 3f 3a d0 85 ff ba
       0.0005327939 0.00060698926 0.00072954484 -0.0019494835
000060 b8 5b dc b9 68 86 78 3a b2 69 29 ba d7 91 9a ba
       -0.00042030006 0.00094804773 -0.0006462588 -0.0011792731
000070 e8 50 5f 3a 3b 0e cc ba 6e f0 af ba 3b 53 d4 ba
       0.0008518831 -0.0015568206 -0.0013423094 -0.0016199121
000080 d8 6f ab 39 28 b8 b8 39 a0 3a 35 b9 77 65 a8 39
       0.00032698992 0.00035232422 -0.00017283345 0.00032119054
000090 36 e3 69 ba 70 9f c8 b9 2a f6 f5 38 ae 84 02 b9
       -0.00089221017 -0.00038265763 0.00011728362 -0.00012447193
0000a0 65 f3 be b9 e3 bd 90 39 f7 eb 90 39 b8 81 6a 38
       -0.00036420967 0.00027607297 0.00027641628 5.5910758e-05
0000b0 f0 a3 41 39 5a b3 9a ba be 18 57 b9 80 b3 ae 38
       0.00018466986 -0.0011802719 -0.00020513215 8.330401e-05
0000c0 6d 50 50 3a 57 a3 ad b8 16 06 2b 3a 42 89 bb 3a
       0.00079465547 -8.279707e-05 0.0006524039 0.0014307874
0000d0 2a 22 27 39 ef 7c 98 ba 90 0b 45 3a fd 74 dc b9
       0.00015939088 -0.0011633913 0.00075166766 -0.00042048833
0000e0 78 1c 3e 38 33 b4 cd 39 04 2e a7 ba 65 7a 87 ba
       4.5326044e-05 0.00039234906 -0.0012754803 -0.0010336159
0000f0 e0 df 30 bb bf 61 92 ba 05 fa b8 ba 28 6e e8 38
       -0.0026988909 -0.0011168047 -0.0014112598 0.0001108314
000100 77 bf cf 38 58 c7 8b 3a b1 d6 ac ba f2 0d 4e 39
       9.906192e-05 0.0010664267 -0.0013186542 0.00019650886
000110 a6 10 06 ba ec f2 0a 3a ec 75 6f 3a a0 3c 1e ba
       -0.0005114175 0.00053004804 0.0009134698 -0.00060362555
000120 37 62 85 b9 fc 0c f9 ba e5 4d 1e ba fa 4e 7c 3a
       -0.00025440913 -0.0019001062 -0.0006038829 0.00096248055
000130 e1 9b 1d 3a 41 9e 01 39 5a ec 98 3a 7d b3 eb ba
       0.00060123025 0.00012361353 0.0011667118 -0.0017982569
000140 d8 fe 6e 39 7d bf 9e b9 00 c9 41 3a e4 e2 1c 3a
       0.00022792385 -0.00030278778 0.0007392317 0.0005984737
000150 a0 d2 db 36 d0 1a 38 b9 7f 64 fe ba ce 87 60 3a
       6.5512286e-06 -0.00017557596 -0.0019408612 0.00085651584
000160 e6 21 9b b9 bb a4 b2 b9 6a 56 3c 39 78 13 8d 39
       -0.0002958916 -0.0003407354 0.00017961269 0.0002690812
000170 37 b0 8d ba 4a 26 83 ba fd ac 0c 3a aa c2 e7 b9
       -0.0010809962 -0.0010005918 0.00053663534 -0.0004420479
000180 f4 01 cd bb 0b f3 55 3b 7f 5c e2 bb c7 3e 9a ba
       -0.0062563363 0.0032646086 -0.006907999 -0.0011767977
000190 20 e9 99 bb bc 12 c0 bc 6d 02 5e bc 19 b1 b8 bb
       -0.00469698 -0.023446433 -0.013550383 -0.005636346
0001a0 2b db 96 3a dc 6d 27 3c d6 2d 21 bc c4 2f 6d bb
       0.0011509409 0.010219064 -0.009837588 -0.00361918
0001b0 62 44 00 3b 66 cd 8f bb e6 3b e4 bb 6c 12 c3 3a
       0.001957201 -0.004388499 -0.0069651483 0.001488281
0001c0 bf 14 0a bc 24 d7 52 bb c4 d6 70 3c 0d 9a f5 3a
       -0.008427798 -0.003217169 0.014699642 0.0018737927
0001d0 69 27 5b 3b e4 d0 c1 3a 97 e8 6b ba ae 6e b3 3c
       0.0033440238 0.0014786986 -0.0008999197 0.021903362
0001e0 3d 93 11 bc 8f ce 0e 3c 27 69 89 bb d6 c2 fa ba
       -0.008885202 0.00871624 -0.0041934433 -0.0019131552
0001f0 6f a0 ac bb cb 29 71 bb f3 94 0e 3c ce 2e 0a bb
       -0.0052681486 -0.0036798592 0.008702504 -0.0021085027
000200 84 4f a8 b9 00 07 e8 ba 69 40 dd b7 b9 12 92 bb
       -0.000321027 -0.0017702281 -2.6375246e-05 -0.0044577983
000210 4d 36 a6 3b dd ba 84 bb ee 31 8b bc eb 15 bd bb
       0.005072391 -0.004050596 -0.016991582 -0.005770435
000220 f1 24 68 3c 94 9b 8a bb 78 33 88 3c f0 a3 69 b8
       0.014168964 -0.004229972 0.016626105 -5.5704208e-05
000230 08 58 44 3a 20 aa db ba 5f c3 d3 bc 22 e4 37 3a
       0.00074899243 -0.0016759075 -0.025849996 0.00070148904
000240 a2 5b ee ba 69 16 0f bc d8 b0 24 ba 99 7f f5 ba
       -0.0018185268 -0.00873337 -0.0006282455 -0.0018730044
000250 df 11 b1 3c d4 a9 ff 3a 99 f9 2d 3c 0a bc f3 ba
       0.021614967 0.0019505569 0.010618591 -0.0018595469
000260 69 4e ad ba 18 73 3f 3c 6f fb 59 bc 6c 99 9c 3b
       -0.0013222221 0.011685155 -0.013304575 0.0047790315
000270 61 cb a8 bb 8c 21 8b 3c 7b 49 85 bc 28 1e 08 bb
       -0.005151198 0.01698377 -0.01627039 -0.0020769928
000280 23 08 5a 3d 4d 81 e7 3b b8 4d cd bb dd c0 89 bb
       0.053230416 0.0070649744 -0.0062653683 -0.0042038993
000290 63 4f d5 bb 16 f1 7c 3c 65 e1 2d 3b c4 0a b0 bb
       -0.006509708 0.015438339 0.002653205 -0.005372377
0002a0 15 3d 0e bd 79 ec 04 3e a9 00 83 3b 0e 54 47 3d
       -0.03472622 0.12980832 0.0039978814 0.048664145
0002b0 3e a0 30 bb fb 77 98 bb ff 15 08 bc fe 34 4b bc
       -0.002695098 -0.0046529747 -0.0083060255 -0.012402771
0002c0 e7 7e 92 ba e2 a0 30 bb 96 9e e5 bb 31 1b 51 bb
       -0.0011176736 -0.0026951362 -0.0070074303 -0.0031907076
0002d0 6d 9a 92 3c 37 96 9f bb e4 ce 05 bb c4 dc fd bc
       0.017895902 -0.004870202 -0.0020417506 -0.030989058
0002e0 0c 46 ee b9 d5 47 29 39 7c 2d f7 bb f9 41 fa bb
       -0.00045447086 0.00016143855 -0.007543264 -0.007637259
0002f0 d6 46 af 3c a4 29 9e 3c e8 ce 96 ba e7 3f 60 3b
       0.021396082 0.019306965 -0.0011505755 0.0034217776
000300 57 97 05 bc 58 db 7a bc 33 a6 ca bb c8 0e 94 bc
       -0.008153758 -0.015311085 -0.0061843633 -0.018073454
000310 7b d7 58 bc 14 7a f8 3a df 02 14 3c 0c 22 76 3c
       -0.013234968 0.001895728 0.009033888 0.015022766
000320 b1 5e 1c bc 66 82 e3 bb 33 d3 c0 3b fd ef 3a bd
       -0.009544061 -0.006943035 0.005884552 -0.045639027
000330 24 f6 3a 3c a1 5d b9 bc 30 07 dc bc f2 81 d3 3c
       0.011411224 -0.022627654 -0.026858896 0.025818799
000340 01 83 0b 3d 44 73 a1 bd 41 07 75 3c 5d c2 06 3c
       0.034060482 -0.07883313 0.014955343 0.008225051
000350 c3 63 0a bd 7f 5d 61 bd ef 8f d4 3b b3 d8 25 3d
       -0.033786546 -0.055020805 0.006486885 0.040489864
000360 28 33 26 bc c8 9a cf bc 43 28 9c bc 80 be c2 3c
       -0.010144033 -0.02534236 -0.019062167 0.023772478
000370 78 c5 39 bc d0 2f 83 bc b0 a6 57 3c a4 19 4f bc
       -0.011338584 -0.01601401 0.0131623 -0.012640391
000380 9e 04 85 bc dc cf 12 3b 82 18 9a bc 1b 88 a0 3c
       -0.016237553 0.0022401726 -0.018810514 0.01959615
000390 4e df b2 3b 2a a6 cd bb 1a 87 8d 3c 28 0b a9 bc
       0.005458749 -0.006275912 0.017276336 -0.020635203
0003a0 9f 94 86 bc ba 8d 39 3c 15 19 76 bc a1 f8 95 3c
       -0.01642829 0.011325294 -0.015020628 0.018307032
0003b0 15 ac 2e 3c ed b4 91 bc 97 77 df bb d7 db 7d 3c
       0.010661145 -0.017786467 -0.006819676 0.015494308
0003c0 b5 f4 5f bb 31 fd 74 3d 02 fb ad bb 45 dc 31 bb
       -0.0034172956 0.059811775 -0.0053094635 -0.0027139348
0003d0 d0 f0 71 bb a5 8d a5 bc c4 50 02 be e6 81 0c 3d
       -0.0036917217 -0.020209143 -0.12726122 0.03430357
0003e0 fb a4 71 3d 59 5d 75 ba da 83 9e 3c 0b e6 66 3c
       0.05899523 -0.0009359918 0.019349981 0.014092932
0003f0 78 95 fb 3c a7 7f 86 3b 02 51 ae 3b a4 ad 23 bc
       0.03071092 0.004104573 0.0053197155 -0.00999013

MLP.2.bias f4 [96]
000000 db 11 03 3a 6b 60 b6 3a e8 08 68 b8 31 b8 2b bb
       0.0004999914 0.0013914233 -5.5321405e-05 -0.0026202316
000010 52 5e ab ba 07 cf c6 3b d7 7d 98 3a 78 dd ab 3a
       -0.0013074374 0.00606716 0.0011634183 0.0013112267
000020 a2 61 54 bb 27 b4 aa bb 32 5b d7 3b 80 8c 51 bb
       -0.0032406827 -0.005209464 0.0065721506 -0.0031974614
000030 a0 c5 8b ba 7e 96 77 bb f4 7c 47 b9 99 68 4b 3b
       -0.0010663755 -0.003777891 -0.00019024668 0.0031037687
000040 16 4b 45 b9 97 ff d2 ba f0 ba d2 39 0c 83 1f 3a
       -0.00018815356 -0.00160979 0.000401936 0.0006084896
000050 22 ea 68 ba f6 56 2f 3b c3 76 c4 3b 81 81 48 bb
       -0.0008884986 0.0026754714 0.005995603 -0.0030594768
000060 18 c8 22 b8 00 91 eb bb 84 9e 59 3b 77 0e 18 bb
       -3.881016e-05 -0.007188916 0.0033206055 -0.002320198
000070 b8 b3 01 ba 5d 77 29 3b 36 4c 33 ba b8 cc ed b9
       -0.00049477397 0.00258585 -0.00068396644 -0.0004535669
000080 4d 57 93 ba a0 0c d1 b7 cf 72 02 3a d6 a3 ec 3a
       -0.0011241228 -2.492062e-05 0.0004976214 0.0018054198
000090 8b d7 56 bb 3c 0b 22 bb e0 26 97 ba 6f a6 84 3b
       -0.0032782282 -0.0024725934 -0.0011531971 0.0040481607
0000a0 be 41 40 bb 6b 03 85 bb fa ca fa 3a 30 49 27 bb
       -0.002933606 -0.0040592453 0.0019133978 -0.00255258
0000b0 0b 00 4e bb 52 04 6c bb 38 05 cd ba fb fc bf 3b
       -0.003143313 -0.0036013317 -0.0015641814 0.005859015
0000c0 55 35 30 bb 16 a4 6c 3a 02 e9 1d bb b2 05 1c 3b
       -0.0026887257 0.0009027136 -0.0024095182 0.0023807106
0000d0 da 07 ea 3a d8 1f 89 39 5e 0d 4a bb e3 88 43 bb
       0.0017855123 0.00026154402 -0.0030830721 -0.002983623
0000e0 b0 ab 2e 3a 86 78 72 3b af de 38 3b f0 10 87 38
       0.00066631567 0.0036998107 0.0028208902 6.4404565e-05
0000f0 ae af 82 ba 00 18 35 3b 7e e9 13 3a 14 e7 2f 3b
       -0.000997057 0.0027632713 0.0005642398 0.0026840614
000100 89 4f 61 3b ca af 61 bb 97 10 a0 bb 43 86 8a bb
       0.0034379682 -0.0034437054 -0.00488479 -0.004227431
000110 73 94 99 bb d9 cb 9f bb c1 6c 1e bb 9c 72 a7 b8
       -0.004686886 -0.0048765955 -0.002417371 -7.984528e-05
000120 58 2e b1 bb 62 a5 b0 bb b0 f8 58 bb f8 b1 bb b9
       -0.005407136 -0.005390809 -0.0033107214 -0.00035800016
000130 3c 11 9a bb 9f 4d 94 3b 95 9d 0c bc d9 11 ed bb
       -0.0047017615 0.0045258547 -0.008582492 -0.0072347936
000140 c1 52 87 bb a0 bb 0c 3c f6 0b f9 bb e0 c9 d4 39
       -0.004129738 0.008589655 -0.007600303 0.000405862
000150 68 e8 17 3a ef 3d 2a bc 20 2f e2 bb 31 72 3e 3b
       0.0005794824 -0.010390743 -0.0069025904 0.0029059763
000160 b1 87 95 bb 92 22 4c bb cb 06 c5 ba 40 94 43 bb
       -0.004563295 -0.0031148535 -0.0015031932 -0.0029843003
000170 be 82 aa ba d8 55 0c bc 08 6a 7c ba b0 37 65 bb
       -0.0013008935 -0.008565389 -0.0009628837 -0.003497582
