pretrained_models/ENZYMES/epoch_200_NodeCLModel_withoutAGMTT_withMLP.pth (torch, 36011 bytes, 24 tensors)

convList.0.nn.0.weight f4 [32, 21]
0	0xbc37252d	-0.011178297
1	0xbc75c8a7	-0.0150014525
2	0xbc109cc9	-0.008826443
3	0xb8c999ff	-9.613111e-05
4	0xb390f2d9	-6.749696e-08
5	0xbc4055f5	-0.011739244
6	0xb91c855c	-0.00014927
7	0xb8a9c9c0	-8.096127e-05
8	0xb894afaf	-7.0899136e-05
9	0xb4a5c329	-3.0875643e-07
10	0xb99b6f61	-0.00029646888
11	0xb9410486	-0.000184076
12	0xb9b46bab	-0.00034412494
13	0xb8ca501d	-9.647033e-05
14	0xb6c0bcf1	-5.7440416e-06
15	0xb968bed6	-0.00022196336
16	0xb8127e73	-3.4926878e-05
17	0xb87f5f24	-6.0885344e-05
18	0xb968c0c9	-0.00022197062
19	0xb39eb641	-7.3906e-08
20	0x05165550	7.0686355e-36
21	0xbda57f9a	-0.08080979
22	0x3e836696	0.25664204
23	0x3b7e48dd	0.0038800754
24	0xbd9cfb42	-0.07665111
25	0xbb9de178	-0.0048181377
26	0xbdd4ec0b	-0.10396584
27	0x3dbf2146	0.09332518
28	0xbcb2bb45	-0.021817813
29	0xbd3de543	-0.04636122
30	0xbc5b2cc5	-0.013377373
31	0x3da705a6	0.08155374
32	0xbd23c568	-0.039983183
33	0xbd1e864d	-0.038702298
34	0x3d9e80ee	0.07739435
35	0x3a5778f0	0.000821962
36	0x3d8a11f2	0.06741704
37	0x3b6342e6	0.0034677326
38	0xbd39f235	-0.045397002
39	0xbdde75cb	-0.10862311
40	0x3d9138fb	0.07090946
41	0x3d47861d	0.048711885
42	0xbddc89a5	-0.10768441
43	0xbb934a93	-0.004494974
44	0x3d49d5db	0.049276214
45	0x3b878bcc	0.004136538
46	0xb814d083	-3.548014e-05
47	0xbd4db3aa	-0.05022017
48	0xb9fbabd3	-0.0004800247
49	0x3a86953f	0.0010267867
50	0xb9dbfff2	-0.0004196163
51	0xb88ddbcb	-6.7643436e-05
52	0xb99171b2	-0.00027741265
53	0xb995e78b	-0.00028592008
54	0x3bdcf291	0.0067427834
55	0xb92960e7	-0.00016153195
56	0xb924122c	-0.00015647028
57	0xb98676a3	-0.00025646863
58	0xba270c9a	-0.0006372422
59	0x3b3c0c2f	0.0028693785
60	0xb9a83249	-0.00032080922
61	0x3854bfc0	5.072332e-05
62	0x93d692a8	-5.416581e-27
63	0x3e09533a	0.13410655
64	0xbdeab346	-0.11459975
65	0x3d6ae6a7	0.057348873
66	0x3eaa6bf1	0.33285478
67	0x3d6ab6d0	0.05730325
68	0xbc8b27ef	-0.016986815
69	0x3d74ad44	0.05973555
70	0x3a97db2b	0.0011585703
71	0xbd6a93a1	-0.057269696
72	0xbd779685	-0.06044628
73	0x3daeeaa0	0.08540845
74	0x3cc4d0c6	0.024025332
75	0x3d999fd8	0.07501191
76	0xbdba801a	-0.09106465
77	0xbc673635	-0.014112045
78	0xbcc36abd	-0.023854608
79	0x3d9dbe19	0.07702274
80	0xbdb39d2e	-0.08770214
81	0x3d0e3c8d	0.034725714
82	0xbe916a83	-0.28401574
83	0xbd8a7afb	-0.06761738
84	0xbe35aec8	-0.17742455
85	0xbdf0d383	-0.11759093
86	0x3e14e078	0.14538753
87	0x3e10e326	0.1414915
88	0x3d8d1b40	0.06889963
89	0x3c4b3705	0.012403254
90	0xbea0ad2d	-0.31382123
91	0x3e7ca03d	0.24670501
92	0x3e086d91	0.13323046
93	0xbdad80cb	-0.08471831
94	0x39c2be92	0.0003714455
95	0xbe5a4df2	-0.21318796
96	0xbe2b405e	-0.16723773
97	0x3d8eb4de	0.069680914
98	0x3cecae55	0.028891722
99	0x3e74c7e6	0.2390438
100	0xbd55ca00	-0.052194595
101	0xbd9c2cab	-0.07625707
102	0x3d5ff174	0.054673627
103	0x3d881b9b	0.0664589
104	0xbf2895a7	-0.6585335
105	0x3a843887	0.0010087647
106	0xbda128c6	-0.07869105
107	0x3d870d22	0.06594302
108	0xbde4c2d4	-0.11169973
109	0xbdb0c8a3	-0.086320184
110	0x3d911d82	0.07085706
111	0xbd5532eb	-0.052050512
112	0x3e02fb72	0.12791231
113	0xbe85c0cb	-0.26123652
114	0xbe0f4667	-0.139917
115	0xbd91ff22	-0.07128741
116	0xbe50fa58	-0.20407999
117	0xbd6f123a	-0.05836699
118	0x3e1efc90	0.15526032
119	0x3c224574	0.009904254
120	0x3dacbafd	0.08434103
121	0xbe221143	-0.15826897
122	0xbe0ae8ac	-0.1356532
123	0x3e97ce66	0.29649657
124	0xbe43f726	-0.19137248
125	0xbc93ff66	-0.01806612
126	0x3dd8e981	0.10591412
127	0x3d8f48d8	0.06996316
128	0x3b5a0e16	0.0033272556
129	0x3e08764a	0.13326374
130	0xbd70651b	-0.05869017
131	0x3e017e40	0.12645817
132	0x3da38b9f	0.07985615
133	0x3e1647fd	0.14675899
134	0x3bbcba08	0.0057594813
135	0x3d87257a	0.06598945
136	0x3e249059	0.1607069
137	0xbe2da701	-0.16958238
138	0xbd8756bb	-0.066083394
139	0xbe02cf0b	-0.12774293
140	0x3e4e4b1c	0.2014584
141	0x3e9199ee	0.28437752
142	0xbdec4b5f	-0.115378134
143	0x3e1c5ba3	0.15269332
144	0xbcfe159a	-0.03101616
145	0x3e133213	0.1437457
146	0xbe61bdbd	-0.22045036
147	0xbe3cc4ae	-0.18434402
148	0xbd2c5d10	-0.04208094
149	0x3c6e8f00	0.014560461
150	0x3d180897	0.037117567
151	0xba495d62	-0.00076814566
152	0x3cbd2bf1	0.023092242
153	0x3d1527d5	0.03641494
154	0x3d4261e7	0.04745665
155	0xbd8b5977	-0.068041734
156	0xbcf2b673	-0.029628014
157	0xbcc59478	-0.024118647
158	0x3db4499b	0.08803102
159	0x3e153720	0.1457181
160	0x3cedbd79	0.029021012
161	0xbdff7a17	-0.12474459
162	0x3d0d4d20	0.03449738
163	0x3d3b7134	0.045762256
164	0xbd81a665	-0.06330565
165	0xbd90652f	-0.07050549
166	0x3cc29dc5	0.023756871
167	0x3f443908	0.7664952
168	0x3d84b899	0.06480522
169	0xbe19aa7f	-0.15006445
170	0x3d8c5652	0.06852402
171	0x3daf1e44	0.085506946
172	0xbe466b26	-0.19376811
173	0x3d965169	0.073397465
174	0x3e120417	0.14259373
175	0xbddcbd48	-0.1077829
176	0x3d5742bc	0.052553877
177	0xbe60e45d	-0.21962114
178	0x3df016a6	0.1172307
179	0xbe2ba859	-0.16763438
180	0xbe4b41c2	-0.19849303
181	0xbe40447f	-0.18776129
182	0xbdb3589e	-0.08757137
183	0xbd3bbe24	-0.04583563
184	0xbe956310	-0.2917714
185	0xbe7ee2e3	-0.24891238
186	0xbd024c2c	-0.031810924
187	0x3d87b14f	0.06625616
188	0x3e856596	0.26054066
189	0xbd68c28e	-0.056826167
190	0x3d82731c	0.063696116
191	0x3dfe89b6	0.1242861
192	0x3de528dc	0.11189434
193	0xbd13823f	-0.036012884
194	0x3e321914	0.17392379
195	0xbe0b5926	-0.13608226
196	0xbe7b34f0	-0.24531913
197	0xbe5626b1	-0.20913197
198	0xbd1066dd	-0.035254348
199	0x3dcbd127	0.09952002
200	0x3df06e5e	0.11739801
201	0x3e06b430	0.13154674
202	0x3dcba9f0	0.099445224
203	0x3e8466d0	0.2585969
204	0x3dfdd242	0.12393619
205	0x3dbe7428	0.09299499
206	0xbda19e0d	-0.07891474
207	0xbd1cfb6d	-0.038325716
208	0xbf00b923	-0.50282496
209	0x3e326f48	0.17425263
210	0x3e6dc565	0.23219831
211	0xbe3754d7	-0.17903458
212	0xbde0eac7	-0.1098228
213	0xbe0c0fe7	-0.13677941
214	0x3e52bf55	0.205808
215	0x3d3c3788	0.045951396
216	0x3e166a32	0.14688948
217	0xbe25cbe6	-0.16191062
218	0xbb1a493d	-0.0023542189
219	0xbe09aa8d	-0.13443966
220	0x3e8980e8	0.2685616
221	0x3cc5725d	0.024102384
222	0x3d991442	0.07474567
223	0x3cb336c2	0.021876696
224	0x3e4fe5d4	0.20302516
225	0xbd1e39f9	-0.038629506
226	0x3e96a318	0.29421306
227	0x3e197b77	0.14988504
228	0xbc83eeb0	-0.016105026
229	0xbd956911	-0.072954305
230	0x3dd0a9a7	0.101886086
231	0x3e032483	0.12806897
232	0xbd0dae01	-0.03458977
233	0xbe2537be	-0.16134545
234	0x3cf61f9d	0.030044371
235	0xbd36fc02	-0.044673927
236	0x3e2f5da1	0.1712556
237	0x3e27f889	0.16403402
238	0x3e3566bc	0.17714971
239	0xbdb3c693	-0.087781094
240	0x3e19ac8c	0.15007228
241	0xbd8b6a24	-0.06807354
242	0x3e38560e	0.18001577
243	0xbda285b9	-0.07935662
244	0x3e4e5a75	0.20151694
245	0xbd3976e2	-0.04527939
246	0x3e2ed8e9	0.17074932
247	0x3e35dab9	0.17759217
248	0x3da65697	0.081219845
249	0xbd124c50	-0.03571731
250	0x3e9c737d	0.3055686
251	0xbf25fd16	-0.64839303
252	0xbb471ea6	-0.0030383258
253	0x3e077d7f	0.13231467
254	0x3e2be659	0.1678709
255	0x3e1413a3	0.14460616

convList.0.nn.0.bias f4 [32]
0	0xb9076a52	-0.0001291421
1	0xbca06052	-0.01957718
2	0x3a415b88	0.0007376005
3	0xbcb2c69e	-0.021823224
4	0x3e23a1d3	0.159797
5	0xbc4c2731	-0.012460516
6	0x3dd67b13	0.10472693
7	0xbe655ee8	-0.22399485
8	0x3caafdba	0.02087294
9	0xbd0efdd1	-0.034910027
10	0xbdf2f987	-0.11864
11	0x3e88404d	0.26611558
12	0xbe5071f4	-0.2035597
13	0xbdc8d656	-0.09806506
14	0x3d52ba51	0.051447216
15	0x3df50488	0.11963755
16	0xbd2dc5ef	-0.042425092
17	0xbe6bf051	-0.23040892
18	0xbe35bc35	-0.17747577
19	0xbcea15c0	-0.028574824
20	0xbcd7ba2f	-0.026333896
21	0x3b96fc90	0.0046077445
22	0x3e3d29b0	0.18472934
23	0x3dd49f79	0.103819795
24	0x3a8de0d3	0.0010824449
25	0x3d6b0c27	0.057384636
26	0xbe0ad96a	-0.135595
27	0xbe47abc3	-0.19499116
28	0x3cb96948	0.02263321
29	0xbdc98e5f	-0.09841608
30	0xb88768f3	-6.45685e-05
31	0xbd88ffbe	-0.06689404

convList.0.nn.2.weight f4 [32, 32]
0	0x800a52ea	-9.48099e-40
1	0x800cc1a5	-1.171493e-39
2	0x86278f42	-3.1514458e-35
3	0xbbb3066e	-0.005463413
4	0xbc6fc1ce	-0.014633609
5	0xba4f5862	-0.00079095934
6	0xbca831bc	-0.020531528
7	0x0002f308	2.70854e-40
8	0xbba87470	-0.0051408336
9	0xbc0ad752	-0.008474188
10	0xbb914654	-0.0044334326
11	0xbc69df03	-0.014274362
12	0x800358f4	-3.07417e-40
13	0xbc8e7dbc	-0.01739394
14	0xbc23cccf	-0.009997561
15	0xbcc65206	-0.024209034
16	0x0008c641	8.05804e-40
17	0xbc87ddef	-0.016585318
18	0xbc7c67eb	-0.015405635
19	0x0000ea86	8.4131e-41
20	0x3b8296de	0.00398527
21	0x0003091c	2.78774e-40
22	0xbc801bdb	-0.015638283
23	0xbc71d521	-0.014760287
24	0x8006aec1	-6.13703e-40
25	0x000760b4	6.77539e-40
26	0xbbf31e72	-0.007419401
27	0xbc9327bf	-0.017963288
28	0x01ae44fb	6.401649e-38
29	0xbc897977	-0.016781552
30	0x80019bf7	-1.47785e-40
31	0xb9b46f2e	-0.0003441511
32	0x3a3a2dd0	0.00071021635
33	0xbe3e6444	-0.18592936
34	0x3b73db6d	0.0037209645
35	0xbe2d4259	-0.16919841
36	0xbd9029bf	-0.070392124
37	0xbde80c1a	-0.11330433
38	0x3e29e61b	0.16591685
39	0x3cb69b7d	0.02229094
40	0xbe4c9176	-0.19977364
41	0x3e1d08c7	0.1533538
42	0x3e0684d9	0.13136615
43	0xbde1354b	-0.10996493
44	0xbe474728	-0.19460738
45	0x3d3f82fd	0.04675578
46	0x3df15298	0.11783332
47	0xbe37513f	-0.17902087
48	0x3d81c354	0.06336084
49	0xbe00dda1	-0.12584545
50	0xbd511a0f	-0.051050242
51	0x3e052ae4	0.13004643
52	0x3e0eac4f	0.13932918
53	0xbd3d3420	-0.04619229
54	0x3d8e9223	0.06961467
55	0x3e3694b5	0.17830165
56	0x3a98d83f	0.0011661126
57	0xbcfbf1b7	-0.030754907
58	0xbe412b22	-0.1886411
59	0xbd6cc474	-0.05780454
60	0xbc9d8898	-0.019230172
61	0xbe30be2e	-0.17260048
62	0xbc800fc9	-0.015632527
63	0x3d3ab800	0.045585632
64	0x38500ba7	4.9601917e-05
65	0x3db2c502	0.087289825
66	0xb5c40035	-1.4603198e-06
67	0xbbd3b532	-0.006460809
68	0x3b3c7d95	0.0028761376
69	0xbd88fb1e	-0.06688522
70	0x3b509490	0.0031826831
71	0xbd910383	-0.07080748
72	0xbda8e1eb	-0.082462154
73	0x3dcd6fa9	0.10031063
74	0x3dd8b52c	0.10581431
75	0x3d8ae05b	0.06781074
76	0xbb01ffcc	-0.0019836305
77	0xbd969347	-0.0735231
78	0x3d45c4d1	0.048283402
79	0x3e13e65e	0.14443347
80	0x3ca23ec9	0.019805329
81	0xbe12db25	-0.1434141
82	0xbe51db93	-0.20493917
83	0xbd1f8288	-0.038942844
84	0x3d350843	0.044197332
85	0x3df59e8e	0.119931325
86	0x3c7e504c	0.015522074
87	0xbddbb2bc	-0.1072745
88	0x13dfee9e	5.652841e-27
89	0x3a29779c	0.00064646616
90	0xbe22009c	-0.15820545
91	0xbdf94667	-0.12171631
92	0x3c4331e1	0.0119137475
93	0xb9705b54	-0.00022922206
94	0xbbe3ece2	-0.006955729
95	0xbdf373fb	-0.11887356
96	0xbb8c3f04	-0.004279973
97	0xbd924a5b	-0.071430884
98	0xbcec7f63	-0.028869336
99	0xbd875fbc	-0.06610057
100	0xbcb017bd	-0.021495694
101	0xbdab24fd	-0.08356664
102	0x3d056154	0.032563522
103	0xbc54501f	-0.0129585555
104	0xb93689dd	-0.0001740823
105	0xbe00748e	-0.12544462
106	0xbd57be62	-0.052671798
107	0x3d99bd08	0.07506758
108	0x3dddf62a	0.10837968
109	0xbc821955	-0.01588122
110	0x3c91ba0f	0.017788915
111	0x3cddf11b	0.027092507
112	0x3d22de50	0.039762795
113	0xbc250fb6	-0.010074547
114	0xbd424952	-0.047433205
115	0xbcf72eee	-0.030173745
116	0xbd1ca558	-0.03824362
117	0x3daf6371	0.08563889
118	0xbc3a1937	-0.011358551
119	0x3ca4d2e1	0.020120086
120	0xbbe3136d	-0.006929806
121	0x3e232e24	0.1593557
122	0xbda0a473	-0.07843866
123	0x3cc89f8f	0.024490146
124	0x3dabec08	0.08394629
125	0xbd32effd	-0.043685902
126	0xbb7a5a8f	-0.003820095
127	0xbd159371	-0.036517564
128	0x3be8305c	0.007085843
129	0xbe2d36e5	-0.16915472
130	0xbc0910e3	-0.0083658425
131	0xbd8d92f4	-0.06912795
132	0xbe12a823	-0.14321952
133	0xbbf3564c	-0.007426059
134	0xbc01f073	-0.007930863
135	0x3c3ceee0	0.011531562
136	0xbdad2572	-0.08454408
137	0x3d6fbc1a	0.058528997
138	0x3d6b26eb	0.057410162
139	0xbe33b8b2	-0.17550924
140	0xbde5d348	-0.11221939
141	0xbde88f94	-0.1135551
142	0x3dfccc77	0.12343686
143	0x3d3f6c4e	0.046734147
144	0xbd85a336	-0.06525271
145	0x3d54aa93	0.051920485
146	0x3d1d00df	0.03833091
147	0xbda1cb95	-0.07900158
148	0x3e2518e7	0.1612278
149	0xbdadaf88	-0.084807456
150	0xbcfa8c29	-0.030584412
151	0x3d8579a0	0.06517339
152	0xbbdd32ab	-0.006750425
153	0xbd4eaa7d	-0.05045556
154	0xbd6b9367	-0.05751362
155	0xbdd5a224	-0.104313165
156	0xbcae54c4	-0.021280654
157	0x3b2041b1	0.0024453218
158	0x3d4dcab7	0.050242152
159	0x3ddd90d6	0.10818641
160	0x298db906	6.293754e-14
161	0xbdf7d864	-0.1210182
162	0x8e01919b	-1.5970584e-30
163	0x3d0786b5	0.03308745
164	0xbe3afc9a	-0.18260422
165	0xbd2a4013	-0.041565012
166	0x3e1747d6	0.14773497
167	0xbd007934	-0.03136559
168	0x3cc8c4f4	0.024507977
169	0xbd25176b	-0.040305536
170	0x3e0972b2	0.13422659
171	0xbd0562c6	-0.0325649
172	0xbe144a1a	-0.14481393
173	0x3e080fe8	0.13287318
174	0x3c3fc6ce	0.011705114
175	0x3acffdf3	0.001586853
176	0xbb8f60eb	-0.004375567
177	0x3dc9058c	0.09815511
178	0xbca4312a	-0.020042975
179	0xbd70e6be	-0.058813803
180	0x3e2433ab	0.16035335
181	0xbc33198b	-0.010931383
182	0x3e1e7c60	0.15477133
183	0x3ce0e8e0	0.027454793
184	0x84129fa7	-1.7235526e-36
185	0x3e2577ca	0.16158977
186	0xbe15d7ad	-0.14633055
187	0xbd87a55c	-0.06623337
188	0xbd511b70	-0.051051557
189	0xbe259aaf	-0.16172288
190	0x2c958a2c	4.250175e-12
191	0xbe6061d4	-0.21912318
192	0x38270deb	3.9828865e-05
193	0xbd674ffa	-0.056472756
194	0xb9bf8173	-0.00036526806
195	0xbdf07fa6	-0.11743097
196	0x3d28f99a	0.041253664
197	0x3d956369	0.072943516
198	0x3e2320e9	0.15930523
199	0xbd928764	-0.0715473
200	0x3d8bdd01	0.068292625
201	0xbdf39077	-0.11892789
202	0xbeb0bf53	-0.3452097
203	0xbbd30a0a	-0.0064404057
204	0x3bf347ee	0.007424346
205	0x3d86d816	0.06584184
206	0xbe1f824b	-0.15577047
207	0xbd741bac	-0.059596702
208	0x3dd0c50f	0.10193836
209	0xbe1a364f	-0.1505978
210	0xbdfab3f7	-0.12241357
211	0x3d7e742e	0.062122516
212	0x3dc9294c	0.0982233
213	0x3d1a810f	0.037720736
214	0x3dbabdb8	0.09118217
215	0xbce88414	-0.028383292
216	0x046f49db	2.8128228e-36
217	0xbde0bff5	-0.10974113
218	0xbd84b65d	-0.064800955
219	0xbe53e818	-0.20694005
220	0xbdf2ef0a	-0.11861999
221	0x3df8af90	0.12142861
222	0xa149db1a	-6.839143e-19
223	0x3e35e66b	0.17763679
224	0xbcc11fc5	-0.02357472
225	0x3e0c76d5	0.13717206
226	0xbd8fe267	-0.07025605
227	0xbe7df194	-0.24799186
228	0x3e1fe4a2	0.1561456
229	0xbd5d072b	-0.053961914
230	0xbd45d62a	-0.048299946
231	0xbda9df7f	-0.082945816
232	0xbe2b1333	-0.16706543
233	0x3dd82d3f	0.10555505
234	0xbc5e26de	-0.013559071
235	0xbc152a51	-0.009104327
236	0x3db798c9	0.08964688
237	0x3d6798f9	0.05654237
238	0x39c1b499	0.00036946384
239	0x3d96c6ff	0.07362174
240	0x80029793	-2.38046e-40
241	0xbe01d21d	-0.12677808
242	0x3e4753c2	0.19465545
243	0xbd1c7834	-0.038200572
244	0xbe3f5b6e	-0.18687221
245	0xbdc16fda	-0.09445162
246	0xbe2b29e9	-0.16715206
247	0x3b9e5aaf	0.0048325877
248	0xbcd24f23	-0.025672501
249	0x3d6509b3	0.055917453
250	0xba3538c0	-0.00069130585
251	0xbe37a3c2	-0.17933562
252	0xbd08fd19	-0.033444498
253	0xbdd6dd8c	-0.104914755
254	0xbda4e925	-0.08052281
255	0xbe80d046	-0.251589

convList.0.nn.2.bias f4 [32]
0	0xbb38da3e	-0.0028206254
1	0x3ce0e29a	0.027451802
2	0x3f24152e	0.6409482
3	0x3d34417c	0.044007763
4	0x3d5e624a	0.054292955
5	0x3d612ca3	0.05497421
6	0x3e63f822	0.22262624
7	0x3e7ec1a0	0.2487855
8	0xbe5f9212	-0.21833065
9	0x3e230c16	0.15922579
10	0x3ebbb47a	0.3666113
11	0x3d218cac	0.039440796
12	0x3ca7d65f	0.020487962
13	0x3d708872	0.058723874
14	0x3a45a948	0.00075401785
15	0x3ea0df2d	0.3142027
16	0x3b26d726	0.0025457828
17	0x3d01d9db	0.031701904
18	0xaba13d20	-1.1456704e-12
19	0x3e15bb28	0.14622176
20	0x3ccfe94e	0.025379803
21	0x3cbd0e34	0.023078062
22	0xbd506239	-0.050874922
23	0x3d87c2dd	0.06628964
24	0xbde6995f	-0.11259722
25	0x3e54037c	0.20704454
26	0x3f02f46d	0.51154214
27	0x3dd68631	0.10474814
28	0xbcdd2667	-0.02699585
29	0x3e08a638	0.13344657
30	0x3ee4f801	0.44720462
31	0x3d00374c	0.031302735

convList.1.nn.0.weight f4 [32, 32]
0	0xbcb87112	-0.022514854
1	0x3d223261	0.039598826
2	0xbd4eadf4	-0.050458863
3	0x3ca2febe	0.019896861
4	0xbe52ae7b	-0.20574372
5	0x3d36eef1	0.044661466
6	0xbe29ab75	-0.16569312
7	0x3ca26b7b	0.019826641
8	0x3ce34b2e	0.02774581
9	0xbdd4ef2d	-0.10397182
10	0x3cba7f69	0.022765832
11	0xbd1567c8	-0.036475927
12	0xbccb317c	-0.02480387
13	0xbc2893e3	-0.010289165
14	0x3c8dac5b	0.0172941
15	0x3cfe947e	0.031076666
16	0x3bf691fb	0.0075247264
17	0x3ca52ea6	0.020163845
18	0xbbc601b2	-0.0060426826
19	0x3dad3c75	0.08458797
20	0x3a456b13	0.0007530909
21	0x3de72991	0.11287225
22	0xbce82255	-0.028336683
23	0x3d2689a3	0.040658604
24	0xbd8c561d	-0.06852362
25	0x3d27ecad	0.040997196
26	0x3d04cd11	0.03242213
27	0xbe0c3a41	-0.13694097
28	0x3c696ee2	0.014247628
29	0xbebb74fe	-0.36612695
30	0xbd19e4dc	-0.037571773
31	0xbd274df3	-0.040845823
32	0x3da3e65e	0.080029234
33	0xbd3854f4	-0.045002893
34	0x3dd40bb3	0.10353794
35	0xbd6a9333	-0.057269286
36	0xbe424da2	-0.18974927
37	0x3c7beb8c	0.015375983
38	0x3d831f34	0.06402436
39	0x3c84a77e	0.016193148
40	0x3c193368	0.009350635
41	0x3dd86ad0	0.10567248
42	0x3e0819b4	0.13291055
43	0xbd8369be	-0.06416653
44	0x3ddddc79	0.108330674
45	0xbda988b8	-0.0827803
46	0xbd9599a6	-0.07304697
47	0x3dc28648	0.09498268
48	0xbd4812bd	-0.048845995
49	0xbd055fb2	-0.032561965
50	0x3d8afb77	0.06786244
51	0x3c17c0ae	0.009262247
52	0xbda68d1f	-0.081323855
53	0x3d0ce7c8	0.03440073
54	0xbd950dd6	-0.072780296
55	0xbd81e24b	-0.0634199
56	0x3dea6136	0.11444323
57	0xbd9fca22	-0.07802226
58	0x3dbec85b	0.093155585
59	0x3d00dad7	0.031458702
60	0xbd6c47c0	-0.057685614
61	0x3d8c9cee	0.068658695
62	0x3dac8a16	0.08424775
63	0x3cba97f3	0.022777533
64	0x3d8d3d40	0.06896448
65	0x3d64ca6f	0.05585712
66	0x3dabfa8d	0.08397398
67	0x3d9b6f00	0.07589531
68	0x3cdcbcb0	0.026945442
69	0x3d7ef47b	0.062244873
70	0xbde00c32	-0.10939826
71	0xbdcfacc4	-0.10140374
72	0x3b5301cd	0.0032197118
73	0xbe144ad4	-0.1448167
74	0xbd2e2ee2	-0.04252518
75	0x3de54004	0.11193851
76	0xbda4d674	-0.08048716
77	0x3daa62c3	0.083196186
78	0xbd963b58	-0.07335538
79	0x3c39ac7d	0.011332628
80	0xbd728c92	-0.05921609
81	0xbdc40a0b	-0.09572228
82	0x3d35f823	0.044426095
83	0x3c9cd5c8	0.019144908
84	0x3bc5bfea	0.006034841
85	0xbd3a2be6	-0.04545202
86	0x3d8dadbb	0.06917902
87	0x3d2cf8d5	0.042229492
88	0xbd6a0f0f	-0.057143267
89	0x3c432efa	0.011913056
90	0xbddd35c2	-0.10801269
91	0x3dc0123f	0.0937848
92	0xbd7fc28b	-0.06244139
93	0x3d8636dd	0.06553433
94	0xbe1fb386	-0.15595827
95	0x3c8f566b	0.017497262
96	0xbd1b4bad	-0.037913967
97	0x3c504443	0.012711587
98	0x3e66d6fd	0.22542949
99	0xbd2bde74	-0.041960195
100	0xbd6d5a5a	-0.057947494
101	0x3cf002da	0.029298235
102	0xbc854308	-0.016267315
103	0x3d830242	0.06396915
104	0xbe007312	-0.12543896
105	0xbe0130fe	-0.12616345
106	0xbd1c13ac	-0.038104698
107	0xbdc6eb25	-0.09712819
108	0xbd5b6d39	-0.05357096
109	0xbd3e79d3	-0.0465029
110	0x3cd1d09a	0.025612164
111	0x3d081bd5	0.033229668
112	0x3d790bc2	0.06080223
113	0x3ba7e974	0.0051242653
114	0xbd6fc1d0	-0.058534443
115	0xbd56aef9	-0.05241296
116	0xbd9c1126	-0.07620458
117	0x3d5ee8cc	0.05442123
118	0x3c0caadc	0.008585658
119	0xbcd0007a	-0.025390852
120	0xbd82c098	-0.063843906
121	0x3c335353	0.010945159
122	0xbcd2c724	-0.025729723
123	0x3d8961fa	0.06708141
124	0x3d0f98ba	0.03505776
125	0xbd5790df	-0.052628394
126	0xbe135bd1	-0.14390494
127	0xbdcf261f	-0.10114693
128	0x3e170065	0.14746244
129	0xbe165aba	-0.14683047
130	0xbdf0eeeb	-0.1176432
131	0xbe0a2645	-0.13491161
132	0xbe2f5a48	-0.17124283
133	0xbdfe4bbf	-0.12416791
134	0xbdcfb580	-0.1014204
135	0x3d6b0370	0.057376325
136	0x3ba0e9da	0.00491069
137	0x3d363396	0.04448279
138	0xbd02db91	-0.031947676
139	0xbe12afb5	-0.1432484
140	0x3d2fd473	0.042927217
141	0xbddfc007	-0.10925298
142	0xbe070104	-0.13183981
143	0xbc01e01c	-0.007926967
144	0xbdc01a64	-0.093800336
145	0x3c81efd4	0.01586143
146	0x3e08da02	0.13364413
147	0xbdd31d50	-0.10308325
148	0xbe1497ab	-0.14510982
149	0xbcd19467	-0.025583459
150	0xbe5c6558	-0.21523035
151	0xbdfcf426	-0.12351255
152	0xbd8a80ac	-0.067628235
153	0xbda5686e	-0.08076559
154	0xbd0ddb1e	-0.034632795
155	0xbd3be418	-0.045871824
156	0xbe1306ee	-0.14358112
157	0xbce1990b	-0.027538797
158	0xbd00c916	-0.03144177
159	0x3d838072	0.064209834
160	0x3d805d87	0.06267839
161	0xbe5965ea	-0.21230283
162	0x3db91703	0.09037592
163	0xbd9deab3	-0.07710781
164	0xbe31824f	-0.17334865
165	0x3de07692	0.109601155
166	0xbd7b49b1	-0.061349574
167	0x3da22164	0.07916525
168	0xbc88d209	-0.016701715
169	0x3ddb0bb1	0.10695589
170	0x3c87c0bf	0.0165714
171	0xbca83704	-0.020534046
172	0xbdc3cde5	-0.09560756
173	0x3b51c054	0.0032005506
174	0xbda479f8	-0.08031076
175	0xbd19c026	-0.037536763
176	0xbdaaeb87	-0.083457045
177	0x3d00d8a3	0.0314566
178	0x3db1a943	0.08674862
179	0xbde39714	-0.111128
180	0xbd286903	-0.041115772
181	0x3cfa4fe7	0.030555679
182	0x3dafb446	0.08579306
183	0xbd46a035	-0.04849263
184	0x3dab57bc	0.083663434
185	0xbd05b7d8	-0.03264603
186	0xbc844146	-0.016144406
187	0xbda9117a	-0.082552865
188	0xbdcfb4be	-0.10141896
189	0xbd932872	-0.07185449
190	0x3e0ce792	0.13760212
191	0xbb8daee0	-0.0043238252
192	0xbd6d510d	-0.057938624
193	0x3dad4a3f	0.08461427
194	0x3ad604ed	0.0016328372
195	0xbc1962b0	-0.009361908
196	0xbba8d38d	-0.005152172
197	0xbc909fe5	-0.017654369
198	0x3cf03040	0.029319882
199	0xbc3311d3	-0.010929543
200	0x3d1e157b	0.038594704
201	0x3d99db2a	0.07512505
202	0x3d0c4ca6	0.034252785
203	0xbd1f4387	-0.03888276
204	0xb729ba00	-1.01164915e-05
205	0xbd39d7bc	-0.045371756
206	0x3d96008a	0.073243216
207	0xbdc92fd5	-0.09823576
208	0x3dd29d56	0.10283916
209	0xbe3e78bb	-0.18600743
210	0xbd93831f	-0.07202744
211	0x3d7aee9a	0.061262704
212	0xbd1c9e4c	-0.0382369
213	0xbcc3909c	-0.023872666
214	0xbca77f03	-0.020446306
215	0xbd2f1de0	-0.0427531
216	0x3ccfdba2	0.025373284
217	0x3e0d5fba	0.13806048
218	0x3d1b44c4	0.037907377
219	0xbdfd3d3e	-0.12365197
220	0x3d22e234	0.039766505
221	0xbe1134d1	-0.14180304
222	0x3d543714	0.05181034
223	0xbe0d00e8	-0.13769877
224	0xbc868103	-0.01641894
225	0x3ce0d924	0.02744729
226	0xbe382a9e	-0.17985007
227	0xbc80e16e	-0.015732493
228	0x3e4e23eb	0.20130889
229	0x3d477448	0.04869488
230	0xbe0d2f58	-0.13787591
231	0x3d40c890	0.04706627
232	0x3e2aa2e3	0.16663699
233	0x3d1de254	0.03854592
234	0x3da8b0c6	0.08236842
235	0xbc510739	-0.01275807
236	0x3e2e7636	0.17037281
237	0xbc919f34	-0.01777611
238	0xbbc7e122	-0.006099836
239	0x3e114aed	0.14188738
240	0xbb2a3aaf	-0.002597492
241	0xbd2cb2ec	-0.04216282
242	0x3b196f96	0.0023412458
243	0xbe2a60f8	-0.16638553
244	0xbc1d523b	-0.009602125
245	0x3da64054	0.08117738
246	0x3d21ce90	0.039503634
247	0xbd2f5c2a	-0.042812504
248	0xbe163dc7	-0.14672004
249	0x3d2f7b91	0.04284245
250	0x3d606b6e	0.054789953
251	0x3d718a12	0.058969565
252	0x3c3b6ad5	0.011439045
253	0x3dff7c13	0.12474837
254	0xbd9eb0b9	-0.07748551
255	0x3d9eb583	0.07749464

convList.1.nn.0.bias f4 [32]
0	0x3db0e428	0.08637267
1	0x3e4ea842	0.20181373
2	0x3d894cdd	0.06704114
3	0x3e150770	0.14553618
4	0x3daf4da8	0.08559734
5	0x3dc313ff	0.09525298
6	0x3daf8de5	0.08571986
7	0xbcee24cb	-0.029070279
8	0xbe101931	-0.1407211
9	0x3da2d3c4	0.07950547
10	0x3dc7f7dd	0.09764073
11	0x3c203f74	0.009780753
12	0xbe2b1bbc	-0.16709799
13	0xbdca46f6	-0.09876816
14	0x3ab11f3f	0.001351334
15	0xbe891f80	-0.26781845
16	0xbd700cb2	-0.058605857
17	0x3caeb9f6	0.021328907
18	0xbd47d085	-0.048782844
19	0x3e22292e	0.15836021
20	0x3cafd398	0.0214632
21	0xbca0f614	-0.01964859
22	0xbd9f9d26	-0.077936456
23	0x3d9d27cc	0.07673606
24	0xbe5cbf55	-0.21557362
25	0x3dc02308	0.09381682
26	0x3ddbd1cb	0.10733374
27	0xb9cd17df	-0.00039118432
28	0x3d8b1cbd	0.06792591
29	0x3e0b9852	0.13632324
30	0x3e2c9012	0.16851833
31	0xbd98e409	-0.07465369

convList.1.nn.2.weight f4 [32, 32]
0	0xbd4eba62	-0.050470717
1	0x3dd76cb7	0.105187826
2	0x3d2a018a	0.041505374
3	0xbe1e2b1c	-0.15446132
4	0x3d8fc8af	0.07020699
5	0x3d097e8f	0.03356796
6	0xbe259b83	-0.16172604
7	0xbd9dc3a3	-0.0770333
8	0xbe2290d6	-0.15875563
9	0x3da92038	0.08258098
10	0x3d719a24	0.05898489
11	0x3db04fcf	0.08608972
12	0xbe21a770	-0.15786529
13	0xbda33564	-0.07969168
14	0xbd8b16e8	-0.067914784
15	0xbdb380e9	-0.08764822
16	0xbd8a83a4	-0.0676339
17	0x3d53b4fd	0.051686276
18	0x3c4f82ed	0.0126654925
19	0xbd1a6a11	-0.03769881
20	0x3daa4979	0.08314795
21	0x3aef6146	0.0018263243
22	0xbdf32dfe	-0.11874007
23	0xbdfad07e	-0.12246798
24	0x3df637b2	0.12022342
25	0x3db924da	0.09040232
26	0x3b420579	0.0029605313
27	0xbd2ed669	-0.042684946
28	0xbddbcf02	-0.10732843
29	0xbcde8a7b	-0.027165642
30	0x3d955b26	0.07292776
31	0x3d3e9e51	0.0465377
32	0x3dd10060	0.1020515
33	0x3c64e8b8	0.0139715
34	0x3c2b1014	0.010440845
35	0x3c36554e	0.011128737
36	0x3d82c6a6	0.063855454
37	0x3bd23638	0.006415155
38	0x3e07a4d8	0.13246477
39	0x3dfe3496	0.12412374
40	0xbe2dd6d0	-0.16976476
41	0x3d81c65e	0.06336664
42	0xbb07eac0	-0.0020739287
43	0xbd51c9a0	-0.051217675
44	0xbe30cb62	-0.17265084
45	0xbd4fae96	-0.050703607
46	0x3e08f724	0.13375527
47	0xbd87ef18	-0.066374004
48	0x3bb3146f	0.0054650824
49	0x3d016404	0.031589523
50	0x3c994928	0.018711641
51	0xbdacc501	-0.08436013
52	0x3de2f567	0.11081963
53	0xbde7de40	-0.11321688
54	0xbcf48d51	-0.029852541
55	0xbde8d075	-0.11367885
56	0xbddbcb52	-0.1073214
57	0xbd84be30	-0.06481588
58	0xbe341bda	-0.1758875
59	0xbd40efc8	-0.047103673
60	0xbd0ff428	-0.035144955
61	0x3de3b3f9	0.111183114
62	0xbd823edf	-0.06359648
63	0xbcb27fc1	-0.021789433
64	0x3d28bcc0	0.04119563
65	0x3e0debc5	0.1385947
66	0x3dae33e1	0.08505989
67	0xbdd5a8b6	-0.1043257
68	0x3c89b94f	0.016811995
69	0x3ddce4e9	0.10785849
70	0x3ce545e1	0.027987422
71	0xbd13d47a	-0.036091305
72	0xbdab71fb	-0.083713494
73	0xbb9ebe44	-0.004844459
74	0x3c078f66	0.008273935
75	0xbd0b63e9	-0.03403083
76	0x3d9463b7	0.072455816
77	0xbcf233cb	-0.029565712
78	0x3a453510	0.00075228605
79	0xbc095e09	-0.008384236
80	0xbd170688	-0.036871463
81	0xbc7bd648	-0.015370913
82	0x3db442bb	0.0880179
83	0xbdd6a346	-0.10480361
84	0x3d48d9ac	0.049035713
85	0xbe1dc2a7	-0.15406285
86	0xbe0daee3	-0.13836245
87	0xbd648839	-0.055793975
88	0x3c6e31c3	0.014538231
89	0xbe3b078e	-0.182646
90	0xbcd7300a	-0.026268024
91	0xbc32d65c	-0.010915365
92	0xbc96afb1	-0.018394323
93	0x3dbc7568	0.09202081
94	0xbe1d7bcf	-0.1537926
95	0x3d28e269	0.041231547
96	0x3d7f1b0f	0.062281664
97	0x3dbad3ca	0.09122427
98	0x3c2a49f6	0.01039361
99	0xba2bf67e	-0.00065598625
100	0x3c477a3d	0.01217514
101	0x3d6de04c	0.058075234
102	0xbd9d7a99	-0.07689399
103	0x3de6eeff	0.11276054
104	0x3be5d419	0.0070138094
105	0xbe1a58de	-0.15072963
106	0x3e2f2d37	0.17107092
107	0xbc139054	-0.0090065785
108	0x3dde9b13	0.10869422
109	0xbdc31762	-0.09525944
110	0x3d456ad7	0.048197594
111	0xbe2ca3a8	-0.16859305
112	0xbdab48ec	-0.08363518
113	0x3cfe9c59	0.031080412
114	0x3d88f3f4	0.06687155
115	0xbcb21a7a	-0.02174114
116	0xbcf02ce3	-0.029318279
117	0xbdf9cf6d	-0.121977665
118	0x3d9eff78	0.077635705
119	0xbd842f13	-0.06454291
120	0xbdd711fe	-0.105014786
121	0x3d04f937	0.032464232
122	0x3dea1c6c	0.11431202
123	0x3d0af551	0.03392536
124	0xbe070439	-0.13185205
125	0x3c220481	0.009888769
126	0x3cb2e8b2	0.021839473
127	0x3cf4ffe2	0.02990717
128	0x3b826b20	0.0039800555
129	0xbaa71815	-0.0012748266
130	0xbdfb63fe	-0.12274931
131	0x3d1b0240	0.037843943
132	0xbe3e7fff	-0.18603514
133	0xbd604208	-0.054750472
134	0x3ddcdfb0	0.107848525
135	0xbe10a264	-0.14124447
136	0x3d752ae0	0.059855342
137	0x3d16835c	0.036746368
138	0xbcbe14da	-0.023203302
139	0x3d36a108	0.044587165
140	0xbd85fa0b	-0.065418325
141	0xbd0b4d15	-0.034009058
142	0xbd9ba287	-0.07599359
143	0x3c91bb5f	0.01778954
144	0xbd6803fa	-0.056644417
145	0xbd5aa298	-0.053377718
146	0x3db213ca	0.08695181
147	0xbe271024	-0.16314751
148	0xbd748b4a	-0.05970315
149	0x3dfd129d	0.12357066
150	0xbd3cd7a9	-0.046104107
151	0x3d30da85	0.043177146
152	0x3ce06629	0.027392464
153	0x3dcd1b52	0.100149766
154	0xbd481d80	-0.04885626
155	0x3e4c6b2b	0.19962756
156	0x3d237875	0.0399098
157	0xbcc244b6	-0.023714405
158	0x3df223c9	0.11823232
159	0x3dbb1f99	0.09136886
160	0xbcdb7bce	-0.026792433
161	0x3bce9c23	0.006305234
162	0xbd08c7e0	-0.03339374
163	0x3dee8613	0.116466664
164	0xbcaacb94	-0.020849027
165	0xbd9e6d2a	-0.07735665
166	0x3d079e27	0.03310981
167	0xbdcb908e	-0.09939681
168	0x3dce4924	0.10072544
169	0xbc2557b4	-0.010091711
170	0x3cf96548	0.030443802
171	0x3cb65512	0.022257362
172	0xbcc4e58e	-0.024035241
173	0xbdf2aff3	-0.11849966
174	0xbd2f9a13	-0.042871546
175	0xbc9fb006	-0.019493114
176	0x3d06bd29	0.03289524
177	0x3d14afc2	0.03630043
178	0x3c48b4d8	0.012250148
179	0x3d6206e6	0.05518236
180	0xbcad13cf	-0.02112761
181	0x3dd357c6	0.10319476
182	0x3ccada27	0.024762226
183	0x3cdd9f8a	0.027053613
184	0x3dbc2427	0.09186583
185	0x3dcc79d5	0.09984175
186	0x3e09f17d	0.13471027
187	0xbd6a0b3f	-0.05713963
188	0x3c190c65	0.009341334
189	0xbe298e45	-0.16558178
190	0x3e1242fa	0.14283362
191	0x3db2c6a0	0.08729291
192	0x3d3ea432	0.046543308
193	0xbd11c2dd	-0.035586227
194	0x3cbc9b16	0.02302317
195	0xbd4ac2d1	-0.049502198
196	0xbd14e939	-0.03635523
197	0xbce78215	-0.02826027
198	0x3daf8751	0.085707314
199	0x3df5457a	0.11976142
200	0x3b02f92c	0.0019984944
201	0xbcca3012	-0.024681125
202	0xbd2d9a41	-0.042383436
203	0x3d10349c	0.035206422
204	0xbd0c9e66	-0.034330748
205	0xbddb121c	-0.106968135
206	0xbc743478	-0.014905088
207	0x3deef0be	0.11667012
208	0xbd9987b9	-0.0749659
209	0xbd6a7d7d	-0.05724858
210	0x3e30449c	0.17213672
211	0x3c7a6c33	0.015284586
212	0x3cc27855	0.02373902
213	0xbdcff01e	-0.101532206
214	0x3d539d71	0.05166382
215	0xbc19330c	-0.009350549
216	0x3d914ccc	0.07094726
217	0x3dc3a05d	0.09552071
218	0x3d3663f8	0.04452893
219	0x3d74a45b	0.059727054
220	0x3b9ddede	0.0048178276
221	0xbd3a8a11	-0.045541827
222	0x3df654bd	0.12027881
223	0x3db8eb78	0.09029287
224	0x3d4b2f51	0.04960567
225	0x3c6a2ee9	0.014293411
226	0x3cef3a2a	0.02920254
227	0xbd8a9334	-0.06766358
228	0x3dd152ce	0.10220872
229	0x3d4e00c0	0.050293684
230	0xbd95f78e	-0.07322608
231	0x3d630dcf	0.05543309
232	0xbd337c0f	-0.043819483
233	0x3e28e81f	0.16494797
234	0x3c08ec66	0.008357143
235	0x3dd28538	0.10279316
236	0xbd7a7903	-0.061150562
237	0xbdf06585	-0.11738113
238	0x3c4b9fb6	0.012428215
239	0xbe06233e	-0.13099381
240	0x3cf39b2b	0.029737076
241	0x3d73b61c	0.059499845
242	0xbd19c6a7	-0.037542965
243	0xbceeb437	-0.029138668
244	0xbd2e8b58	-0.042613357
245	0x3c7428ad	0.014902276
246	0xbdcf1d18	-0.10112971
247	0xbcc154df	-0.02360004
248	0xbdd81588	-0.10550982
249	0x3dd13a65	0.10216216
250	0xbe20978e	-0.15682814
251	0x3db1bbcb	0.08678397
252	0xbdf61c3e	-0.120171055
253	0x3d896e68	0.067105114
254	0xbd70ac06	-0.058757804
255	0xbe0137df	-0.1261897

convList.1.nn.2.bias f4 [32]
0	0xbd2b62c2	-0.04184223
1	0x3df2e773	0.11860552
2	0x3ce4f8ee	0.02795073
3	0x3e1538f4	0.14572507
4	0xb9dde514	-0.0004232308
5	0x3d64ff31	0.055907432
6	0xbc379195	-0.011204143
7	0x3e14b15d	0.14520784
8	0xbc9d28c5	-0.01918448
9	0x3bf12a0e	0.0073597496
10	0xbd9ae910	-0.075639844
11	0x3dae696e	0.08516203
12	0x3df7151b	0.120645724
13	0x3d55c909	0.052193675
14	0x3df04ac1	0.11733008
15	0x3e4af8c4	0.19821459
16	0x3e02ba87	0.12766467
17	0x3e7d6677	0.24746118
18	0x3e21e8ef	0.15811513
19	0x3d905b68	0.07048684
20	0x3df3e6b2	0.11909236
21	0x3c9bfaac	0.019040428
22	0x3e1f3336	0.15546879
23	0xbdb43653	-0.08799424
24	0x3ca7bb48	0.020475045
25	0x3d15558f	0.03645855
26	0x3ddd5bed	0.10808549
27	0x3e485fc3	0.1956778
28	0x3e5f5614	0.2181018
29	0xbd80e34d	-0.06293354
30	0x3cce24a7	0.025163962
31	0x3a8b6ed7	0.0010637891

convList.2.nn.0.weight f4 [32, 32]
0	0xbd6aeefd	-0.057356823
1	0xbdc4a36d	-0.096014835
2	0xbde5e565	-0.11225394
3	0xbbaca88f	-0.005269117
4	0x3c40bef4	0.011764277
5	0xbda957fa	-0.08268733
6	0xbd2cdb64	-0.042201415
7	0x3cdb91bc	0.02680289
8	0xbe3c4ba8	-0.18388236
9	0xbda59590	-0.080851674
10	0xbce24aec	-0.027623616
11	0xbbf27972	-0.0073997313
12	0x3bcbd7a2	0.006220774
13	0xbcacc405	-0.021089563
14	0x3d0eebce	0.03489285
15	0xbc1ea118	-0.009681962
16	0xbdefeb58	-0.1171481
17	0xbd14bcd7	-0.036312904
18	0xbcb09bcd	-0.021558667
19	0xbca35e29	-0.01994236
20	0xbd561265	-0.052263636
21	0x3d8d07e1	0.068862684
22	0x3ba70a52	0.005097666
23	0xbda78095	-0.08178822
24	0xbdeb77d9	-0.114974685
25	0x3d1965f0	0.03745073
26	0x3c781fb1	0.015144275
27	0x3d4bfd1d	0.049801935
28	0xbd0f065b	-0.03491817
29	0xbd19cfc3	-0.037551653
30	0x3cca37c0	0.024684787
31	0x3d84ddd2	0.06487621
32	0xbd2f5d40	-0.04281354
33	0xbe63ac92	-0.22233799
34	0xbd8760b0	-0.066102386
35	0xba213b08	-0.0006150459
36	0x3ce5ee45	0.028067717
37	0x3d554e52	0.052076645
38	0xbc49c3a2	-0.012314709
39	0xbd0a1d7b	-0.03371952
40	0x3d184a39	0.03718016
41	0xbd55d616	-0.05220612
42	0x3d6f97d8	0.05849442
43	0x3c4ad1ad	0.012379092
44	0xbd66bed1	-0.05633432
45	0xbca9fb46	-0.0207497
46	0xbdc80a36	-0.097675726
47	0xbc5fdad0	-0.013663009
48	0xbe1427a3	-0.14468245
49	0xbd8ccc2f	-0.068748824
50	0xbdff9c2c	-0.12480959
51	0x3c0188b2	0.007906126
52	0xbba9cb1f	-0.0051816846
53	0xbdbb0986	-0.09132676
54	0x3d80eb5c	0.06294891
55	0x3c9927be	0.018695708
56	0xbccdff6f	-0.025146214
57	0xbdf5fe46	-0.120113894
58	0x3bc078f4	0.0058737937
59	0x3a44e4be	0.0007510892
60	0x3cca9e03	0.024733549
61	0xbe15d575	-0.14632209
62	0xbd1005a2	-0.035161622
63	0xbe1d638b	-0.15370004
64	0x3deff2d7	0.1171624
65	0x3da3512b	0.07974466
66	0x3bc6a858	0.0060625486
67	0xbd81e283	-0.06342032
68	0x3cc2a004	0.023757942
69	0xbcb06322	-0.021531645
70	0x3d2118fa	0.03933046
71	0x3c4a07e1	0.01233098
72	0x3d376b87	0.04478028
73	0x3dda9b6f	0.10674178
74	0x3d88a9c2	0.06673004
75	0x3d0a7ace	0.033808522
76	0xbd985f07	-0.0744
77	0x3d9a5953	0.075365685
78	0x3c890be9	0.016729312
79	0x3d8e94ca	0.06961973
80	0x3d304507	0.04303458
81	0xbd8d9e4f	-0.069149606
82	0xbe0747f5	-0.13211043
83	0x3ad6eb63	0.0016397055
84	0x3da4534a	0.08023699
85	0x3cfc0c30	0.03076753
86	0xbdf394bb	-0.118936025
87	0x3cd53efa	0.026031006
88	0x3d6392f2	0.05556006
89	0xbc615fc7	-0.013755745
90	0x3d814418	0.06311816
91	0xbbbd63a3	-0.0057797
92	0xbe0bf841	-0.1366892
93	0x3d81a3a9	0.06330044
94	0xbde2484d	-0.110489465
95	0xb8dac178	-0.000104310864
96	0xbe3e3d7f	-0.18578146
97	0x3d8dc7e3	0.06922891
98	0x3d2df91b	0.042473894
99	0x3c311ac3	0.010809603
100	0x3bdb4c09	0.0066924137
101	0xbe086eff	-0.13323592
102	0xba7d9c54	-0.0009674479
103	0xba30a1ff	-0.00067380065
104	0x3d0cf856	0.03441652
105	0x3c2dcef1	0.010608421
106	0x3ccd864d	0.025088454
107	0xbd394702	-0.045233734
108	0xbdb2f899	-0.087388225
109	0x3d323e43	0.04351641
110	0x3ccb3940	0.024807572
111	0x3ccea550	0.025225312
112	0xbd41edaf	-0.047345813
113	0xbca78020	-0.020446837
114	0xbdc9d173	-0.098544024
115	0xbca8d163	-0.020607656
116	0xbdaca496	-0.0842983
117	0x3c481561	0.012212128
118	0xbe04b748	-0.12960541
119	0xbd04fe07	-0.03246882
120	0xbcb1863d	-0.021670455
121	0x3c816172	0.015793536
122	0xbd2a2e39	-0.041547988
123	0x3d18e975	0.037332017
124	0xbd17cb16	-0.037058912
125	0xbccbc2c1	-0.02487314
126	0xbcdc5f09	-0.026900785
127	0x3cda5cc7	0.026655568
128	0xbb96c398	-0.0046009533
129	0xbbf5d76b	-0.0075024865
130	0xbe191193	-0.1494811
131	0x3d5f4c12	0.054515906
132	0x3cfdc34b	0.030976912
133	0x3d0db6b7	0.03459808
134	0x3ceeb432	0.029138658
135	0x3c2663e0	0.010155648
136	0x3d233e4a	0.039854325
137	0x3d955b8c	0.07292852
138	0xbd26a60c	-0.0406857
139	0x3cba8819	0.022769975
140	0x3d4c6df4	0.049909547
141	0x3be6402f	0.0070266942
142	0xbcf5885f	-0.029972253
143	0x3b160bf2	0.0022895304
144	0x3c416e2d	0.011806053
145	0xbdc8a5ae	-0.09797226
146	0x3d296b86	0.041362308
147	0xbd2d188a	-0.04225973
148	0x3c0b8a38	0.008516841
149	0xbdd43edb	-0.10363551
150	0x3d932dbe	0.07186459
151	0xbd85054b	-0.0649515
152	0x3c10952d	0.008824629
153	0xbd390d0d	-0.04517846
154	0x3c25e99d	0.0101264985
155	0x3d4ab109	0.04948524
156	0x3c9d8d85	0.01923252
157	0x3d4f9f87	0.050689247
158	0xbd7277c3	-0.059196245
159	0xbc1dc85c	-0.009630289
160	0xbe2ca108	-0.16858304
161	0xbe049267	-0.12946473
162	0xbdde31cd	-0.108493425
163	0xbb80370b	-0.0039128116
164	0x3d407501	0.046986584
165	0x3cb1c128	0.02169855
166	0xbd8d5d24	-0.06902531
167	0x3c963a0f	0.018338231
168	0xbdfe058f	-0.12403404
169	0xbd0150e4	-0.031571284
170	0xbc4f993a	-0.012670809
171	0x3b89a3c0	0.0042004287
172	0x3d243918	0.04009351
173	0xbe013679	-0.12618436
174	0x3a30f6ac	0.0006750624
175	0x3c9c44f0	0.01907584
176	0xbcd3b724	-0.025844164
177	0xbdc0e905	-0.09419445
178	0xbd674353	-0.05646069
179	0x3b146e86	0.0022648885
180	0x3cfeedd5	0.031119267
181	0xbd8af75f	-0.067854635
182	0x3d8c820b	0.06860741
183	0xbda4d113	-0.0804769
184	0xbd54587c	-0.051842198
185	0xbc9aca14	-0.018895186
186	0x3ba3f08b	0.00500304
187	0xbcb69795	-0.022289077
188	0x39737ef8	0.00023221585
189	0xbdb0fd79	-0.08642096
190	0x3d0d5db8	0.034513205
191	0xbd8a830c	-0.067632765
192	0x3d37576e	0.044761114
193	0x3d1bbd03	0.038022052
194	0xbc03eb9b	-0.008051778
195	0x3c323276	0.010876289
196	0xbdca119f	-0.09866642
197	0xbda06b4e	-0.07832967
198	0xbe0ce558	-0.13759363
199	0x3d61a9f4	0.05509372
200	0xbdbb73f8	-0.09152979
201	0xbdced32d	-0.10098872
202	0xbdf04c9f	-0.11733364
203	0x3c782f3f	0.015147983
204	0x3d3e8889	0.04651693
205	0xbd9db149	-0.0769983
206	0xbd71ad3d	-0.059003104
207	0x3cecf491	0.028925212
208	0xbbbc6e6b	-0.0057504675
209	0x3cc7d7a7	0.024394823
210	0xbb8d9634	-0.004320884
211	0x3ca19290	0.019723207
212	0xbce00721	-0.02734715
213	0xbde2d6a3	-0.11076095
214	0xbd5f1129	-0.054459725
215	0xbd8e7687	-0.06956201
216	0xbd5d7c38	-0.054073542
217	0x3b703a0c	0.0036655692
218	0x3a936fb1	0.0011248497
219	0x3ba97118	0.0051709525
220	0x3cf36f71	0.029716225
221	0x3d6cbd4e	0.057797723
222	0xb8d13c12	-9.9770856e-05
223	0x3d536e2a	0.051618733
224	0x3987518a	0.00025809958
225	0x3c3a60cc	0.011375617
226	0x3d6199fb	0.055078488
227	0xbc53a00d	-0.012916577
228	0xbd8f1829	-0.0698703
229	0xbde01269	-0.109410115
230	0xbdbd1f98	-0.09234542
231	0x3c62b565	0.013837193
232	0xbdf02f27	-0.117277436
233	0xbda73379	-0.081641145
234	0xbc089d5c	-0.008338299
235	0x3d3190f8	0.043351144
236	0xbdabc0a0	-0.0838635
237	0xbd00519f	-0.03132784
238	0xbdc0e6e1	-0.09419037
239	0x3db4b759	0.08824033
240	0x3bd82ac2	0.006596894
241	0x3dca19ec	0.098682255
242	0xbdb1a598	-0.086741626
243	0x3c9aac1e	0.0188809
244	0x3d866c6c	0.065636486
245	0xbd7dff95	-0.06201132
246	0xbd87381d	-0.066025
247	0x3df48465	0.11939315
248	0x3d7d6f62	0.0618738
249	0xbe2a0a33	-0.16605453
250	0xbd062af2	-0.0327558
251	0x3af3b437	0.0018593137
252	0xbd3616f2	-0.044455476
253	0xbd151990	-0.03640133
254	0xbda7f4d3	-0.082009934
255	0xbd923587	-0.07139116

convList.2.nn.0.bias f4 [32]
0	0x3cdc0c33	0.026861286
1	0x3d97979d	0.07401965
2	0xbdf4d6b3	-0.11955013
3	0x3de77ef3	0.113035105
4	0xbd0dd0bb	-0.03462289
5	0x3c8d6192	0.01725844
6	0x3d8f1326	0.06986074
7	0x3e094690	0.13405824
8	0xbe001723	-0.12508826
9	0xbdea3bf1	-0.11437214
10	0xbbbdd622	-0.005793349
11	0xbd5bae90	-0.053633273
12	0x3e80e9ee	0.25178474
13	0x3c9cb843	0.019130832
14	0x3a1dc7e4	0.0006018861
15	0xbe982c52	-0.29721314
16	0xbe05e6e6	-0.13076362
17	0x3e160dcf	0.14653705
18	0xbd203fdc	-0.0391234
19	0xbe141535	-0.14461215
20	0x3c145ea1	0.009055764
21	0x3d4b4d1c	0.049634084
22	0xbc475b6a	-0.012167791
23	0xbaed1eda	-0.001809086
24	0xbd38956e	-0.045064382
25	0x3c7a7dca	0.0152887795
26	0xbd366a67	-0.044535067
27	0x3e65601b	0.22399943
28	0xbcfc69ba	-0.030812133
29	0x3e35a355	0.17738087
30	0x3e20446b	0.156511
31	0xbdfc2ae1	-0.12312866

convList.2.nn.2.weight f4 [32, 32]
0	0x3d887f7c	0.06664941
1	0xbc0c0e0b	-0.00854827
2	0x3c034bbb	0.008013661
3	0xbd73a9da	-0.059488155
4	0x3d6c097d	0.057626236
5	0x3d7cdd26	0.06173434
6	0x3d497c5c	0.049190864
7	0x3d87fdc8	0.06640202
8	0x3d4932c1	0.04912067
9	0xbd8ce216	-0.0687906
10	0xbb77960b	-0.0037778642
11	0xbda6ee3a	-0.08150907
12	0x3d9f79eb	0.07786926
13	0x3bf84abc	0.0075772684
14	0xbc0d278b	-0.008615385
15	0xbd1181f7	-0.035524335
16	0x3db91bdc	0.09038517
17	0xbd84b830	-0.064804435
18	0x3d01f6a1	0.031729344
19	0xbcacac00	-0.02107811
20	0xbd27f15d	-0.041001666
21	0xbda84ffc	-0.08218381
22	0xbd4c3a89	-0.04986051
23	0x3c102b6e	0.008799417
24	0x3c8febdf	0.017568527
25	0x3d5e1186	0.05421593
26	0xbd081f7f	-0.033233162
27	0xbd636a90	-0.055521548
28	0xbdea12ec	-0.1142939
29	0x3d10e955	0.035378773
30	0xbd8dbbc8	-0.06920582
31	0x3bca92c7	0.006182048
32	0x3b28f028	0.002577791
33	0xbe247aa7	-0.16062413
34	0xbd393d8e	-0.04522472
35	0x3dc02e09	0.093837805
36	0x3ca7960d	0.020457292
37	0xbd9c0597	-0.07618254
38	0xbce9fc58	-0.02856271
39	0xbd67a44a	-0.056553163
40	0x3d0b4166	0.033997916
41	0x3d00a775	0.0314097
42	0xbd08e611	-0.033422533
43	0xbc5678ca	-0.013090322
44	0xbd695215	-0.056963045
45	0x3de97848	0.11399895
46	0xbc8a9b5b	-0.016919782
47	0xbcce4273	-0.02517817
48	0xbd7277f3	-0.059196424
49	0x3d973595	0.07383267
50	0x3baf7cc8	0.0053554513
51	0x3dee5541	0.11637355
52	0x3dc6c554	0.09705606
53	0xbda16aae	-0.07881676
54	0xbd5e36ba	-0.05425141
55	0x3d176694	0.03696306
56	0xbbe14a9c	-0.006875349
57	0x3baaee48	0.0052163936
58	0x3d2f6748	0.042823106
59	0xbdc8f5b2	-0.09812488
60	0x3d6e3bb6	0.058162414
61	0x3d802981	0.06257916
62	0x3dc3f6be	0.09568547
63	0x3d9851c4	0.074374706
64	0x3d454048	0.048157007
65	0x3dca4508	0.09876448
66	0xbd831c43	-0.06401875
67	0xbd3a375a	-0.045462944
68	0xbca71cde	-0.020399507
69	0x3d4d0b63	0.050059687
70	0x3dac144d	0.084023096
71	0xbcc3f9b2	-0.023922775
72	0xbd1ddbe6	-0.03853979
73	0x3d9ba4e8	0.07599813
74	0x3d1be4ee	0.03806012
75	0x3d8372d0	0.06418383
76	0x3dccb2d2	0.09995045
77	0xbd85ebf1	-0.06539143
78	0xbd32f47c	-0.04369019
79	0xbc198037	-0.009368948
80	0x3d1bc6b0	0.03803128
81	0x3c84b0d7	0.016197605
82	0xbb88d8bb	-0.004176227
83	0xbd4141f8	-0.047182053
84	0x3dab4e6b	0.083645664
85	0x3d574c5c	0.052563056
86	0xbda0fe4e	-0.07861005
87	0x3cf8b6a1	0.030360522
88	0x3c0e71e4	0.008694146
89	0x3d84c3f3	0.06482687
90	0xbe058335	-0.13038333
91	0x3c382c34	0.011241008
92	0xbcaba49d	-0.020952517
93	0xbb68a763	-0.003550016
94	0xbdc1ed94	-0.094691426
95	0x3c32cb9c	0.010912802
96	0xbd6a65f7	-0.057226148
97	0xbd206ec8	-0.03916815
98	0xbd5f898a	-0.054574527
99	0x3b8a87ca	0.004227613
100	0x3d529802	0.051414497
101	0xbd06aa34	-0.032877162
102	0xbd65a6d0	-0.056067288
103	0xbb78087e	-0.0037846859
104	0xbb05c413	-0.0020411059
105	0x3db5f232	0.08884086
106	0x3dccbaff	0.09996604
107	0x3d2054d3	0.039143395
108	0x3d9019b9	0.07036156
109	0x3d3ab766	0.04558506
110	0x3c80364f	0.015650896
111	0xbd52c3cf	-0.05145627
112	0xbd6d8f5e	-0.057998054
113	0x3da817d7	0.08207672
114	0xbd2a107b	-0.041519623
115	0x3d996112	0.07489218
116	0x3d2e0e95	0.042494375
117	0xbd2a1462	-0.041523345
118	0xbdbedb70	-0.09319198
119	0xbd3eb28f	-0.046557005
120	0xbbfaf37b	-0.0076584197
121	0xbd38205a	-0.044952728
122	0xbdafc84a	-0.08583124
123	0xbd09cd59	-0.0336431
124	0x3c677f4f	0.014129474
125	0x3d3a840c	0.045536086
126	0x3d7a7abd	0.06115221
127	0xbb9e2e14	-0.0048272703
128	0xbce117d2	-0.027477179
129	0x3d16131f	0.03663933
130	0xbd323449	-0.043506894
131	0xbb68e3c1	-0.0035536143
132	0x3d784696	0.06061419
133	0x3dc71884	0.09721473
134	0xbb93a5dd	-0.0045058564
135	0xbdeeb2a0	-0.11655164
136	0xbdad07be	-0.08448742
137	0x3cc61dfd	0.024184221
138	0x3dd60bbe	0.104514584
139	0x3d0f9d82	0.03506232
140	0x3da7b9b9	0.08189721
141	0xbd0b969e	-0.034079187
142	0xbd94dc3b	-0.07268568
143	0xbceedf0c	-0.029159091
144	0xbd48fde5	-0.049070258
145	0x3d9bb0bb	0.07602068
146	0x3cce8ca0	0.02521354
147	0x3d1ea97b	0.038735848
148	0x3c35e127	0.011101044
149	0x3d395091	0.04524285
150	0xbd8fdeda	-0.070249274
151	0xbd0b0873	-0.033943605
152	0xbd199c3a	-0.037502505
153	0xbc69ebc4	-0.014277402
154	0xbdbb3060	-0.09140086
155	0x3d7be276	0.061495267
156	0xbca449bc	-0.02005469
157	0x3df1c1ee	0.11804567
158	0x3bff8330	0.007797621
159	0xbd9a2b2b	-0.07527765
160	0xbca77d49	-0.020445483
161	0xbd0bea19	-0.0341588
162	0xbd7bc5ba	-0.061467864
163	0x3dd75c43	0.105156444
164	0x3c8b402b	0.016998371
165	0xbd451e0b	-0.048124354
166	0xbd22d150	-0.039750397
167	0xbd1c556b	-0.0381674
168	0x3cc28037	0.023742778
169	0x3dbdb885	0.0926371
170	0xbcac29fa	-0.02101611
171	0x3dbb02df	0.09131407
172	0xbc83d859	-0.016094374
173	0x3d16961d	0.036764253
174	0xbdb91ce9	-0.09038717
175	0xbd476334	-0.04867859
176	0xbdaf2e95	-0.08553807
177	0x3d3822e0	0.044955134
178	0xbae9da43	-0.0017841536
179	0x3b0a3962	0.0021091332
180	0x3d64ad18	0.055829138
181	0xbd3d5b09	-0.046229396
182	0xbd55245d	-0.05203663
183	0x3c9448ab	0.018101057
184	0xbba775be	-0.0051104715
185	0x3d275f97	0.040862646
186	0x3d2d1a43	0.042261373
187	0xbd9eaab3	-0.07747402
188	0x3d931619	0.07181949
189	0x3d970fe8	0.07376081
190	0x3d1269da	0.03574548
191	0x3da9ac05	0.08284763
192	0xbd88a80a	-0.06672676
193	0x3b8298b6	0.0039854897
194	0xbc04b563	-0.008099887
195	0xbd211b69	-0.03933278
196	0x3d6e1c77	0.058132615
197	0xbc7fc0ef	-0.015609964
198	0xbda4b3e2	-0.080421224
199	0x3cea35c8	0.028590098
200	0x3a7474f8	0.0009325291
201	0x3dc78a11	0.09743131
202	0x3dd7eed4	0.105436
203	0x38fbd468	0.000120081764
204	0x3db0ce96	0.08633153
205	0x3d1e0c18	0.038585752
206	0x3c87e132	0.016586874
207	0xbd84044b	-0.06446131
208	0xbcdcaf6b	-0.026939115
209	0x3c055858	0.008138739
210	0xbd1cb8e0	-0.038262248
211	0xbd013c9b	-0.03155194
212	0xbd7e7f1d	-0.062132943
213	0xbd1e0b8c	-0.03858523
214	0xbdb1ac9a	-0.08675499
215	0xbdb612ed	-0.088903286
216	0x3d29d4dd	0.041462768
217	0xbc9ccaa1	-0.01913959
218	0xbd031b4e	-0.03200846
219	0x3c8162e0	0.015794218
220	0xbd13ac52	-0.03605301
221	0x3d62e72b	0.05539624
222	0x3d8f6c4f	0.0700308
223	0xbd556e4b	-0.052107137
224	0x3c4dba71	0.012556658
225	0xbdf5ec05	-0.12007908
226	0x3c77b2d9	0.015118324
227	0x3d26429e	0.040590875
228	0x3d915eaa	0.07098134
229	0xbb9247c2	-0.0044641206
230	0xbcdd35dc	-0.027003221
231	0x3d0ac45d	0.033878673
232	0x3da26a7c	0.079304665
233	0xbc61ac0f	-0.013773932
234	0x3b8fffbb	0.004394499
235	0xbd869e19	-0.065731235
236	0x3cee21a6	0.02906878
237	0x3dde217e	0.10846232
238	0xbce138ed	-0.027492965
239	0xbd5748e4	-0.05255975
240	0xbb5bd86a	-0.003354574
241	0xbd2ea483	-0.04263736
242	0x3c9752fd	0.01847219
243	0xbcfcc43d	-0.030855292
244	0xbd2531b5	-0.040330607
245	0xbe0374da	-0.12837544
246	0xbd01058d	-0.031499434
247	0xbca95657	-0.020671053
248	0x3c48e2f0	0.012261137
249	0x3d1c2106	0.03811743
250	0x3d3ed3f4	0.046588853
251	0xbdcb9dbc	-0.09942195
252	0xbd1f1a61	-0.038843516
253	0x3d6660f4	0.056244805
254	0x3d098e51	0.03358299
255	0x3cfda868	0.030964091

convList.2.nn.2.bias f4 [32]
0	0x3e8f0265	0.27931514
1	0x3e5a40d7	0.21313797
2	0x3e658460	0.22413778
3	0x3e518182	0.2045956
4	0x3e829a5a	0.25508386
5	0x3e5417e9	0.20712246
6	0x3e86a9d2	0.26301438
7	0x3e932ed1	0.28746656
8	0x3e68f39f	0.22749184
9	0x3e9788ce	0.2959656
10	0x3e4079f7	0.18796526
11	0x3e426e9b	0.18987505
12	0x3e2ef4ab	0.17085521
13	0x3e33a149	0.17541994
14	0x3e041912	0.12900189
15	0x3e1ed571	0.15511109
16	0x3e7e9719	0.24862327
17	0x3e56dd91	0.20982958
18	0x3e33067e	0.17482945
19	0x3e1edf14	0.15514785
20	0x3e471368	0.19440997
21	0x3e730ce6	0.23735389
22	0x3e09a89d	0.13443227
23	0x3e7aa939	0.24478616
24	0x3e2e3065	0.17010649
25	0x3e185cb9	0.14879121
26	0x3e45955d	0.19295259
27	0x3e629479	0.2212695
28	0x3e4e9211	0.20172907
29	0x3e416e03	0.18889622
30	0x3e59fe76	0.21288475
31	0x3e8d0f81	0.2755089

bns.0.weight f4 [32]
0	0x3db00b2e	0.08595882
1	0x3ebb109f	0.36536118
2	0x3eea6630	0.45781088
3	0x3ecdf63c	0.40226924
4	0x3e891336	0.2677247
5	0x3ec0d90d	0.37665597
6	0x3ea4988a	0.32147628
7	0x3eba76d9	0.364188
8	0x3f276c2f	0.6539945
9	0x3eecb5f4	0.4623257
10	0x3ee0bce8	0.43894124
11	0x3efed029	0.4976819
12	0x3ed0e334	0.40798342
13	0x3ef2be0e	0.47410625
14	0x3dc91beb	0.09819778
15	0x3eda946f	0.4269137
16	0x3d81f2f1	0.063451655
17	0x3ec91b47	0.39278623
18	0x3d42ba44	0.047540918
19	0x3e9b6a1a	0.30354387
20	0x3e94f445	0.29092613
21	0x3ec96d74	0.3934132
22	0x3eb6779a	0.35638124
23	0x3ee3dfce	0.44506687
24	0x3eec3cbd	0.4614009
25	0x3f84bc8f	1.0370044
26	0x3ee60f52	0.44933563
27	0x3ec60b1f	0.3868036
28	0x3d6ca44e	0.05777388
29	0x3eb3a47e	0.35086435
30	0x3eea6656	0.457812
31	0x3eb77136	0.3582856

bns.0.bias f4 [32]
0	0x3cdb47f5	0.02676771
1	0x3cd9a3d7	0.026567383
2	0x3d3aaf2d	0.045577217
3	0x3c8a5bfa	0.016889561
4	0xbb9eac00	-0.0048422813
5	0x3c98ea01	0.01866627
6	0x3d10023f	0.035158392
7	0xbd661484	-0.05617191
8	0x3df5ad7a	0.11995979
9	0x3da15474	0.07877436
10	0xbcfe8d82	-0.031073336
11	0x3cdec856	0.027195137
12	0x3d49fbec	0.049312517
13	0x3c638164	0.01388583
14	0xbcbfdd9a	-0.023421098
15	0xbcb359d3	-0.021893417
16	0xbcd93538	-0.026514634
17	0xbb9b0d83	-0.0047318353
18	0x3ccac287	0.024750961
19	0x3ca7f216	0.020501178
20	0x3cad5474	0.021158434
21	0xbd074874	-0.03302808
22	0x3d41512d	0.047196556
23	0x3caa2ab3	0.020772314
24	0x3d126e5e	0.035749786
25	0x3e1ae628	0.1512686
26	0xbd62f284	-0.055407062
27	0x3d13d66d	0.036093164
28	0xbcdd1610	-0.02698806
29	0x3d91d0ac	0.07119879
30	0x3d5efb58	0.05443892
31	0x3d811385	0.06302551

bns.0.running_mean f4 [32]
0	0x00000004	6e-45
1	0x3dbb7721	0.091535814
2	0x3f76ea82	0.9645158
3	0x3cb0391a	0.021511603
4	0x3b9699da	0.0045959773
5	0x406f24c1	3.7366183
6	0x3ced2e12	0.028952632
7	0x3f448f34	0.7678101
8	0x3f014053	0.50488776
9	0x3f6dc51b	0.92878884
10	0x3f97dca0	1.1864204
11	0x3cd65ef4	0.026168324
12	0x4001b7dc	2.026847
13	0x3ce6ba8c	0.028165124
14	0x00000004	6e-45
15	0x3fd56e03	1.6674198
16	0x00000004	6e-45
17	0x3f99e54e	1.2023103
18	0x00000004	6e-45
19	0x3e2d1efc	0.16906351
20	0x3e5b8dde	0.21440837
21	0x40af6619	5.481213
22	0x3ef19d0f	0.4719014
23	0x3cb1b803	0.021694189
24	0x3e9bdafc	0.3044051
25	0x3d9d92f0	0.07694042
26	0x3e86fa6a	0.26362926
27	0x3e562b22	0.20914891
28	0x3b5fc005	0.0034141552
29	0x3fa2c157	1.2715253
30	0x3fa3a8e0	1.2785912
31	0x40472384	3.1115427

bns.0.running_var f4 [32]
0	0x00000004	6e-45
1	0x3eb0d219	0.34535292
2	0x3e794d47	0.24345885
3	0x3c0cea12	0.008600729
4	0x3bd0e522	0.006374971
5	0x40800cca	4.001561
6	0x3c9a84d3	0.018862164
7	0x3eb68627	0.35649225
8	0x3fbde274	1.4834733
9	0x3f59fa91	0.8514796
10	0x3ea9c7a9	0.3316014
11	0x3c4c53fc	0.012471195
12	0x40602575	3.5022862
13	0x3c6a11c4	0.014286462
14	0x00000004	6e-45
15	0x3f3bc84a	0.7335249
16	0x00000004	6e-45
17	0x3fa95adb	1.3230852
18	0x00000004	6e-45
19	0x3e47ac4e	0.19499323
20	0x3f433fef	0.7626943
21	0x413d7e0b	11.843272
22	0x3f142751	0.5787249
23	0x3c090bf8	0.00836467
24	0x3eeb0511	0.45902303
25	0x3da971d2	0.082736626
26	0x3ddf744f	0.10910856
27	0x3e8d176a	0.27556926
28	0x3cd422ad	0.025895441
29	0x3fa5042a	1.2891896
30	0x3fa661ef	1.2998637
31	0x406d0d5e	3.7039409

bns.1.weight f4 [32]
0	0x3ec05e25	0.37571827
1	0x3ee4ae8c	0.4466442
2	0x3ecdad08	0.40171075
3	0x3f0a5f52	0.540517
4	0x3ea930ce	0.33045048
5	0x3f01dfac	0.5073192
6	0x3ed2b057	0.41150162
7	0x3eecae58	0.46226764
8	0x3f036101	0.5131989
9	0x3f1ec7de	0.62023723
10	0x3e92b5e4	0.28654397
11	0x3ecb37ba	0.39690953
12	0x3f018ea1	0.5060826
13	0x3f0ab897	0.5418791
14	0x3ef6cbd4	0.48202384
15	0x3ee43b18	0.44576335
16	0x3ee9b022	0.4564219
17	0x3ef28874	0.4736973
18	0x3ec72ea5	0.38902774
19	0x3ea7913e	0.32727998
20	0x3ec5411e	0.38526243
21	0x3eac6cad	0.33676663
22	0x3f1b417e	0.6064681
23	0x3eb92bc5	0.36166206
24	0x3ebb68c9	0.36603382
25	0x3eb36d0b	0.3504413
26	0x3ea14d1c	0.31504142
27	0x3f0e60e7	0.5561661
28	0x3f023745	0.50865585
29	0x3eec97bc	0.46209514
30	0x3eb3018e	0.34962124
31	0x3ea62789	0.32452038
