pretrained_models/ENZYMES/epoch_20_CalcModel.pth (torch, 76257 bytes, 4 tensors)

MLP.0.weight f4 [96, 96]
0.034594186 0.02860615 0.003343146 -0.027203998 0.014474401 -0.004386444 0.0019964245 -0.016254729
0.03745095 -0.0012837148 -0.03799304 -0.031526398 0.046210308 -0.027227888 0.026611269 0.021027371
0.030725392 -0.06101961 -0.017627874 0.03360242 0.08488079 0.022196377 0.03451266 -0.043770898
0.008720586 0.011392973 -0.00022847476 -0.0006608713 -0.029739713 0.00581476 -0.020834515 -0.016424404
-0.044618864 0.00253046 0.0203394 -0.07500117 -0.051530264 -0.052319236 -0.020262009 -0.04139512
0.008952417 -0.036526676 -0.002234969 -0.055329226 0.007988915 -0.03789021 -0.045700476 -0.002329566
-0.028836615 0.04721451 -0.03650572 -0.022786574 -0.037203632 0.031882305 0.03545294 -0.008092421
-0.03254922 -0.008828864 0.006999475 0.0011565349 0.006936672 -0.04189779 -0.0052969293 -0.06414487
-0.0073736105 -0.047275934 -0.029681377 0.0014052853 -0.016952079 0.07082752 0.05784117 -0.03607196
0.047811102 0.043611012 -0.055983834 -0.05821561 0.12954238 0.021655746 -0.009519254 0.015856544
0.052137934 -0.017233647 0.044111975 -0.005078458 0.0018245662 0.005702695 -0.040309194 -0.0447413
-0.028180797 -0.023227092 -0.0727502 -0.001499373 0.031585958 0.011483274 0.03594316 0.014467418
0.013832684 0.008977306 0.04963721 -0.00037034915 0.0021200948 -0.049805272 -0.034973316 0.033998296
0.014019536 0.0018449832 0.01085481 -0.06516242 -0.0056822714 -0.032824554 0.04565882 0.0049549057
-0.008734179 0.07497518 0.0013258999 0.07663982 0.056204837 0.011716861 0.00934222 0.049503602
0.05927203 -0.042854454 0.001035882 0.0015844294 -0.047280215 0.0020734493 0.0074219713 -0.042844202
-0.021420607 0.048170134 -0.021357186 0.053726934 0.06995278 0.016458582 -0.03211675 0.061738737
0.058645666 -0.061437726 -0.02800116 0.012800792 -0.027995756 -0.077102885 0.045314185 -0.050990775
-0.014778791 -0.03706372 -0.013046405 -0.021849087 0.0070382464 -0.025064213 0.09825916 0.03733711
0.06683641 0.010182496 -0.0006177704 0.030297136 -0.006418498 0.057692867 -0.08615135 0.058029335
0.09041327 0.01460137 -0.029306244 0.0006641619 -0.0313539 0.043527637 -0.018333055 -0.06627934
-0.055707995 0.022709439 0.10433858 0.04887698 -0.047275163 -0.026293915 -0.048751988 0.035299495
-0.06529634 0.07873028 -0.05446866 0.05228465 -0.08306454 -0.033218537 -0.0051709926 -0.039710876
-0.037921727 0.073983036 0.079542205 -0.059838973 0.03639937 -0.088004544 -0.01909638 0.0004873752
-0.009495551 -0.0069045397 0.046079535 0.011699355 0.006443938 -0.008142251 0.0010213536 0.034622736
0.041005906 0.0030146153 -0.034311913 -0.0066795745 0.040156666 0.023312032 0.005425084 -0.018134877
-0.01083486 -0.012945411 -0.008259962 -0.016486116 0.019688372 -0.004303838 0.000937461 0.008677042
0.008994265 -0.0005592888 -0.001356677 -0.00086176523 0.04337246 -0.0009965597 -0.0011487546 -0.050095454
-0.0023729058 0.037811358 -0.029669188 -0.06463094 -0.0065163313 -0.043921724 0.020865044 -0.05864561
-0.034736764 -0.016023826 0.03488732 -0.0024283924 0.03579454 -0.0256587 -0.0019815038 -0.019977644
0.015414782 0.075516716 -0.015714772 0.00122241 0.016957246 0.00690653 -0.008578111 0.051578503
0.0018023935 -0.015319681 -0.031536598 -0.055633195 0.04871681 -0.03563607 -0.0018807917 -0.043057486
00000000: a2b2 0d3d 7257 ea3c af18 5b3b ebda debc
00000010: 0a26 6d3c 29bc 8fbb 72d6 023b a328 85bc
00000020: 2b66 193d 5242 a8ba 979e 1bbd d321 01bd
00000030: 0547 3d3d 050d dfbc e0ff d93c 9841 ac3c
00000040: d1b3 fb3c b3ef 79bd 5568 90bc b1a2 093d
00000050: fbd5 ad3d 2dd5 b53c 265d 0d3d 1d49 33bd
00000060: cae0 0e3c 98a9 3a3c ba92 6fb9 523e 2dba
00000070: b3a0 f3bc be89 be3b 25ad aabc 798c 86bc
00000080: 45c2 36bd 13d6 253b d09e a63c 379a 99bd
00000090: 6611 53bd b24c 56bd 83fc a5bc ee8d 29bd
000000a0: 29ad 123c ff9c 15bd 8f78 12bb e6a0 62bd
000000b0: f0e3 023c c432 1bbd 6c30 3bbd a2ab 18bb
000000c0: c43a ecbc 0164 413d 0687 15bd e9aa babc
000000d0: d662 18bd 0597 023d 1a37 113d 1396 04bc
000000e0: 5552 05bd f1a6 10bc da5b e53b df96 973a
000000f0: 064d e33b 049d 2bbd dd91 adbb 635e 83bd
00000100: 549e f1bb 69a4 41bd 5c26 f3bc 8d31 b83a
00000110: 16df 8abc 050e 913d ddea 6c3d 31c0 13bd
00000120: 93d5 433d 76a1 323d 4e4f 65bd 7e73 6ebd
00000130: c2a6 043e 6467 b13c a5f6 1bbc 95e5 813c
00000140: 968e 553d 942d 8dbc c2ae 343d 3269 a6bb
00000150: 4826 ef3a acdd ba3b 411b 25bd a742 37bd
00000160: 6adb e6bc be46 bebc 0ffe 94bd 9c86 c4ba
00000170: 4760 013d 5824 3c3c 2339 133d c008 6d3c
00000180: 7ba2 623c 8d15 133c 6350 4b3d 6c2b c2b9
00000190: 4af1 0a3b 9d00 4cbd 2e40 0fbd cc41 0b3d
000001a0: 32b2 653c 5dd3 f13a 5fd8 313c e073 85bd
000001b0: 5932 babb 0a73 06bd be04 3b3d c35c a23b
000001c0: cd19 0fbc 968c 993d d1c9 ad3a 57f5 9c3d
000001d0: 0b37 663d 14f8 3f3c 1c10 193c 4ac4 4a3d
000001e0: 3ac7 723d 2788 2fbd 6fc6 873a a1ac cf3a
000001f0: e6a8 41bd b5e2 073b 0234 f33b 677d 2fbd
00000200: 457a afbc 0c4e 453d 44f5 aebc c610 5c3d
00000210: 6743 8f3d 26d4 863c da8c 03bd c2e1 7c3d
00000220: 7036 703d 20a6 7bbd b062 e5bc 6aba 513c
00000230: 5b57 e5bc 1ee8 9dbd 5e9b 393d b4db 50bd
00000240: be22 72bc 21d0 17bd 97c0 55bc dbfc b2bc
00000250: 17a1 e63b 7753 cdbc 193c c93d ccee 183d
00000260: 87e1 883d 7cd4 263c dff1 21ba b331 f83c
00000270: 4352 d2bb 5b4f 6c3d 1e70 b0bd 2bb0 6d3d
00000280: 982a b93d 963a 6f3c a613 f0bc 271b 2e3a
00000290: f26c 00bd 094a 323d 342f 96bc 76bd 87bd
000002a0: 112e 64bd 2509 ba3c 77af d53d 3a33 483d
000002b0: 9aa3 41bd 5666 d7bc 2ab0 47bd 3496 103d
000002c0: 16ba 85bd 573d a13d 881a 5fbd 6e28 563d
000002d0: be1d aabd 2910 08bd 6e71 a9bb dfa7 22bd
000002e0: d053 1bbd 6b84 973d 06e7 a23d b619 75bd
000002f0: 8117 153d ba3b b4bd 0370 9cbc 6486 ff39
00000300: 3a93 1bbc 7a3f e2bb e5bd 3c3d a7ae 3f3c
00000310: ab27 d33b 1367 05bc f1de 853a 92d0 0d3d
00000320: cff5 273d da90 453b a68a 0cbd 55e0 dabb
00000330: 517b 243d e0f8 be3c e7c4 b13b 988f 94bc
00000340: b284 31bc fd18 54bc cb54 07bc e40d 87bc
00000350: 8249 a13c 3607 8dbb f1bf 753a 272a 0e3c
00000360: af5c 133c 3c9d 12ba 87d2 b1ba 16e8 61ba
00000370: 52a7 313d ff9e 82ba cf91 96ba e430 4dbd
00000380: c182 1bbb 15e0 1a3d cc0c f3bc 3a5d 84bd
00000390: f386 d5bb 44e7 33bd 2bed aa3c 6136 70bd
000003a0: 2348 0ebd 6644 83bc 02e6 0e3d aa25 1fbb
000003b0: 4c9d 123d 3232 d2bc 1edc 01bb 28a8 a3bc
000003c0: 488e 7c3c 82a8 9a3d 44bc 80bc 4639 a03a
000003d0: ece9 8a3c 2c50 e23b 358b 0cbc fb43 533d
000003e0: 4a3e ec3a 66ff 7abc 852c 01bd a2df 63bd
000003f0: 478b 473d 21f7 11bd e684 f6ba 0c5d 30bd

MLP.0.bias f4 [96]
-0.031986766 -0.073274896 -0.11024721 -0.058203697 -0.07319622 0.09440091 -0.15195061 -0.04352285
0.04540028 -0.2373381 -0.079356864 -0.050097905 -0.07716668 -0.11735396 -0.050100982 -0.04346076
-0.030510008 0.029774036 -0.055608433 -0.12849613 -0.2934563 0.025171278 -0.02922586 -0.06114568
-0.11502211 -0.08733227 -0.13740456 -0.06461963 0.025379665 -0.09614571 0.060446516 -0.027613843
-0.0052736984 -0.0618869 -0.12438884 -0.06586689 -0.03348509 0.0067564384 -0.08788323 0.049647216
-0.095399596 0.003595933 -0.041779954 -0.0016746235 -0.11392363 -0.053780366 -0.03758545 0.036510143
-0.08498653 -0.102403305 0.01111392 -0.010626579 -6.166936e-05 -0.10761162 -0.089032605 -0.039940648
0.029831477 -0.085695975 -0.08772851 -0.033627756 -0.061222035 0.033046395 -0.02375203 0.03260114
-0.118406154 0.03500425 0.021633526 0.0023139585 0.01979829 -0.06986594 -0.022651995 -0.20182005
-0.07074158 -0.019860927 -0.0528696 -0.09834149 0.113435894 -0.05048077 -0.044875417 -0.101522766
0.0044560228 -0.048691705 -0.07353874 -0.13407518 -0.10321762 -0.15166193 -0.0024875796 -0.10033697
0.0026791657 -0.034253333 -0.15801793 -0.0173989 -0.11772451 -0.04247118 -0.12350928 0.001740296
00000000: 8e04 03bd 2611 96bd 4ac9 e1bd 0067 6ebd
00000010: e6e7 95bd 4455 c13d f198 1bbe 0445 32bd
00000020: a5f5 393d c208 73be da85 a2bd 7633 4dbd
00000030: 9009 9ebd 4657 f0bd b036 4dbd e903 32bd
00000040: 20f0 f9bc aee8 f33c abc5 63bd 7d94 03be
00000050: e73f 96be ff33 ce3c 126b efbc e473 7abd
00000060: b690 ebbd 43db b2bd c8b3 0cbe 4c57 84bd
00000070: 04e9 cf3c 0be8 c4bd c496 773d 6d36 e2bc
00000080: fdce acbb 1e7d 7dbd 93bf febd 38e5 86bd
00000090: a927 09bd 1d65 dd3b 1ffc b3bd e15a 4b3d
000000a0: dd60 c3bd bfa9 6b3b 7521 2bbd 0a7f dbba
000000b0: cb50 e9bd cd48 5cbd 33f3 19bd a98b 153d
000000c0: 6b0d aebd d3b8 d1bd 2917 363c 1a1b 2ebc
000000d0: 7c54 81b8 7b63 dcbd ba56 b6bd ce98 23bd
000000e0: 2461 f43c 5f81 afbd 01ab b3bd 42bd 09bd
000000f0: f5c3 7abd a85b 073d 9e93 c2bc c688 053d
00000100: ed7e f2bd 9e60 0f3d cb38 b13c c8a5 173b
00000110: 0630 a23c e015 8fbd ad90 b9bc eaa9 4ebe
00000120: f6e0 90bd 62b3 a2bc cb8d 58bd 4367 c9bd
00000130: 1451 e83d edc4 4ebd 49cf 37bd 2beb cfbd
00000140: d403 923b f470 47bd 7b9b 96bd 014b 09be
00000150: c263 d3bd 444d 1bbe a906 23bb 787d cdbd
00000160: f194 2f3b 394d 0cbd 74cf 21be 2388 8ebc
00000170: 8c19 f1bd 43f6 2dbd 6ff2 fcbd a51a e43a

MLP.2.weight f4 [96, 96]
0.016698403 0.011109812 0.0085422285 0.022165537 -0.010370753 0.012561557 0.0054307915 0.014856518
0.0027769972 0.015804522 -0.0047509447 0.0060384083 0.0127006965 0.010934978 0.00815553 -0.010431961
0.00400505 0.023292908 0.019864274 0.015036648 -0.18372266 -0.0032634693 0.014043438 0.010849807
0.0045291823 0.007878605 -0.13771303 -0.03630749 -0.016223691 0.014404116 0.012020776 -0.00046523951
-0.0011214038 0.0046961745 -0.002827986 0.001766411 -0.008446143 0.017474791 -0.005599731 -0.01167379
0.002992676 -0.0006568158 0.008099506 0.0001573493 0.002510665 0.0025706254 -0.071854025 0.005117379
-0.020140104 -0.0017651055 -0.0017818798 -0.008761292 0.0042545097 0.012606721 0.002684318 -0.00011772255
0.006578214 -0.0032720387 0.00241582 0.009458366 0.04909815 0.02114354 0.01215237 0.0028043694
-0.020668946 0.014700375 0.0047690873 -0.0027641687 0.0083686765 0.01075071 0.020980218 0.001743496
0.013628733 -0.0011000972 0.00415948 0.013141859 -0.0028093497 0.0086118635 0.0043064547 -0.002537275
-0.005516156 -0.0034282363 0.0037615837 -0.010369299 0.0041823057 -0.06899761 0.018212158 -0.047842
-0.028165622 0.009735506 -0.013997634 0.013069125 0.011273261 0.0086018145 0.022888346 -0.004285618
0.0015674346 0.0014239247 -0.013997443 -0.00016476815 -0.019691957 -0.010547414 -0.012531418 0.01990848
-0.00010476169 -0.02755488 -0.0102417255 0.013990434 -0.041317437 0.035840336 -0.013326874 -0.018034672
0.0037841825 -0.018005466 0.009661584 0.0131745245 0.011256223 0.020668108 -0.023801608 -0.006215096
-0.005057232 -0.01532292 0.0043672305 0.03481237 -0.013347933 -0.05916961 0.042017598 -0.02829004
-0.009054163 -0.0048985565 -0.014091601 -0.0051363986 0.008970523 0.011993755 0.018637063 0.0054350407
-0.0046963403 -0.0049960385 -0.0029772108 -0.03896756 0.0002012722 -0.012703021 0.008228655 0.0130211115
0.012392439 0.0005435981 -0.0050299466 0.003393258 0.013131879 0.011241668 0.01229928 0.0016473272
0.020708764 0.018097844 -0.0059573045 -0.014259125 -0.017424444 0.024914926 -0.017491452 -0.026188875
0.009612207 0.034697495 -0.0011693034 0.02430773 -0.0047068223 -0.013021725 0.013083563 0.011642464
-0.006637117 -0.003575232 -0.015334165 -0.00068517006 0.008719746 0.018202795 0.0006578207 0.00993121
-0.025796235 0.0029020587 0.024054598 -0.0084288465 0.012931148 -0.011325007 -0.005442411 0.008545114
0.021865778 0.0018649396 0.0005406215 0.0020475197 -0.0014860345 0.0051827277 -0.0069294004 -0.019148527
0.008926681 -0.010528671 -0.002324026 -0.014488271 -0.012572374 0.014976178 -0.0059895334 0.0022385512
-0.014263751 0.00044914839 0.0034840917 -0.0041663907 -0.027920874 0.0002786945 -0.000815118 -0.011760095
-0.0062696 -0.0043667546 0.04080796 -0.004089686 0.0049051153 0.01770848 0.0018014445 -0.007750208
-0.015178839 -0.0017228704 0.0032849521 0.0053446754 -0.0065647457 -0.010266781 -0.011709288 -0.003260489
-0.013528611 0.0037698573 -0.002181701 0.0058110165 -0.0008027548 0.009253311 0.00043148937 0.0115671065
-0.009876354 0.010962314 -0.011299145 -0.023373121 0.020563336 -0.0156178875 0.021665126 0.0049779853
0.0051733316 -0.004500713 -0.00040109162 -0.009899122 0.008797884 0.006628766 0.012173432 -0.0041186432
0.0031118684 -0.0076208073 -0.033075467 0.015070629 -0.031000212 0.0067744567 -0.021863049 -0.025303833
00000000: 17cb 883c ee05 363c b4f4 0b3c 8094 b53c
00000010: 17ea 29bc fdce 4d3c c8f4 b13b c168 733c
00000020: 48fe 353b 7c78 813c d0ad 9bbb d7dd c53b
00000030: 9516 503c 9f28 333c c69e 053c d1ea 2abc
00000040: cb3c 833b c5d0 be3c 67ba a23c 465c 763c
00000050: cb21 3cbe eedf 55bb 7316 663c 64c3 313c
00000060: 8969 943b 4415 013c a504 0dbe 2ab7 14bd
00000070: 8ce7 84bc 3eff 6b3c caf2 443c 64eb f3b9
00000080: 11fc 92ba 5ee2 993b bb55 39bb eb86 e73a
00000090: b161 0abc 4b27 8f3c f37d b7bb 6d43 3fbc
000000a0: c620 443b 2a2e 2cba cab3 043c 22fe 2439
000000b0: f889 243b f077 283b 3428 93bd b0af a73b
000000c0: dcfc a4bc 1d5b e7ba f78d e9ba 868b 0fbc
000000d0: 6a69 8b3b 6c8c 4e3c 62eb 2f3b d0e1 f6b8
000000e0: 0f8e d73b b36f 56bb bc52 1e3b 43f7 1a3c
000000f0: 241b 493d 3835 ad3c bc1a 473c 83c9 373b
00000100: ec51 a9bc d7d9 703c 0146 9c3b 0e27 35bb
00000110: c61c 093c bf23 303c b5de ab3c 0586 e43a
00000120: 0d4b 5f3c 2331 90ba 3f4c 883b f450 573c
00000130: 111d 38bb c618 0d3c 291d 8d3b 6948 26bb
00000140: dfc0 b4bb 43ac 60bb e784 763b fee3 29bc
00000150: b90b 893b 9e4e 8dbd aa31 953c f9f5 43bd
00000160: 97bb e6bc ac81 1f3c 5556 65bc e21f 563c
00000170: 7cb3 383c a0ee 0c3c 5780 bb3c 5f6e 8cbb
00000180: 6172 cd3a fca2 ba3a 8855 65bc 9dc5 2cb9
00000190: 0751 a1bc 10cf 2cbc 9450 4dbc 1c17 a33c
000001a0: 81b3 dbb8 c6ba e1bc e9cc 27bc 2238 653c
000001b0: 793c 29bd 51cd 123d f658 5abc 73bd 93bc
000001c0: 0c00 783b 3380 93bc 9f4b 1e3c f6d9 573c
000001d0: 056c 383c 2a50 a93c 97fb c2bc 01a8 cbbb
000001e0: 23b7 a5bb fc0c 7bbc fc1a 8f3b 6a97 0e3d
000001f0: 4ab1 5abc d55b 72bd a51a 2c3d 84c0 e7bc
00000200: e957 14bc 1284 a0bb 75e0 66bc 3c4f a8bb
00000210: 1af9 123c 7481 443c c1ac 983c 6d18 b23b
00000220: c2e3 99bb cfb5 a3bb 4f1d 43bb 739c 1fbd
00000230: 980c 5339 5520 50bc 7bd1 063c 8056 553c
00000240: a809 4b3c 4080 0e3a 40d2 a4bb 6c61 5e3b
00000250: 1827 573c f92e 383c eb82 493c 21eb d73a
00000260: 6da5 a93c ee41 943c 7e35 c3bb 1b9f 69bc
00000270: b5bd 8ebc 631a cc3c 3c4a 8fbc 0d8a d6bc
00000280: 857c 1d3c f61e 0e3d 5043 99ba 0121 c73c
00000290: b03b 9abb 1359 55bc 715c 563c 09c0 3e3c
000002a0: 2c7c d9bb 714e 6abb 263c 7bbc fc9c 33ba
000002b0: 44dd 0e3c 071e 953c 9a71 2c3a 84b6 223c
000002c0: a052 d3bc 7730 3e3b 260e c53c 2519 0abc
000002d0: 2add 533c 868c 39bc 4156 b2bb ce00 0c3c
000002e0: dc1f b33c fd70 f43a 7fb8 0d3a ae2f 063b
000002f0: 0bc7 c2ba dfd3 a93b 0610 e3bb 5fdd 9cbc
00000300: 3741 123c 7280 2cbc b04e 18bb 3760 6dbc
00000310: 5cfc 4dbc a55e 753c d943 c4bb a8b4 123b
00000320: 82b2 69bc ad7b eb39 5c55 643b 3886 88bb
00000330: 51ba e4bc be1d 9239 a5ad 55ba 6aad 40bc
00000340: 3771 cdbb fe16 8fbb 3f26 273d c602 86bb
00000350: 17bb a03b 6011 913c 721e ec3a 75f5 fdbb
00000360: aab0 78bc f0d1 e1ba 5a48 573b 6322 af3b
00000370: 141d d7bb 0036 28bc 50d8 3fbc eead 55bb
00000380: 1ba7 5dbc b60f 773b defa 0ebb 576a be3b
00000390: f66f 52ba 339b 173c 8639 e239 f683 3d3c
000003a0: 6ed0 21bc 479b 333c 0d20 39bc fd78 bfbc
000003b0: 7174 a83c 2be2 7fbc 107b b13c 5e1e a33b
000003c0: 0d85 a93b b87a 93bb 9b49 d2b9 ed2f 22bc
000003d0: 0025 103c 1f36 d93b 1373 473c aff5 86bb
000003e0: 7df0 4b3b f7b7 f9bb 247a 07bd cdea 763c
000003f0: 28f4 fdbc 43fc dd3b 231a b3bc fc49 cfbc

MLP.2.bias f4 [96]
0.014261603 -0.0060712365 -0.007936386 -0.012254325 -0.0010554219 -0.0013756307 -0.009296719 -0.0059513245
-0.0131092565 -0.00023831335 0.0127239665 -0.019812321 0.0035016167 -0.009039002 -0.00473962 0.008090159
-0.008735313 -0.005059074 -0.0045563225 0.0029809966 0.0026620764 -0.01750396 0.004273575 -0.0034409447
-0.00036741822 -0.008252912 -0.00013968747 -0.00052823755 -0.0119980145 -0.000106189225 -0.000118220545 0.0066653504
-0.012934589 -0.002684342 0.0051928083 -0.018471183 -0.013067117 -0.018769039 -0.01211905 -0.009984604
0.009785684 -0.024202175 0.0006823883 -0.01447837 -0.0023076276 -0.011565803 -0.0035398027 -0.013541659
-0.013644711 0.0005608365 -0.03447703 -0.003709791 -0.019215493 -0.010146574 -0.0008674945 -0.0014189931
-0.00039445903 -0.010106613 -0.03209575 -0.016958022 -0.009598109 -0.010500576 -0.0028368142 -0.017455688
0.006592476 -0.019966582 -0.01625497 -0.021266242 -0.08660967 0.008094957 -0.03346453 -0.042082965
-0.0030230454 0.010078533 -0.014093069 -0.04371685 -0.037101578 -0.027833803 -0.036407277 0.0015173611
-0.012858243 -0.029970674 -0.06776084 -0.00039187417 -0.05577063 -0.063368306 -0.05780239 -0.028218942
-0.046080798 -0.028860928 -0.046782497 -0.01285111 0.01955911 -0.059446163 0.016020922 -0.01913515
00000000: 80a9 693c 39f1 c6bb 9e07 02bc 5dc6 48bc
00000010: 1556 8aba 824e b4ba 4451 18bc 5403 c3bb
00000020: 35c8 56bc c1e3 79b9 2f78 503c 734d a2bc
00000030: 617b 653b 5218 14bc d04e 9bbb 968c 043c
00000040: 8f1e 0fbc 97c6 a5bb 344d 95bb d35c 433b
00000050: 3b76 2e3b 7764 8fbc 5809 8c3b 7981 61bb
00000060: 0aa2 c0b9 3937 07bc 1279 12b9 6c79 0aba
00000070: 5293 44bc e8b1 deb8 2ced f7b8 0369 da3b
00000080: 99eb 53bc c9eb 2fbb 6f28 aa3b e150 97bc
00000090: 7617 56bc 87c1 99bc fb8e 46bc 7796 23bc
000000a0: 2254 203c a443 c6bc 4ee2 323a af36 6dbc
000000b0: 913b 17bb 7e7e 3dbc 09fc 67bb d6dd 5dbc
000000c0: 118e 5fbc 1a05 133a c937 0dbd f71f 73bb
000000d0: cf69 9dbc d13d 26bc 9268 63ba 82fd b9ba
000000e0: 65cf ceb9 3596 25bc d576 03bd 8deb 8abc
000000f0: 6341 1dbc 9c0a 2cbc d8e9 39bb 3bff 8ebc
00000100: b205 d83b f590 a3bc 2529 85bc 8b36 aebc
00000110: 6960 b1bd b6a0 043c 1a12 09bd 305f 2cbd
00000120: 491e 46bb 6e20 253c 9ee6 66bc 7110 33bd
00000130: d3f7 17bd b703 e4bc cc1f 15bd 31e2 c63a
00000140: 61ab 52bc 0f85 f5bc 32c6 8abd 7674 cdb9
00000150: be6f 64bd 3ec7 81bd 33c2 6cbd 692b e7bc
00000160: 38bf 3cbd c16d ecbc 019f 3fbd 768d 52bc
00000170: 6d3a a03c d27d 73bd 4f3e 833c 51c1 9cbc
