pretrained_models/ENZYMES/NodeCLModel.pth (torch, 34891 bytes, 24 tensors)

convList.0.nn.0.weight f4 [32, 21]
00000000: 2e29 a4bd 6725 e1bd 4058 22bc a222 14be
00000010: eaed 843d d3e1 13be 9797 34be ef5e 0c3e
00000020: acf2 1fbe 5f3d 593e 5972 f3bd 1081 fcbd
00000030: 60e6 e93c 2db9 253e b048 89bc 385b 51bd
00000040: caa5 dabd cade e43d 3d36 f9bd 5a4f de3d
00000050: 496b 433e 912a 2d3e 9464 e0bd 8c46 043d
00000060: ac04 57bd ce93 e73d b5c9 3f3e a115 33be
00000070: 80da 29be 025a 32be 7137 383e 84d4 a1bd
00000080: 7823 44be 241e 6f3d 83ad 253e af73 173e
00000090: 5c09 27be 6724 4a3e 167e b33d d8d5 04be
000000a0: cce3 2cbe f9cd 2d3e 2cc0 0ebe e497 c1bd
000000b0: 6889 79bd e35e 463e 7e2b a43d e6bd b8bd
000000c0: 227a 0abe afe2 4c3e 002e a53b 8460 8dbd
000000d0: ecc6 793d b8cd e0bc 1533 313e 313c 303e
000000e0: 59d8 49be 74c1 2fbe c7aa 2cbe c74d 08be
000000f0: e833 03bd 1e70 823d 7437 0dbd 9c32 1abd
00000100: 376e 013e a4e8 0fbd 8a3d d53d 9f34 1f3e
00000110: ff59 fabd e8f0 0dbd 8c59 7fbd 353a 26be
00000120: 2f5b 3fbe c44f 89bd 1193 3c3e f9ea c2bd
00000130: b5a8 113e 1181 0b3e 1348 2b3e 24ff 383d
00000140: e04a 2dbd e08d fabd 9c9a e6bd 0070 fc38
00000150: d8f7 85bc 4c38 6d3d 31f9 293e f36e 583e
00000160: 38dd 0bbd 20c9 2abc af95 fcbd d419 3fbe
00000170: 9a02 19be 0e34 29be 20a9 85bd 0798 52be
00000180: 5012 f5bc 9c24 34bd f3fc 203e 2c03 063d
00000190: a4b8 773d 6e8b c73d 5e8a c23d 61dc 39be
000001a0: 975a 173e b1e9 063e ecc3 6d3d 6800 2abe
000001b0: cd85 543e e15f 4b3e c831 98bd 0ea4 d7bd
000001c0: de19 963d bb40 533e 1be5 0cbe 28c1 dcbd
000001d0: 6a40 e93d 0004 2139 3f3a 2b3e c2d4 d83d
000001e0: 1cf9 1cbe 709d 66bd 5d77 533e 8939 1e3e
000001f0: eafa 823d 27ac 4e3e 0071 31be a3f2 5abe
00000200: b097 0bbd 632e 29be 5a1c 3fbe fa22 dd3d
00000210: 6300 ddbd 579b 4cbe ff57 523e 238b fabd
00000220: 420f d83d db0e 193e 00d6 a7bc 364b a2bd
00000230: 633f 5ebe 36e7 febd e009 41bd 74d8 083d
00000240: d770 483e c531 1e3e 7f5d 233e a299 dcbd
00000250: d898 3cbe 99f1 4ebe d4d7 7abd 6ba7 0b3e
00000260: 264e de3d e47a 693d cc12 3d3d 713f 083e
00000270: dac1 af3d e05b 1dbd bcfc 553d 0a8d cc3d
00000280: 8840 fd3c f05d edbc 0dbf ccbd d60e 91bd
00000290: 2aec 953d 9a50 d83d 2777 413e 869d 3cbe
000002a0: 7ff0 513e 45fc 483e a79a 59be dbe6 463e
000002b0: 6736 4d3e 041c a9bd c22e c43d e4f8 4fbd
000002c0: e387 f6bd 4d99 3abe 84db 083d c094 72bd
000002d0: 4e8f 9fbd 9419 78bd 4ccb 693d 11c7 103e
000002e0: 19b3 1abe 1145 09be 40ff f7bb 5caf 02be
000002f0: e6e2 37be 1957 333e 6c87 adbd 40b7 293b
00000300: 6206 4abe 7849 22bd ce13 9cbd 473e 093e
00000310: 5f35 1e3e 1c40 07be de55 95bd 9a73 36be
00000320: 3864 a3bc a2b0 22be f46a 353d 2ea6 a43d
00000330: f1a1 473e d2a5 b43d 7e69 bdbd 541c 793d
00000340: c713 c8bd 64f7 12bd 10f1 d83c 4286 8bbd
00000350: 9c45 403d a25c a9bd cb80 013e 5adf e13d
00000360: 9597 5dbe 0a9a a13d ead3 f43d b08f 01bc
00000370: 3685 d83d 2855 c0bc 0a69 e63d 9005 65bc
00000380: 88fa 00be 8bb2 f4bd 9561 52be 70eb 13bc
00000390: 2011 efbc ed62 5c3e 5854 8cbc c8df 74bd
000003a0: e995 e0bd 001b ac3c 0ec8 43be 17f2 4bbe
000003b0: 0ba8 553e 9fe0 263e 17b2 4e3e c9f7 073e
000003c0: 64d2 783d d438 34be aeda 8e3d 678d 213e
000003d0: 00d3 9eba 73e9 3a3e 1244 b8bd b213 afbd
000003e0: e8d2 4abd 082c ee3c 5826 c23c e1c0 363e
000003f0: a75d 173e ac48 243d b4e4 573d 207f 373c
-0.08015667 -0.10993462 -0.009908736 -0.14466336 0.06490691 -0.14441614 -0.17635952 0.1370809
-0.15619916 0.21214817 -0.118870445 -0.12329304 0.028552234 0.1618392 -0.016758293 -0.051112384
-0.10676153 0.11175306 -0.12168548 0.10854979 0.19083895 0.16910769 -0.10956684 0.03229384
-0.05249469 0.113074884 0.18729289 -0.1748872 -0.16587257 -0.17417148 0.17989899 -0.07901862
-0.19154155 0.058378354 0.1617947 0.14790224 -0.16312164 0.19740449 0.08764283 -0.129722
-0.16883773 0.16973104 -0.13940495 -0.09452799 -0.060922056 0.19372134 0.08016108 -0.09020595
-0.13523152 0.20008348 0.005040884 -0.069031745 0.060980722 -0.027441844 0.17304642 0.17210461
-0.19711436 -0.1716364 -0.16862021 -0.1331092 -0.032031924 0.06369041 -0.034476712 -0.03764592
0.126397 -0.035133973 0.10412128 0.15547417 -0.12224197 -0.034653574 -0.062341258 -0.16233142
-0.18687128 -0.06704667 0.18415476 -0.09517474 0.14224513 0.13623454 0.16726713 0.045165196
-0.042307734 -0.12234092 -0.11259958 0.00012037158 -0.016353533 0.057915017 0.16598965 0.21136074
-0.034146518 -0.0104239285 -0.123332374 -0.18662196 -0.14942399 -0.16523764 -0.06526399 -0.20565806
-0.029915959 -0.043980226 0.15721492 0.03271787 0.06047882 0.09743391 0.09499048 -0.18150474
0.14780651 0.13175084 0.058048174 -0.16601717 0.20754166 0.19860794 -0.0743137 -0.10529338
0.073291525 0.20630161 -0.13759272 -0.10779029 0.11389239 0.00015355647 0.16721438 0.10587455
-0.15329403 -0.056302488 0.20651002 0.15451635 0.06395514 0.20182858 -0.17328262 -0.21381621
-0.034080207 -0.16521601 -0.18663159 0.10797687 -0.107910894 -0.19981132 0.2054138 -0.122335695
0.10549785 0.14947073 -0.020487785 -0.079245016 -0.21703868 -0.12446444 -0.04712856 0.03340955
0.19574295 0.15448673 0.15953635 -0.10771491 -0.1841768 -0.2020935 -0.061240986 0.13638084
0.108547494 0.057001963 0.046160504 0.13305451 0.08581896 -0.038417697 0.05224298 0.099878386
0.03091456 -0.028975457 -0.099973775 -0.07082908 0.07320435 0.105622485 0.1889311 -0.18419465
0.20501898 0.19627483 -0.21250401 0.19424002 0.20040284 -0.08257297 0.09579231 -0.05077447
-0.12037637 -0.18222542 0.03341247 -0.05922389 -0.07791005 -0.06057127 0.057078645 0.14138438
-0.15107383 -0.13405253 -0.00756827 -0.12762207 -0.17957649 0.17513694 -0.08473095 0.002589658
-0.19728997 -0.039620847 -0.07620965 0.13402663 0.15450047 -0.1320805 -0.072917685 -0.17817536
-0.019945249 -0.15887693 0.04429145 0.08039509 0.1949537 0.0882069 -0.09248637 0.06081803
-0.09769397 -0.03588046 0.026482135 -0.06812717 0.046941385 -0.082696214 0.12646787 0.11028929
-0.21639855 0.07890709 0.11954482 -0.007907793 0.10572283 -0.023478106 0.11250503 -0.013978377
-0.1259557 -0.11948117 -0.20545037 -0.009028301 -0.02918297 0.21522112 -0.017130062 -0.059783727
-0.10966093 0.021008968 -0.19119284 -0.19916569 0.20864885 0.16296624 0.20185123 0.13278116
0.06074752 -0.17599803 0.069753036 0.15776597 -0.0012117326 0.18253116 -0.089973584 -0.085486785
-0.049517542 0.02907373 0.023699924 0.17847015 0.1478182 0.040108368 0.052708343 0.011199743

convList.0.nn.0.bias f4 [32]
00000000: e5e0 153e 3caf 81bd 7257 bf3d 8687 d73d
00000010: accd ccbd 3a7a 88bd b0a9 4f3c 0495 283d
00000020: 9229 b3bd 00b9 83ba 8907 2b3e a04d bc3b
00000030: 9867 d2bc 641f 683d c842 d23c 78c9 2fbe
00000040: c449 24bd 827f bb3d 42b6 c23d 6c91 93bd
00000050: a0b8 3dbd 5695 0cbe 1ae4 803d 72b2 ff3d
00000060: b67b 953d 4923 203e cd22 4ebe 70da 003d
00000070: f78c 04be bcee 2c3d ff75 193e 0130 033e
0.14636572 -0.063322514 0.09342851 0.10523896 -0.10000166 -0.06663938 0.012674734 0.041157737
-0.08748163 -0.0010049641 0.16702093 0.0057465583 -0.025684163 0.05667056 0.02566661 -0.17166698
-0.04010941 0.091551796 0.09507419 -0.072054714 -0.04631865 -0.13728842 0.06293507 0.124852076
0.072989866 0.1563846 -0.20130463 0.03145832 -0.12944399 0.042219862 0.14986418 0.12811281

convList.0.nn.2.weight f4 [32, 32]
00000000: c076 6bbd 160e e03d 0cb2 053d 5698 ecbd
00000010: ca3e f13d 50b4 52bd 059a 0d3e 9ac0 c53d
00000020: fc0a e9bd b0ed 823d 2a48 d23d 9796 bebd
00000030: a2d9 9d3d 13be e8bd 3948 1fbe b70c 083e
00000040: 1dfe 90bd 405c a23b f85e cf3c fb90 063e
00000050: 600e a93c a214 1bbe cf93 0f3e c46f 063d
00000060: f789 073e 0c5b debd 6d43 00be dc8a 6f3d
00000070: 22d4 c73d 1c15 633d ad17 06be 00e1 c83c
00000080: d021 3ebd b4ad 85bd 84d7 3d3d a690 03be
00000090: 2e1b 6cbd 9290 e93d 000e 26be 9057 563c
000000a0: 80dc 8e3c e27c fd3d 9c4b 1abe f0b2 26bc
000000b0: b4b4 6d3d 8e60 26be 8ea5 bdbd af3e 263e
000000c0: d9d8 1ebe f0bc 4d3c fced 0e3d 00b0 9db8
000000d0: 58d3 283d b2aa 01be c0b0 f63b d5f7 103e
000000e0: 3125 a6bd f514 073e 86c5 9b3d 90b1 31bc
000000f0: a94f d0bd ea4d f03d 8581 e8bd 5b2f 13be
00000100: 24dc 693d af2c 0f3e 0a4d 9ebd 2c7d 1cbd
00000110: 98d3 663d 00bd 6b3d 60c7 1d3d 88ba d23c
00000120: d4fb 2f3d 111f 8bbd 6eaa 60bd 8a0b f93d
00000130: a2ef 843d 501e 4b3d 7463 d1bd 8961 83bd
00000140: f00a fd3c f87d b1bc fd49 a9bd 9cb9 7abd
00000150: ae6a af3d d64b ecbd d059 1f3c e523 223e
00000160: a292 17be f2cd ecbd 2e17 d9bd 7399 193e
00000170: 41c6 d9bd e0c1 143c 795b 2a3e 0062 463d
00000180: 8872 ce3c d27c ea3d 1444 473d 6cc3 6cbd
00000190: 9ba5 1cbe aefd d03d 3068 bcbc 1764 163e
000001a0: 7a58 eabd f8bd 363d 7ce2 953d 68e0 85bc
000001b0: bcc0 8a3d d9b3 183e cc15 01be 389c 423d
000001c0: 881d 37bd dc9e 203d 605b ffbb a11e 0a3e
000001d0: 2d27 1b3e 0bd2 b1bd 1415 50bd 4105 2f3e
000001e0: 33ef eabd 8069 be3c ee33 c73d 3125 e7bd
000001f0: bc55 2abe 1076 6c3c af0b f5bd 729c 64bd
00000200: 50f4 02bc aad8 983d d82e e2bc b863 42bd
00000210: a8c5 873d a3ac a1bd d8dd 593d 040c 7a3d
00000220: 00db 3a3b a2f0 de3d 23d5 053e b016 993c
00000230: e4c4 673d aa2b d73d c028 553d a3a3 2b3e
00000240: 0db5 d9bd 7bff 2c3e 6cfe 3b3d 732f 193e
00000250: 6960 93bd 133a 1dbe 7d11 1fbe 74ff a2bd
00000260: d032 143d d978 b5bd 64cc 953d bc18 023d
00000270: a0ff e83b 8c70 45bd 4a48 2cbe 88b6 593d
00000280: 3d06 c0bd 78f1 fc3c 1470 30be 2a8a fc3d
00000290: 1677 f43d 1c9e 2f3d f712 1d3e 6745 113e
000002a0: ba0f f63d 586c 8d3d 6c75 09be d83e ee3c
000002b0: 2209 f9bd e096 eebb ab16 9cbd 74ac 8a3d
000002c0: e112 233e efb2 243e ac62 05be 97fc 133e
000002d0: 988a 6c3d 42c2 95bd ba32 fa3d 382f ce3c
000002e0: 40da 4c3b 9051 a7bc 2a85 a63d 3e5c c93d
000002f0: 2022 28bc daad ea3d b042 20bd 4438 21be
00000300: e515 81bd 428a b43d 006a 82bb 055a 8ebd
00000310: 7de8 043e e3ac 1fbe 9b44 033e 423a cd3d
00000320: ea2a ce3d de9a dc3d 3046 113c d071 e5bc
00000330: 8b99 c3bd 7462 1d3d 5e7c 1ebe 0d63 28be
00000340: 6953 8abd 2074 6b3d cc35 1bbe 3c2c 453d
00000350: f0d7 393c a181 0a3e c088 cb3b f797 0a3e
00000360: 1461 523d 3eab c93d d438 1d3d 54bb 49bd
00000370: 1b62 e0bd 5f6b cabd 3487 793d 455e aabd
00000380: 9d1c 223e ce53 de3d ae49 ec3d 1594 113e
00000390: 02cc e53d 58f5 25be 6670 9a3d a287 ccbd
000003a0: f05b 553c afca 003e 2052 a33c 4e37 a3bd
000003b0: 5058 8abc 0ec8 c43d 8002 5d3b eae3 d03d
000003c0: 667e c83d a6dc 993d f7f6 2d3e fa68 fabd
000003d0: e0f1 70bc 82be bb3d 00f5 e8bb 2106 c2bd
000003e0: 48c8 f3bd 1204 2ebe 2cca 1ebd c444 c8bd
000003f0: a897 ad3c c0d4 5d3b f541 1c3e ae1d c3bd
-0.057486296 0.10940187 0.0326405 -0.11552493 0.11779554 -0.05144149 0.13828285 0.096558765
-0.11379048 0.063929915 0.102676705 -0.093060665 0.07707526 -0.11364379 -0.15554895 0.132861
-0.07079718 0.0049548447 0.02531384 0.13141243 0.020636737 -0.1514459 0.14021228 0.03282143
0.13236223 -0.108572096 -0.12525721 0.058482036 0.09757258 0.055440053 -0.13094969 0.02452135
-0.046418965 -0.06527272 0.04634811 -0.12848148 -0.057643108 0.11404528 -0.16216278 0.0130824
0.017439127 0.12377335 -0.15067905 -0.010174498 0.05803366 -0.1624777 -0.09260093 0.1623485
-0.15512408 0.012557253 0.03489493 -7.519126e-05 0.041217178 -0.12662771 0.0075283945 0.1415704
-0.081125624 0.13191588 0.07606034 -0.010845557 -0.10171444 0.11733611 -0.11352829 -0.14373533
0.057094708 0.13981889 -0.07729538 -0.03820531 0.056354135 0.05755329 0.038520217 0.02572371
0.04296477 -0.06793035 -0.054850034 0.12160404 0.06491019 0.049589455 -0.10224047 -0.06415088
0.030889004 -0.021666512 -0.08266065 -0.061212167 0.085652694 -0.11537902 0.009726003 0.15834005
-0.1480203 -0.115627185 -0.10600124 0.14999942 -0.10633517 0.0090794265 0.16636457 0.048433304
0.025201097 0.11449589 0.04864891 -0.057803556 -0.15297548 0.102046356 -0.0229989 0.14686619
-0.11442657 0.044614762 0.07318589 -0.016342357 0.067750424 0.14912356 -0.12605971 0.047512263
-0.044705898 0.039214 -0.007792875 0.13488247 0.15151663 -0.08682641 -0.05080135 0.17091848
-0.11471405 0.023243666 0.09726702 -0.112863906 -0.16634268 0.014432445 -0.11965119 -0.05581326
-0.007992819 0.074632004 -0.027610227 -0.04745838 0.06629497 -0.07894256 0.053190082 0.061046615
0.0028511882 0.10885741 0.13069586 0.018687576 0.056584254 0.10506375 0.052040815 0.16761641
-0.10630236 0.16894333 0.045896932 0.14959507 -0.07196123 -0.15354185 -0.15534015 -0.0795888
0.03618127 -0.088609405 0.07314375 0.03176187 0.007110551 -0.048203036 -0.16824451 0.05315259
-0.0937619 0.03087686 -0.17230254 0.1233104 0.11936776 0.042875394 0.15339266 0.14186631
0.12014718 0.069054306 -0.13423699 0.0290827 -0.12159945 -0.0072811693 -0.07621511 0.06771174
0.1592517 0.16083883 -0.13025922 0.14451824 0.05774936 -0.07312442 0.122167066 0.025169
0.0031258017 -0.020424634 0.08130868 0.09832047 -0.010262042 0.11458941 -0.0391261 -0.1574412
-0.06303004 0.08815433 -0.0039799213 -0.069507636 0.12979312 -0.15593295 0.1281914 0.100208774
0.10066779 0.10771726 0.008866832 -0.028008372 -0.0955077 0.03842397 -0.1547713 -0.16444035
-0.067541905 0.057483792 -0.1515724 0.04813789 0.011342987 0.13526012 0.00621137 0.13534532
0.051362112 0.09847115 0.038384274 -0.049250916 -0.10956212 -0.09883761 0.060919955 -0.08318762
0.15831228 0.10855828 0.11537491 0.14216645 0.11220552 -0.16206872 0.075409696 -0.099868074
0.013022408 0.12577318 0.019936621 -0.07969533 -0.016887814 0.0960847 0.0033723414 0.10199721
0.097897336 0.075127885 0.16988741 -0.12227054 -0.014706105 0.09167196 -0.0071092844 -0.09473825
-0.11903435 -0.1699374 -0.038767025 -0.09778741 0.02119048 0.0033848733 0.15259536 -0.09527145

convList.0.nn.2.bias f4 [32]
00000000: 4521 c5bd 3c2d 5b3d 006b 573a 805b 8cba
00000010: ac53 083d bffc c4bd 66d6 01be 3067 483c
00000020: 884e 323d 88e3 823c d24f f73d 58ef 823c
00000030: c1d6 2d3e 1ad6 c43d f883 c23c 80a1 46bd
00000040: 1000 98bd f639 9e3d 2f72 03be 5fe3 0d3e
00000050: 582d 0b3d 40d4 8fbb ce67 d43d aa9d 973d
00000060: a953 1a3e 3d0d 91bd a19d 23be 3660 95bd
00000070: 8e50 ddbd 5fc4 cdbd 41e4 0f3e ded6 b43d
-0.09625486 0.053509936 0.00082175434 -0.0010708421 0.03328292 -0.0961852 -0.12679443 0.012231633
0.043531924 0.015977636 0.120757714 0.015983269 0.16976453 0.09611149 0.023744568 -0.048493862
-0.07421887 0.07725899 -0.12836526 0.13856266 0.03397879 -0.004389316 0.10371362 0.07403119
0.15070976 -0.07082603 -0.159781 -0.072937414 -0.1080638 -0.100472204 0.14051916 0.08830045

convList.1.nn.0.weight f4 [32, 32]
00000000: 9141 2c3e 6049 88bb ab01 163e 96aa a03d
00000010: f27a ce3d 4095 22bb 6d13 173e df34 86bd
00000020: b631 a53d f3ba afbd 1758 31be 0057 93ba
00000030: a097 0c3c bac0 a83d 2fe2 003e 5093 96bc
00000040: 76cf e43d b43d 523d bea0 25be 88e2 f3bc
00000050: 20aa 99bc 10f9 c3bc 4b16 253e bdfa a8bd
00000060: 3888 c53c 56af 833d c1b6 a2bd 0369 26be
00000070: a85e 903c ecf5 703d 6688 d4bd 20a3 733d
00000080: c80f 073d 67d2 21be c062 4c3c 880c 52bd
00000090: 00e3 6bbc 7419 28be c4dc 213d 9f70 253e
000000a0: c334 013e d0d0 23be 1121 07be 85c2 253e
000000b0: 90e6 17bd 0931 9bbd 0ea2 9fbd 80e9 33bb
000000c0: a042 723c c9f4 2e3e 8f6c 2e3e 9c33 643d
000000d0: 62cd 803d dba8 2c3e 6610 e7bd f8f7 b4bd
000000e0: 64a5 573d 1348 243e a47e 19be 76ba ff3d
000000f0: a8e7 4b3d 165f cf3d 9607 bd3d 28ff 06bd
00000100: b34a 11be 8dc1 123e 404e 31bd 839f 08be
00000110: bac1 1abe d5af 1dbe e3f8 2bbe f87a b43c
00000120: 80c0 8a3c 7baf 223e ea8c 9a3d c29f 07be
00000130: ca92 08be 43d6 81bd dc4b 1dbe 62a2 25be
00000140: 8efd 80bd 7012 5a3c 7b25 e9bd 40a5 66bd
00000150: 3abd 01be b214 913d a638 d33d 0aa0 dfbd
00000160: 507d 67bd a389 193e 095d 223e d908 033e
00000170: 82a4 923d 4ee2 98bd e0ed 57bc 7ec5 af3d
00000180: 937b 1d3e 80e4 5ebc ba15 32be 3327 d5bd
00000190: 00d0 abba 9f51 21be 28b0 23be 32c7 c73d
000001a0: 2c37 d5bd 9e82 f63d 0cdf 78bd 5b5a 1a3e
000001b0: 231f f8bd d85b 76bd 6879 883c db40 22be
000001c0: 0038 343d cfa1 e9bd daeb 8f3d 0702 1c3e
000001d0: 0abc fb3d 7a2c 27be d3b8 30be 71f2 efbd
000001e0: 06ba 7bbd b38b 17be de57 31be d089 87bc
000001f0: 8459 a8bd 36ea 923d 3a13 dc3d 3cd1 e2bd
00000200: 7fd4 073e 46a2 bfbd 26d3 bb3d f23c a93d
00000210: f635 d33d 8ac4 ec3d 4863 183d 9d16 233e
00000220: be9a d9bd e01b f6bd 38d0 de3c 68ab de3c
00000230: 1ee4 983d 5278 b53d 5001 d13c 6a0b ec3d
00000240: 9987 263e b446 48bd 202c 6fbc fb2e 0b3e
00000250: b1b8 8cbd 586e 8ebc 7eab fc3d 7003 36bd
00000260: 9682 e83d 24dc 2dbe c64c 5ebd 0ae2 c33d
00000270: 11e5 0a3e 56fa ce3d 7db4 c2bd 2170 afbd
00000280: 7196 0cbe f0d5 09bc 3009 c23c 409c fdbc
00000290: 209c 59bd c089 273c 0068 30ba 9f14 edbd
000002a0: 36c9 0ebe e0a6 353d 45dc dabd 0717 153e
000002b0: b0af 1a3c e2bc 92bd eb43 0e3e c018 bcbb
000002c0: 5b3b 95bd cf50 133e 7297 cb3d d0ac 2dbd
000002d0: f0b6 fc3c b06f e23c 4dca 04be b84e a0bc
000002e0: 60c2 3f3c 0a45 a83d 401c 9dbb 47e9 103e
000002f0: 9d39 a7bd fe8a 8c3d 998a c9bd 0b87 2d3e
00000300: 7163 32be f68b 0fbe 9d19 e3bd 72b5 02be
00000310: 9209 80bd 28bd 703d 3271 80bd e7cb 173e
00000320: eda8 25be 0191 9dbd e8a9 9a3c fd3a 023e
00000330: 72ce ec3d 4656 cdbd 1390 80bd 581f f23c
00000340: 7da6 023e ca44 f93d 0361 bcbd e434 7fbd
00000350: 2577 28be 354e 20be 4e46 1abe 7e15 b0bd
00000360: 9c33 e7bd cd9a 143e 0cee 1ebe 0e85 2dbe
00000370: a049 f4bc 554b 163e 8918 003e a6ef 983d
00000380: 7849 d0bc 60e5 4ebd 7ab1 d93d 02a2 903d
00000390: e1cd 1f3e 1e61 d33d 0040 d5bc c6f9 a23d
000003a0: 9b0d 073e 6e9a 863d e4cb 683d 50a1 21bc
000003b0: b863 8e3c d04b 52bc 0e25 eabd 8092 2ebc
000003c0: 2366 23be 50d0 7c3c 984f f0bd 9968 083e
000003d0: 42f5 fa3d fa06 aa3d a017 97bc c02a 973b
000003e0: 403c 4cbb 3aba 0fbe d61a b9bd f471 b7bd
000003f0: 1067 73bc 66cb 1fbe ea2d ce3d 1852 8cbc
0.16821887 -0.0041591376 0.14649074 0.07845037 0.10082044 -0.0024808198 0.14753504 -0.06553053
0.08066122 -0.085805796 -0.1731876 -0.0011241138 0.008581072 0.08239885 0.12586282 -0.018380791
0.111723825 0.051328376 -0.161746 -0.029771104 -0.01875788 -0.023922473 0.16121785 -0.082509495
0.024112806 0.06429927 -0.07945014 -0.16250996 0.01762326 0.05882828 -0.103775784 0.05948174
0.032974035 -0.15802918 0.012474716 -0.051281482 -0.014397383 -0.1641596 0.03951718 0.16156243
0.12617783 -0.15997624 -0.13196208 0.16187485 -0.037085116 -0.07577712 -0.07794581 -0.002745241
0.014786392 0.17085566 0.170336 0.05571328 0.06289174 0.16861288 -0.11282425 -0.08836359
0.052647963 0.16043119 -0.14989716 0.124867365 0.04978147 0.10125558 0.092299625 -0.03295818
-0.14188652 0.14331646 -0.043287516 -0.13342099 -0.15112963 -0.15399106 -0.16794161 0.022031292
0.016937494 0.15887253 0.075464085 -0.13244537 -0.13337246 -0.06339695 -0.1536097 -0.16175225
-0.06298362 0.01331006 -0.11384102 -0.05630994 -0.1266984 0.070840254 0.10313539 -0.10919197
-0.05651599 0.1499391 0.15855803 0.12796344 0.071602836 -0.07465039 -0.013179272 0.085825905
0.15379171 -0.013604283 -0.173911 -0.10407867 -0.0013108253 -0.15753792 -0.15985167 0.0975479
-0.10410914 0.12036632 -0.06075959 0.1507353 -0.12115314 -0.060146183 0.016659454 -0.15845053
0.04399872 -0.11407816 0.07027407 0.15235148 0.12291725 -0.1632556 -0.17258005 -0.11716164
-0.061456703 -0.14799385 -0.17318675 -0.016545206 -0.08220199 0.071735784 0.10745855 -0.110750645
0.13264655 -0.09357123 0.09171133 0.082635775 0.103130266 0.11560924 0.037204057 0.15926595
-0.10625218 -0.120170355 0.027198896 0.027181342 0.07465385 0.0886084 0.025513321 0.115256146
0.16262664 -0.048895553 -0.014597923 0.1359214 -0.068711646 -0.0173866 0.12337397 -0.044436872
0.11353032 -0.16978508 -0.054272436 0.09564598 0.13563944 0.101063415 -0.09507082 -0.08566309
-0.13729264 -0.008412823 0.023686022 -0.030958295 -0.053127408 0.010225713 -0.00067293644 -0.11576199
-0.13943943 0.044348598 -0.10686544 0.14559565 0.009441301 -0.07164933 0.13893096 -0.005740255
-0.07286712 0.14386295 0.09940995 -0.042401135 0.03084895 0.027641147 -0.12967797 -0.019568786
0.011704057 0.08216293 -0.0047946274 0.14151488 -0.08165286 0.06862448 -0.098408885 0.16946046
-0.17420746 -0.14018235 -0.1108887 -0.12764528 -0.062518254 0.058774143 -0.0627159 0.14823876
-0.16177721 -0.07693673 0.018879846 0.12717815 0.11562814 -0.10026221 -0.0627748 0.029555961
0.12758823 0.121713236 -0.09198191 -0.0623063 -0.164517 -0.15654834 -0.15065882 -0.08597849
-0.112891406 0.14512177 -0.15520495 -0.16945288 -0.029820263 0.14677174 0.1250936 0.07467584
-0.025425658 -0.050511718 0.10629554 0.070621505 0.1560588 0.10321258 -0.026031494 0.07957797
0.13188784 0.06572424 0.05683507 -0.00986512 0.017381534 -0.012835458 -0.11432849 -0.0106550455
-0.15956931 0.015430525 -0.11733931 0.13321151 0.122538105 0.08302112 -0.018443882 0.0046132505
-0.0031163841 -0.14035884 -0.09038322 -0.08957282 -0.014856115 -0.15604934 0.10067351 -0.01712899

convList.1.nn.0.bias f4 [32]
00000000: 7cf7 02bd 229a 0cbe 9797 0e3e baf1 a63d
00000010: 5abf ac3d 04ff 2cbe 0cb3 353d 0018 83b9
00000020: a1f6 99bd 5a59 883d 5eed 913d 44f7 0bbd
00000030: ba2c 913d 4cec d8bd 0e4f e7bd 73f8 aabd
00000040: 4010 0f3b 40b4 38bd 13e1 273e 6828 1e3d
00000050: 4080 153b e6cd 993d bebb 22be 2ab7 2bbe
00000060: c63f b7bd 205b 293c 4e72 11be fb82 22be
00000070: 4b06 26be a83e ad3c 362f f33d 3878 4cbd
-0.0319743 -0.13730672 0.13925014 0.081515744 0.08434935 -0.16894156 0.044360206 -0.00025004148
-0.07517744 0.066576675 0.07125352 -0.034171358 0.07088609 -0.10591945 -0.11294375 -0.08348169
0.0021829754 -0.045093775 0.16394453 0.038612753 0.0022812039 0.07509975 -0.1589193 -0.1676909
-0.08947711 0.010336667 -0.1420376 -0.15870278 -0.16213338 0.02114804 0.11874239 -0.049919337

convList.1.nn.2.weight f4 [32, 32]
00000000: b667 8e3d d19a b4bd 309e 353d b046 1d3c
00000010: 09b4 2a3e 65b7 a4bd 12d0 11be dad1 58bd
00000020: 40bb e93b 8883 08bd 9051 ebbd 00f0 67b9
00000030: c8ef 093d d54a 9ebd 20f6 173c 00dc 3eba
00000040: ca44 03be 4009 e5bc 4622 a13d 520e bb3d
00000050: 402c 223c 4b72 13be bbcb 043e a0b7 ab3b
00000060: 2aba db3d 3005 e0bc 660f a03d 26c0 93bd
00000070: 9012 03be 181e 173d 1009 cb3c 8e31 e43d
00000080: b6a1 a73d fbb0 0e3e dfae e6bd 3a45 c53d
00000090: 80fa 63bb 131e 213e 1155 c3bd b78f 313e
000000a0: d08b 12bc 2822 4e3d b9f0 1b3e de52 f03d
000000b0: e816 91bd e09b 953c fe93 e4bd 00f1 1fbb
000000c0: f0f4 813c 9c60 22be d68c 80bd 4630 e3bd
000000d0: a0c9 48bd dcd9 26bd ac0f 3bbd 038b 073e
000000e0: 40df ed3c ec10 39bd 28a8 1bbd 9ceb 11bd
000000f0: fd82 2c3e 0076 203d 7d48 143e c5a6 1b3e
00000100: 579c 243e 6b73 92bd d8b8 943c 1bc5 053e
00000110: a2d8 58bd 9f60 24be 7e99 ff3d 701a 0ebc
00000120: a7d4 043e 34e3 233d bed2 fb3d 92b8 b53d
00000130: 3043 4b3d 4fd5 293e eda0 153e 9718 323e
00000140: d4d2 773d f2cd ef3d c033 af3c a0ae 473d
00000150: 7ac6 02be 745f 7dbd a2a4 32be f692 f53d
00000160: def1 d13d e0b0 f03c 3bb2 043e 28d3 8a3d
00000170: 180c 37bd 1eb7 9c3d e6c0 b13d fe93 e63d
00000180: 9a23 f03d 000d a5bb 787c 17bd d0b6 c7bc
00000190: 8561 b6bd deec bcbd 71a1 2d3e f47e 073d
000001a0: 24ff 0abd 5637 e63d f8df 71bd 0084 6fb9
000001b0: 0aaa d23d 7040 ed3c 524d a13d 1aa5 983d
000001c0: 2ea3 df3d a887 8c3c c776 143e 77c9 163e
000001d0: 683c aabc c8ae 85bc 547c 0fbe b46f d2bd
000001e0: a239 d93d 7043 11bd f661 b13d 609b 36bd
000001f0: ba0f a63d 7f29 253e d33b 183e ac09 323d
00000200: 8435 f1bd 000d f13c 27c4 0f3e 5445 e8bd
00000210: efbd c8bd 18e6 cdbd 3df3 003e 2619 b83d
00000220: e0dd 463d 62e8 bf3d 386a 393d d5fd 1abe
00000230: a6b8 c9bd 2a18 a63d c314 9bbd a03e 6abc
00000240: 0a45 e2bd c439 1ebd 205b 113c bcdb bdbd
00000250: e0c5 4f3d 0a6a 0abe e0b8 673c b650 b9bd
00000260: 6e40 bb3d 3d01 1b3e fcec 61bd b22f fe3d
00000270: 8802 db3c 8a20 03be 3a38 b23d a0de f83b
00000280: f68e aebd 98bc 54bd 6082 f7bb 40c0 d83b
00000290: 77de 99bd 2a5b ed3d 4e46 ec3d 7148 f9bd
000002a0: d3a1 003e f013 13bd 7393 2d3e 00ad a73c
000002b0: 9aa7 f13d 66ef c93d 582c a33c f0e6 6bbd
000002c0: 80c3 f7bd 7afb 12be 4468 0a3d d10a a2bd
000002d0: 4038 383c 90bb 5c3c 97f8 273e 73f0 24be
000002e0: 653f 233e 6217 b43d 244a 14be 188f ef3c
000002f0: 3a28 d13d 6e21 0abe e299 e33d f780 0a3e
00000300: 362f c8bd 2061 15be 190d babd 0bb7 d0bd
00000310: 705c 56bd c0bb 503d 4da8 293e 6882 b53c
00000320: 710a 263e cf18 10be 78af dd3c c82b 3dbd
00000330: 309e 593d aa9c d93d bc17 793d 4610 ef3d
00000340: 5d0e 073e 980e 11bd 4af1 b93d 4c78 21be
00000350: 0dcc cdbd f61a ec3d b295 ac3d 8d79 343e
00000360: 2816 f7bc 642f 76bd d4f7 333d 8f1d 34be
00000370: d5cc d6bd 6042 52bc 34d2 42bd ad65 2abe
00000380: 61f2 1b3e 8f76 283e 046f 6c3d 3a83 9a3d
00000390: f0c6 393c bc82 553d 9dbd 08be b151 2e3e
000003a0: d0af 2c3c e055 efbc 92d0 58bd 2bee 1ebe
000003b0: 5164 e0bd 9233 27be 3816 883c c8ef cf3c
000003c0: 8f68 063e 49da 33be 29aa 303e fe4b 28be
000003d0: 5381 29be 3ca1 48bd 60bb c1bc 4f34 0dbe
000003e0: c38b 203e 7b46 163e 7fea 0a3e 17bf 143e
000003f0: 86d5 ac3d 58d5 683d 3ca6 933d 4419 1fbd
0.06953375 -0.088185914 0.044340312 0.009599373 0.1667024 -0.08042792 -0.14239529 -0.052934505
0.0071329176 -0.033328563 -0.11490166 -0.00022119284 0.03367594 -0.07729117 0.009274989 -0.00072807074
-0.1281921 -0.027958512 0.07867865 0.09133591 0.009898245 -0.14399068 0.12968342 0.0052403957
0.10728867 -0.027346224 0.07815437 -0.07214384 -0.1280005 0.036893934 0.024784595 0.11142264
0.08185141 0.139347 -0.11263823 0.096323445 -0.003478676 0.15734129 -0.095377095 0.17339979
-0.008944467 0.050325543 0.15228547 0.11734556 -0.07084447 0.018262804 -0.1116104 -0.0024405122
0.015863866 -0.15857166 -0.06276862 -0.11093192 -0.04902041 -0.04073511 -0.045669243 0.13236623
0.029037118 -0.045182154 -0.038002163 -0.035625085 0.16846843 0.039175034 0.14480777 0.15200336
0.16075264 -0.071509205 0.018154547 0.13063471 -0.052940972 -0.16052483 0.12480448 -0.008673295
0.12971745 0.0400116 0.12296055 0.088730946 0.049624622 0.16585277 0.1461217 0.17392193
0.060503796 0.11709203 0.021386981 0.04875052 -0.12771025 -0.06185861 -0.17445615 0.11990921
0.10251211 0.029381216 0.12958615 0.06778556 -0.044689268 0.07652114 0.086793706 0.11258696
0.117255405 -0.00503695 -0.036983937 -0.024379164 -0.08905319 -0.09224866 0.16956116 0.033080056
-0.033934727 0.11241023 -0.059051484 -0.0002284199 0.102863386 0.02896139 0.07876076 0.074533656
0.10919796 0.01715453 0.14498435 0.1472529 -0.020780757 -0.016318694 -0.14012271 -0.10275212
0.10606696 -0.035464704 0.08661263 -0.04458177 0.08108468 0.16129111 0.14866571 0.043466255
-0.117777854 0.029425144 0.1403967 -0.11341348 -0.09801852 -0.100536525 0.12592788 0.08989172
0.04855144 0.093704954 0.045267314 -0.15135892 -0.09849672 0.08110078 -0.07572319 -0.0142971575
-0.110483244 -0.03862931 0.008871824 -0.09270427 0.050725818 -0.13517013 0.014143199 -0.090485975
0.09143148 0.15137191 -0.055157647 0.12411441 0.026734605 -0.12805381 0.087021306 0.0075948983
-0.085233614 -0.05193767 -0.0075533837 0.006614715 -0.07513135 0.11589654 0.11536847 -0.1217202
0.12561731 -0.035907686 0.16950779 0.020468235 0.117995456 0.09860115 0.019918606 -0.057593286
-0.120978355 -0.14353743 0.03379084 -0.07912219 0.01124388 0.013472453 0.16403423 -0.16107349
0.15942152 0.087935224 -0.14481407 0.029243037 0.10212751 -0.13489315 0.11113335 0.13525759
-0.0977463 -0.14587831 -0.090845294 -0.10191163 -0.05233425 0.050960302 0.16568108 0.02215691
0.1621492 -0.14071964 0.02706121 -0.04618433 0.053129375 0.106255844 0.06081365 0.11673026
0.13189073 -0.03541431 0.09079225 -0.15768546 -0.10048685 0.1152858 0.084269896 0.17624493
-0.030161932 -0.06010379 0.04393752 -0.175894 -0.10488287 -0.012833208 -0.047563747 -0.16640349
0.15229179 0.16451477 0.05772306 0.07544561 0.011338934 0.05212663 -0.13353582 0.1702335
0.010539964 -0.029215753 -0.052933283 -0.15520541 -0.10956634 -0.16328266 0.016612157 0.025382891
0.13125823 -0.17563738 0.17252411 -0.16435239 -0.1655324 -0.04898189 -0.023648918 -0.13789485
0.15678315 0.14675324 0.13566016 0.1452602 0.08439164 0.056844085 0.07209441 -0.038842455

convList.1.nn.2.bias f4 [32]
00000000: 9803 293d 845a 1cbd b024 203d c765 003e
00000010: 2455 4d3d 21c0 2b3e 62bf db3d ae0b c93d
00000020: 3529 1a3e 78cb c0bd 0a29 26be 2618 eb3d
00000030: 5ea6 10be 581d 70bd 37bc 033e d5fb 333e
00000040: a08c 5e3d f62e ed3d 4d8d 1b3e 7ebf 64bd
00000050: 48bc a33c 282d 14bd f87e 1bbd aabb 0dbe
00000060: 0e8b 02be 6d8c 05be 2684 be3d 2f07 80bd
00000070: 9a22 bebd a053 153d afd9 1b3e 3c6c fcbd
0.041263193 -0.03817226 0.039097488 0.12538825 0.050130025 0.1677251 0.10729863 0.09816681
0.15054782 -0.094138086 -0.16226593 0.11479215 -0.14125964 -0.058621734 0.12864767 0.17576535
0.05433333 0.11581223 0.1519062 -0.055846684 0.01998724 -0.036175877 -0.037962884 -0.1384112
-0.12748358 -0.1304185 0.09302549 -0.0625137 -0.092839435 0.036456704 0.15219758 -0.123253316

convList.2.nn.0.weight f4 [32, 32]
00000000: 548f 35bd 35e5 31be 6fab 24be c2aa e83d
00000010: 86ff ea3d 1c78 0e3d 4e1f 09be 24fd f9bd
00000020: 99c2 b5bd 0cbd 44bd 47d9 2b3e 58fc d63c
00000030: 9a3f d03d b0cf 163c 6b73 053e 9af6 9f3d
00000040: 7413 453d c8e0 3fbd 24c4 1bbd 1a6c a03d
00000050: d009 3fbc c450 2cbd b03c d5bc e6fb a53d
00000060: 3cf2 513d 7a48 f53d 293b 303e 6018 4dbc
00000070: 60f3 5ebc dbc8 e9bd 600a 773d 980d 9dbc
00000080: 694d f1bd 09df 33be 3c7c 2dbd b095 67bd
00000090: 2a21 bb3d 9168 aebd 00b9 bbba e081 ad3c
000000a0: b99d 173e 677e e0bd 3852 19be c0a5 e53b
000000b0: c06b d83b 1b93 0e3e 60e7 c53c edaf 1b3e
000000c0: a224 0cbe ef89 0c3e e18f 133e b0ef d33c
000000d0: c8ff 0f3d 2caf adbd a8ff fcbc 806c c53a
000000e0: 4099 9a3c 18c6 a1bd b0ea 92bd e01f 19bc
000000f0: 8464 873d 64ee 403d 0047 8f3b 640a 6a3d
00000100: 48a5 833d 50ca 8ebc 1068 a53c 20e2 50bc
00000110: fea9 b63d 1a0a 09be 6fed 323e 5c86 77bd
00000120: 1ec7 1dbe 2622 dc3d 01dd 8bbd f179 8fbd
00000130: 53a0 103e 48be 95bd 2618 12be e0d4 4b3c
00000140: 3ccc 84bd 5226 983d 6a7f a4bd 602a f7bc
00000150: 4c80 24be fa1a 58bd c0ba 40bd e4ce 063d
00000160: 215e 22be d5a0 19be e36d 15be 51da 2e3e
00000170: f8d6 323d 2067 ce3b 14d4 183d be72 d6bd
00000180: 66f1 ef3d a018 fabc c413 25bd a0fb d93b
00000190: 005f 443d 8074 6fbb 70b2 83bc 305a 0ebc
000001a0: 50dc 3c3c 055f 2e3e 72b2 89bd afed 1b3e
000001b0: 4017 063b 4223 ac3d 1485 1b3d ba4d fb3d
000001c0: 5819 92bc d436 b6bd 005f a13b 4ca7 163d
000001d0: b03d 19bc 50bf 2ebc 1905 debd c502 223e
000001e0: a2c8 19be 00bf c4ba 8407 35bd ecb3 19bd
000001f0: 7059 6fbc ed4f 0c3e 7400 80bd a985 2b3e
00000200: 026d b43d 7604 a83d 966f 79bd 7e2a 5fbd
00000210: f889 683d 9a3b 9fbd 9a8a cc3d 88ce 443d
00000220: 2878 2abd fd55 2cbe c232 ae3d 8b47 213e
00000230: 73fb 0dbe 2ad9 9a3d ea4b c6bd d87c 353d
00000240: d80d 3abd 0525 f9bd 2d15 15be 99aa 2ebe
00000250: d8d9 443d 3e4a 27be 5513 153e 3cff 2ebe
00000260: c1b6 28be 8a1a 6bbd 3fe8 e4bd 7d7d 0bbe
00000270: e43a 2fbe a750 2f3e 3e75 12be f098 82bd
00000280: acf2 82bd c07f 3dbc fc1b 05bd e06c a83b
00000290: 0406 663d f76c 86bd 4610 fd3d 0683 23be
000002a0: 407e 193d f134 d3bd b5d1 8abd 799f 30be
000002b0: 5094 bfbc 5676 0bbe 820d e73d 8d86 083e
000002c0: 87a4 123e b726 143e 8786 213e bfb7 1a3e
000002d0: 32cf 76bd c659 933d 00b5 b0bd 1f99 ddbd
000002e0: 4b49 1cbe acad 5d3d 2785 293e edc6 16be
000002f0: 6269 ae3d 6276 aa3d 6012 093d d0a7 3c3d
00000300: cedb b63d 1097 b33c 00c0 edba 20d2 b53b
00000310: 301a c33c 6121 21be 18e6 4bbd bae5 94bd
00000320: 46ee e43d e4e8 1bbe c019 d7bc cd84 2dbe
00000330: 5f08 153e 92e0 12be f336 90bd 6030 5d3c
00000340: d87c 15bd f062 8f3d 70fe 1dbd 4630 04be
00000350: 6e37 fb3d f64e 29be 0080 9d38 295e c3bd
00000360: ab2b 20be 92fb e6bd d641 a53d e888 753d
00000370: 948b c5bd 9918 2b3e 3743 203e e2b3 ea3d
00000380: 1725 a6bd b5bf 1ebe 5850 473d d8b3 c6bc
00000390: bfa1 063e c064 3bbd 3610 f93d 828c df3d
000003a0: feae e13d 50ef 27bc 4874 26bd cc45 7b3d
000003b0: 2d4c 90bd 5824 9cbc d694 95bd de73 ca3d
000003c0: 80b0 dfbb b678 dcbd 6cbf 653d 4f6b 34be
000003d0: 784b 51bd 411d adbd 0096 ecbb 20c2 b13c
000003e0: 76ae e83d 4937 263e da3f 69bd 6a12 8d3d
000003f0: 3b02 eebd 25ed 20be 4798 26be 97d4 21be
-0.04432614 -0.17372592 -0.16081022 0.113606945 0.114745185 0.034782514 -0.13390848 -0.12206486
-0.08875007 -0.04803185 0.16782103 0.026243374 0.10168381 0.00920479 0.1303231 0.078107074
0.048114255 -0.046845227 -0.03802885 0.07833119 -0.011660054 -0.04206921 -0.026029915 0.081046864
0.051256403 0.119767144 0.17210068 -0.0125180185 -0.01360783 -0.11415263 0.06031263 -0.019171521
-0.11782343 -0.1756555 -0.042354807 -0.056539237 0.09137185 -0.08516038 -0.0014322102 0.021180093
0.1480626 -0.10961609 -0.1497277 0.0070082843 0.0066046417 0.13923304 0.02415818 0.15203829
-0.1368585 0.13724492 0.14410354 0.025871128 0.03515604 -0.08480677 -0.030883625 0.0015062243
0.018871903 -0.078991115 -0.07173669 -0.0093459785 0.06610969 0.047102347 0.0043724775 0.057138816
0.06428009 -0.017430454 0.020191222 -0.012749225 0.08919142 -0.1338276 0.17473386 -0.06043087
-0.15407988 0.10748701 -0.068292625 -0.0700568 0.14123659 -0.07311684 -0.14267024 0.01244089
-0.06484267 0.07429184 -0.08032115 -0.030171573 -0.16064566 -0.0527601 -0.0470531 0.03291215
-0.1585622 -0.15002759 -0.145927 0.17075469 0.04366204 0.0062989146 0.03731163 -0.10471104
0.11715965 -0.03052932 -0.040302053 0.0066523105 0.04794216 -0.0036537945 -0.016076297 -0.008688495
0.011527136 0.17028435 -0.06723489 0.15227388 0.0020460635 0.084051624 0.03796871 0.122706845
-0.01783435 -0.088971764 0.004924655 0.03678064 -0.009353086 -0.01066573 -0.10840816 0.15821369
-0.15017942 -0.0015010536 -0.04419662 -0.037525102 -0.014608726 0.13702364 -0.062500864 0.16750206
0.08809854 0.08203976 -0.060897432 -0.054483883 0.056772202 -0.0777504 0.09987374 0.048048526
-0.041618496 -0.16829677 0.08505775 0.15749948 -0.13865452 0.07560952 -0.09682448 0.044308513
-0.04542336 -0.12165264 -0.14558859 -0.17057265 0.048059314 -0.16336915 0.14558156 -0.17089552
-0.16475965 -0.057398356 -0.1117711 -0.13622089 -0.17112309 0.1712061 -0.14302537 -0.06376827
-0.06393942 -0.0115661025 -0.03249739 0.005139932 0.05615808 -0.06563752 0.123566195 -0.1596795
0.037473917 -0.10312832 -0.0677828 -0.17248334 -0.02338615 -0.1361936 0.11281873 0.13332577
0.14320575 0.14467894 0.15773974 0.15109156 -0.06025619 0.07194857 -0.08628273 -0.10820221
-0.15262334 0.054120705 0.165547 -0.14724322 0.08516194 0.08323361 0.03346479 0.046058476
0.08928643 0.021922618 -0.0018138885 0.0055487305 0.023816198 -0.1573539 -0.04977998 -0.07270379
0.111782596 -0.1522556 -0.026257396 -0.1694519 0.14553975 -0.1434348 -0.07041731 0.013500303
-0.036496013 0.07001293 -0.03857273 -0.1290904 0.12266432 -0.16534027 7.510185e-05 -0.09539444
-0.15641658 -0.11278452 0.08069198 0.059945017 -0.09645763 0.16708602 0.1565064 0.11460091
-0.08112543 -0.15502818 0.048660606 -0.024255678 0.13147639 -0.04575038 0.12161295 0.109154716
0.11019705 -0.010249928 -0.04063824 0.06134586 -0.070457794 -0.019060299 -0.07303779 0.09885381
-0.0068264604 -0.10765211 0.056090757 -0.1761906 -0.051097363 -0.08452845 -0.00722003 0.021699011
0.11361401 0.16232027 -0.05694566 0.06888278 -0.11621519 -0.15715463 -0.16269027 -0.15803753

convList.2.nn.0.bias f4 [32]
00000000: 18a5 f9bd 800d 243b e65e a83d fc56 3a3d
00000010: 257e aabd e794 f6bd d20f be3d 877c 023e
00000020: 9e6d ec3d f925 cebd c415 033d 0cdd 823d
00000030: 03e0 183e 9ceb 04bd e6de e13d 7660 943d
00000040: 6084 253d f34c 153e 266b 30be ca33 17be
00000050: eeb7 d8bd 00db 303c 394e 9abd c90c 99bd
00000060: 6ccd 02be a81c bcbc 6f81 f6bd 0272 c53d
00000070: 4065 c93b b6cf b83d fc38 13be caf4 09be
-0.12189692 0.002503246 0.082212254 0.04549311 -0.083248414 -0.120401196 0.09280361 0.12742816
0.11544345 -0.100658365 0.03200318 0.063898176 0.14929204 -0.032451257 0.11028843 0.07244961
0.040409446 0.14580135 -0.17228374 -0.1476585 -0.10581957 0.010794401 -0.07534451 -0.07473142
-0.12773675 -0.022962883 -0.12036406 0.09640886 0.006146103 0.09023993 -0.14377207 -0.13472286

convList.2.nn.2.weight f4 [32, 32]
00000000: 3cda 9fbd 9099 1a3c aabf c73d 9320 1abe
00000010: f1b7 183e 3c24 24bd 4100 afbd 209a b33c
00000020: 40b7 46bd fb54 e8bd 2e65 bebd 14b0 093d
00000030: eb33 c1bd b43e 15bd 9ad5 dc3d dffa 27be
00000040: 1463 203d 72dc f13d 7034 1c3d 356e 30be
00000050: 60dc 0ebc 804f 613b 3808 24bd 46ed 23be
00000060: c6fd bd3d 7d1a f1bd 206f 943d 6dca dabd
00000070: 27a9 313e 38b0 75bd 0137 30be 3414 8e3d
00000080: 8531 10be f01e 3cbd 7c89 3a3d 2be5 c2bd
00000090: 1a1e e93d 83cd 87bd 3e92 c03d 50c9 78bc
000000a0: 7065 58bd 73a6 103e 1781 c6bd 8ed1 1fbe
000000b0: b0b2 6ebc 182a b9bc 1beb 263e f507 0e3e
000000c0: fecf f8bd ce2e dd3d e216 eb3d 1a41 34be
000000d0: fd49 0e3e f029 ddbc 9c5e 4b3d e010 403d
000000e0: aaf1 07be 70b5 5abc 3811 bbbc 185e 1cbd
000000f0: cc35 54bd 6dc2 0d3e 7dd9 1dbe 13f8 82bd
00000100: 61a3 283e 225c d73d e6fa c2bd d052 78bc
00000110: bead 23be 09ef b5bd fb15 9bbd 0829 71bd
00000120: 77ee 153e 3256 e63d f0e5 1cbc 9b70 0ebe
00000130: aa9a e43d 1b00 e2bd 289e 2f3d 974e 333e
00000140: 9c39 603d 8070 413d 644c e9bd 510f 023e
00000150: a04e 4c3d 385d abbc 1782 323e fa96 9abd
00000160: e414 17bd 3f5b 2b3e 7b91 09be 7c66 1ebe
00000170: 001b 4a3c d89b bebc f09d d73c cbe0 163e
00000180: 0c4e 933d 471b 2c3e e6eb b43d c49d 33bd
00000190: b852 ccbc 4cae 14bd 40f4 22be bca7 1fbe
000001a0: 78f9 433d c0ce 313c ee0d 9b3d 6d84 313e
000001b0: 524e cd3d 2658 e5bd 12fd ee3d cdc8 86bd
000001c0: ecef d6bd 752a 0b3e 48c1 03bd a187 233e
000001d0: f22f e23d 9326 1a3e 196a 1a3e 1844 d0bd
000001e0: b04b 6c3d 6c54 333d c806 d53c 2546 0e3e
000001f0: 0cb6 a6bd e001 043d 46dc fe3d 7890 f7bd
00000200: a8e9 453d b497 fbbd 0b0c f4bd 367b e53d
00000210: 67cb 2a3e 3043 833c 7c58 51bd 2260 e03d
00000220: b025 2dbd c8dd 30be e021 1dbe 73d2 00be
00000230: 0206 943d ebee 103e 2b48 123e 279f 343e
00000240: df98 03be 7a30 24be 75cd b3bd d148 2e3e
00000250: 4c49 34be d6dc 963d fefa 88bd b82c 803c
00000260: 41d0 323e b6ef 913d d62f b23d 1a0e 99bd
00000270: 9439 00bd c025 7a3d d680 843d 40e3 0e3b
00000280: 5ee1 b23d 069a ac3d 66e5 dc3d 57dd 1a3e
00000290: b782 113e a35a d1bd c0df 0ebb 209b fe3c
000002a0: 0047 c43c 8fa9 0b3e 464d 30be 803d e23a
000002b0: 2f95 a1bd 2637 f03d 70b6 cbbd 4cdd 25bd
000002c0: 00b4 80bc d876 f13c 7075 6e3c 3878 3fbd
000002d0: 2cff f7bd 84ac b6bd 6054 c5bb 66f6 d13d
000002e0: 30c4 cabd f623 9b3d 58bb c1bd e7f4 223e
000002f0: c884 e1bd da9e a43d c016 5d3c 1881 d0bd
00000300: 657d 283e 7e51 9c3d a0de a43b f098 f8bd
00000310: 9cd5 13be e23f 07be 665c b9bd 0428 4ebd
00000320: 40d2 f2bc 1c59 193d 2c06 43bd bc5c 2d3d
00000330: daf3 dd3d 8bec c7bd d6f4 873d b2b7 9a3d
00000340: 8f3b f9bd f04e 01bd 30d5 4bbd 9ff6 233e
00000350: 6792 b7bd 8002 10bc 68aa 833c f770 84bd
00000360: eb86 20be 72f9 e13d 2fbf 0c3e 9749 2f3e
00000370: dad5 92bd 9311 a9bd 4840 10be 8a97 afbd
00000380: da33 01be a030 e6bb 841a 14be 15a5 203e
00000390: 00b1 da3c bc60 26bd c239 f53d 8460 01be
000003a0: 4459 f3bd 4dba 1b3e c075 c7bb c8e3 e83c
000003b0: d0e1 5ebd 083a 863d ab39 e4bd bbbe dfbd
000003c0: c820 7b3d b4c9 e5bd f8b3 803d a543 063e
000003d0: f83e 5c3d d968 023e 9817 093d 39d3 83bd
000003e0: 7354 9dbd 7b0d 84bd 1068 0b3c cba9 dfbd
000003f0: e7a9 333e 00bb 6aba 0047 993b dcab 223d
-0.07805297 0.009436026 0.09753354 -0.15051489 0.14913918 -0.04007362 -0.0854497 0.021924078
-0.048514605 -0.11344334 -0.09296642 0.033615187 -0.09433731 -0.03643675 0.10782929 -0.16404293
0.03915699 0.11809625 0.038135946 -0.1722954 -0.008719534 0.003437966 -0.0400469 -0.16008481
0.09276919 -0.1177263 0.07247758 -0.10683141 0.17349683 -0.05998251 -0.17208482 0.06937447
-0.1408139 -0.04592794 0.04554127 -0.095163666 0.113826945 -0.06630995 0.094028935 -0.015184715
-0.052831113 0.14125995 -0.09692591 -0.15607283 -0.01456897 -0.02260308 0.16300623 0.13870223
-0.12149046 0.10799943 0.11478974 -0.1760296 0.13895412 -0.026997536 0.049650773 0.046891093
-0.13275781 -0.013348922 -0.022835359 -0.038175672 -0.051809117 0.13843699 -0.15414996 -0.06394973
0.16468574 0.1051562 -0.09520511 -0.015156463 -0.15984246 -0.08883483 -0.07572552 -0.05887702
0.14641748 0.11246909 -0.009576306 -0.13910143 0.11162312 -0.11035176 0.04287544 0.17510448
0.05474244 0.04722643 -0.113915235 0.12701155 0.04987967 -0.020918474 0.17432438 -0.07548328
-0.036885157 0.16734026 -0.13434403 -0.15468782 0.012335539 -0.023267671 0.026320428 0.14734189
0.07192621 0.1680728 0.088340566 -0.04385163 -0.024941787 -0.036299035 -0.15913486 -0.1559133
0.047845334 0.010852516 0.07571016 0.17335673 0.10024704 -0.111984536 0.11669363 -0.065812685
-0.1049498 0.13590415 -0.03216675 0.15969707 0.11044301 0.15053777 0.15079536 -0.10169238
0.05768937 0.043781683 0.02600421 0.13893946 -0.081401914 0.03222835 0.124443576 -0.12088102
0.048318535 -0.122847944 -0.119163595 0.11205141 0.16679154 0.016023248 -0.051109776 0.10955836
-0.04227227 -0.17272103 -0.15344954 -0.1258028 0.072277084 0.1415364 0.14285342 0.17638837
-0.12851284 -0.16034117 -0.08779422 0.17019965 -0.17606086 0.0736634 -0.06688498 0.015646324
0.17462255 0.07125799 0.0870053 -0.07473393 -0.03130491 0.061071157 0.06469886 0.0021802932
0.08734392 0.08427815 0.10785942 0.15123497 0.1421002 -0.10222366 -0.0021800846 0.031079829
0.023959637 0.136389 -0.17216977 0.001726076 -0.07889783 0.11729269 -0.099469066 -0.04049425
-0.01571083 0.029475614 0.0145543665 -0.04674551 -0.12109217 -0.089196235 -0.006022021 0.10252075
-0.09900701 0.075752184 -0.09459561 0.15913735 -0.11011654 0.08038111 0.013494194 -0.10180873
0.16454084 0.07632731 0.005031422 -0.121385455 -0.14436954 -0.13207963 -0.09050827 -0.05033113
-0.02964127 0.037438497 -0.047613308 0.042324767 0.108375266 -0.09761914 0.066384956 0.07554568
-0.12169563 -0.03156942 -0.04976386 0.16012047 -0.08963471 -0.008789659 0.016072467 -0.06466859
-0.15676467 0.11033906 0.13744806 0.17117916 -0.07169695 -0.08255305 -0.14087021 -0.08573826
-0.12617436 -0.0070248395 -0.1446324 0.15687974 0.026695728 -0.040619597 0.11973907 -0.12634474
-0.118822604 0.15207787 -0.006087035 0.028428927 -0.05441457 0.06554037 -0.11143812 -0.10925051
0.06131056 -0.112201124 0.06284326 0.13111742 0.05377099 0.12735309 0.033469766 -0.06436772
-0.07682123 -0.06447884 0.008508697 -0.10921057 0.17545281 -0.0008954257 0.0046776533 0.03971468

convList.2.nn.2.bias f4 [32]
00000000: c645 a53d 1fd2 1b3e 008e 623d 7076 6b3d
00000010: de10 eebd 849d 563d eda8 efbd 97a4 013e
00000020: 5e98 b63d fe07 bd3d 7067 aabd c010 f93c
00000030: 3023 6ebd 82fa e9bd 5c85 22bd 1f66 193e
00000040: ac61 46bd b9b9 1e3e 98bb e7bd 8de2 d0bd
00000050: ebb0 b3bd a0db 39bc 1d95 e5bd 8d69 8ebd
00000060: f4b9 0ebd 8e53 e23d 40ac 72bb c3e3 0d3e
00000070: f2a3 2ebe 40ef ed3c c4b6 7cbd 1247 bb3d
0.08069949 0.15216874 0.055311203 0.057485998 -0.11624311 0.052396312 -0.11702142 0.12660442
0.089157805 0.0923004 -0.083205104 0.030403495 -0.058139026 -0.11424734 -0.039677963 0.14980362
-0.04843299 0.15500535 -0.113150775 -0.10199461 -0.08773979 -0.011343867 -0.11210082 -0.06953726
-0.034845307 0.11051093 -0.0037028939 0.13856415 -0.17054728 0.029044747 -0.061697736 0.09144415

bns.0.weight f4 [32]
00000000: 0000 803f 0000 803f 0000 803f 0000 803f
00000010: 0000 803f 0000 803f 0000 803f 0000 803f
00000020: 0000 803f 0000 803f 0000 803f 0000 803f
00000030: 0000 803f 0000 803f 0000 803f 0000 803f
00000040: 0000 803f 0000 803f 0000 803f 0000 803f
00000050: 0000 803f 0000 803f 0000 803f 0000 803f
00000060: 0000 803f 0000 803f 0000 803f 0000 803f
00000070: 0000 803f 0000 803f 0000 803f 0000 803f
1.0 1.0 1.0 1.0 1.0 1.0 1.0 1.0
1.0 1.0 1.0 1.0 1.0 1.0 1.0 1.0
1.0 1.0 1.0 1.0 1.0 1.0 1.0 1.0
1.0 1.0 1.0 1.0 1.0 1.0 1.0 1.0

bns.0.bias f4 [32]
00000000: 0000 0000 0000 0000 0000 0000 0000 0000
00000010: 0000 0000 0000 0000 0000 0000 0000 0000
00000020: 0000 0000 0000 0000 0000 0000 0000 0000
00000030: 0000 0000 0000 0000 0000 0000 0000 0000
00000040: 0000 0000 0000 0000 0000 0000 0000 0000
00000050: 0000 0000 0000 0000 0000 0000 0000 0000
00000060: 0000 0000 0000 0000 0000 0000 0000 0000
00000070: 0000 0000 0000 0000 0000 0000 0000 0000
0.0 0.0 0.0 0.0 0.0 0.0 0.0 0.0
0.0 0.0 0.0 0.0 0.0 0.0 0.0 0.0
0.0 0.0 0.0 0.0 0.0 0.0 0.0 0.0
0.0 0.0 0.0 0.0 0.0 0.0 0.0 0.0

bns.0.running_mean f4 [32]
00000000: 0000 0000 0000 0000 0000 0000 0000 0000
00000010: 0000 0000 0000 0000 0000 0000 0000 0000
00000020: 0000 0000 0000 0000 0000 0000 0000 0000
00000030: 0000 0000 0000 0000 0000 0000 0000 0000
00000040: 0000 0000 0000 0000 0000 0000 0000 0000
00000050: 0000 0000 0000 0000 0000 0000 0000 0000
00000060: 0000 0000 0000 0000 0000 0000 0000 0000
00000070: 0000 0000 0000 0000 0000 0000 0000 0000
0.0 0.0 0.0 0.0 0.0 0.0 0.0 0.0
0.0 0.0 0.0 0.0 0.0 0.0 0.0 0.0
0.0 0.0 0.0 0.0 0.0 0.0 0.0 0.0
0.0 0.0 0.0 0.0 0.0 0.0 0.0 0.0

bns.0.running_var f4 [32]
00000000: 0000 803f 0000 803f 0000 803f 0000 803f
00000010: 0000 803f 0000 803f 0000 803f 0000 803f
00000020: 0000 803f 0000 803f 0000 803f 0000 803f
00000030: 0000 803f 0000 803f 0000 803f 0000 803f
00000040: 0000 803f 0000 803f 0000 803f 0000 803f
00000050: 0000 803f 0000 803f 0000 803f 0000 803f
00000060: 0000 803f 0000 803f 0000 803f 0000 803f
00000070: 0000 803f 0000 803f 0000 803f 0000 803f
1.0 1.0 1.0 1.0 1.0 1.0 1.0 1.0
1.0 1.0 1.0 1.0 1.0 1.0 1.0 1.0
1.0 1.0 1.0 1.0 1.0 1.0 1.0 1.0
1.0 1.0 1.0 1.0 1.0 1.0 1.0 1.0

bns.1.weight f4 [32]
00000000: 0000 803f 0000 803f 0000 803f 0000 803f
00000010: 0000 803f 0000 803f 0000 803f 0000 803f
00000020: 0000 803f 0000 803f 0000 803f 0000 803f
00000030: 0000 803f 0000 803f 0000 803f 0000 803f
00000040: 0000 803f 0000 803f 0000 803f 0000 803f
00000050: 0000 803f 0000 803f 0000 803f 0000 803f
00000060: 0000 803f 0000 803f 0000 803f 0000 803f
00000070: 0000 803f 0000 803f 0000 803f 0000 803f
1.0 1.0 1.0 1.0 1.0 1.0 1.0 1.0
1.0 1.0 1.0 1.0 1.0 1.0 1.0 1.0
1.0 1.0 1.0 1.0 1.0 1.0 1.0 1.0
1.0 1.0 1.0 1.0 1.0 1.0 1.0 1.0

bns.1.bias f4 [32]
00000000: 0000 0000 0000 0000 0000 0000 0000 0000
00000010: 0000 0000 0000 0000 0000 0000 0000 0000
00000020: 0000 0000 0000 0000 0000 0000 0000 0000
00000030: 0000 0000 0000 0000 0000 0000 0000 0000
00000040: 0000 0000 0000 0000 0000 0000 0000 0000
00000050: 0000 0000 0000 0000 0000 0000 0000 0000
00000060: 0000 0000 0000 0000 0000 0000 0000 0000
00000070: 0000 0000 0000 0000 0000 0000 0000 0000
0.0 0.0 0.0 0.0 0.0 0.0 0.0 0.0
0.0 0.0 0.0 0.0 0.0 0.0 0.0 0.0
0.0 0.0 0.0 0.0 0.0 0.0 0.0 0.0
0.0 0.0 0.0 0.0 0.0 0.0 0.0 0.0

bns.1.running_mean f4 [32]
00000000: 0000 0000 0000 0000 0000 0000 0000 0000
00000010: 0000 0000 0000 0000 0000 0000 0000 0000
00000020: 0000 0000 0000 0000 0000 0000 0000 0000
00000030: 0000 0000 0000 0000 0000 0000 0000 0000
00000040: 0000 0000 0000 0000 0000 0000 0000 0000
00000050: 0000 0000 0000 0000 0000 0000 0000 0000
00000060: 0000 0000 0000 0000 0000 0000 0000 0000
00000070: 0000 0000 0000 0000 0000 0000 0000 0000
0.0 0.0 0.0 0.0 0.0 0.0 0.0 0.0
0.0 0.0 0.0 0.0 0.0 0.0 0.0 0.0
0.0 0.0 0.0 0.0 0.0 0.0 0.0 0.0
0.0 0.0 0.0 0.0 0.0 0.0 0.0 0.0

bns.1.running_var f4 [32]
00000000: 0000 803f 0000 803f 0000 803f 0000 803f
00000010: 0000 803f 0000 803f 0000 803f 0000 803f
00000020: 0000 803f 0000 803f 0000 803f 0000 803f
00000030: 0000 803f 0000 803f 0000 803f 0000 803f
00000040: 0000 803f 0000 803f 0000 803f 0000 803f
00000050: 0000 803f 0000 803f 0000 803f 0000 803f
00000060: 0000 803f 0000 803f 0000 803f 0000 803f
00000070: 0000 803f 0000 803f 0000 803f 0000 803f
1.0 1.0 1.0 1.0 1.0 1.0 1.0 1.0
1.0 1.0 1.0 1.0 1.0 1.0 1.0 1.0
1.0 1.0 1.0 1.0 1.0 1.0 1.0 1.0
1.0 1.0 1.0 1.0 1.0 1.0 1.0 1.0

bns.2.weight f4 [32]
00000000: 0000 803f 0000 803f 0000 803f 0000 803f
00000010: 0000 803f 0000 803f 0000 803f 0000 803f
00000020: 0000 803f 0000 803f 0000 803f 0000 803f
00000030: 0000 803f 0000 803f 0000 803f 0000 803f
00000040: 0000 803f 0000 803f 0000 803f 0000 803f
00000050: 0000 803f 0000 803f 0000 803f 0000 803f
00000060: 0000 803f 0000 803f 0000 803f 0000 803f
00000070: 0000 803f 0000 803f 0000 803f 0000 803f
1.0 1.0 1.0 1.0 1.0 1.0 1.0 1.0
1.0 1.0 1.0 1.0 1.0 1.0 1.0 1.0
1.0 1.0 1.0 1.0 1.0 1.0 1.0 1.0
1.0 1.0 1.0 1.0 1.0 1.0 1.0 1.0

bns.2.bias f4 [32]
00000000: 0000 0000 0000 0000 0000 0000 0000 0000
00000010: 0000 0000 0000 0000 0000 0000 0000 0000
00000020: 0000 0000 0000 0000 0000 0000 0000 0000
00000030: 0000 0000 0000 0000 0000 0000 0000 0000
00000040: 0000 0000 0000 0000 0000 0000 0000 0000
00000050: 0000 0000 0000 0000 0000 0000 0000 0000
00000060: 0000 0000 0000 0000 0000 0000 0000 0000
00000070: 0000 0000 0000 0000 0000 0000 0000 0000
0.0 0.0 0.0 0.0 0.0 0.0 0.0 0.0
0.0 0.0 0.0 0.0 0.0 0.0 0.0 0.0
0.0 0.0 0.0 0.0 0.0 0.0 0.0 0.0
0.0 0.0 0.0 0.0 0.0 0.0 0.0 0.0

bns.2.running_mean f4 [32]
00000000: 0000 0000 0000 0000 0000 0000 0000 0000
00000010: 0000 0000 0000 0000 0000 0000 0000 0000
00000020: 0000 0000 0000 0000 0000 0000 0000 0000
00000030: 0000 0000 0000 0000 0000 0000 0000 0000
00000040: 0000 0000 0000 0000 0000 0000 0000 0000
00000050: 0000 0000 0000 0000 0000 0000 0000 0000
00000060: 0000 0000 0000 0000 0000 0000 0000 0000
00000070: 0000 0000 0000 0000 0000 0000 0000 0000
0.0 0.0 0.0 0.0 0.0 0.0 0.0 0.0
0.0 0.0 0.0 0.0 0.0 0.0 0.0 0.0
0.0 0.0 0.0 0.0 0.0 0.0 0.0 0.0
0.0 0.0 0.0 0.0 0.0 0.0 0.0 0.0

bns.2.running_var f4 [32]
00000000: 0000 803f 0000 803f 0000 803f 0000 803f
00000010: 0000 803f 0000 803f 0000 803f 0000 803f
00000020: 0000 803f 0000 803f 0000 803f 0000 803f
00000030: 0000 803f 0000 803f 0000 803f 0000 803f
00000040: 0000 803f 0000 803f 0000 803f 0000 803f
00000050: 0000 803f 0000 803f 0000 803f 0000 803f
00000060: 0000 803f 0000 803f 0000 803f 0000 803f
00000070: 0000 803f 0000 803f 0000 803f 0000 803f
1.0 1.0 1.0 1.0 1.0 1.0 1.0 1.0
1.0 1.0 1.0 1.0 1.0 1.0 1.0 1.0
1.0 1.0 1.0 1.0 1.0 1.0 1.0 1.0
1.0 1.0 1.0 1.0 1.0 1.0 1.0 1.0
