pretrained_models/Synthie/epoch_200_NodeCLModel_withoutAGMTT_withMLP.pth (torch, 35243 bytes, 24 tensors)

convList.0.nn.0.weight f4 [32, 15]
00000000: 4537 733e 3995 14be bbf2 123e f559 973d
00000010: 598d cdbd a6ea b93d 1ec4 353d f3a5 1f3e
00000020: 9373 853e f879 ef3d d737 8ebd 5189 823e
00000030: ae63 debd edca 85bc 9570 cebd 8ecc 40be
00000040: 2b1d f5bb 9175 6b3d 0ccc 03bd 5388 0bbe
00000050: fa0d d1bd 503b 80bd f595 85be 6145 b13d
00000060: a9d4 83be 7349 c4bc 5b30 3b3d 1a71 d8bd
00000070: fae4 56be 97b2 b03d 5c73 c83c b81c 38be
00000080: c0f9 cb3c b0a5 7a3e 4d1d cdbd 5af7 b8bd
00000090: 9018 143d b08a 55be b7da 3cbc 499f 0fbe
000000a0: 0cf1 25bd dcad 5d3d be0e c0bd 2694 f63d
000000b0: 1ae2 66be bfbf 85bd 8932 16be 0901 603d
000000c0: 0739 e03d 4f1e 033e 6205 5bbd 168e 113e
000000d0: 5043 573e dadf 943e 7d89 a63d 4943 f4bd
000000e0: cbea bb3d a9bf 83bd 9bbf 1f3d 7676 063e
000000f0: 2b6d 2d3e 90cf 2ebe cddf 3a3d ef2c 3bbe
00000100: 5847 523e 9470 b63d a63e 7f3e 6e18 353e
00000110: d5db 81be e25e 893e 42ca 22bc 0fa5 10be
00000120: f2b1 e43d 2e1a a43d 9df9 583e 6a68 c1bb
00000130: a31e ddbd 6369 44be b61f 1b3e dae0 9bbd
00000140: 66d4 5ebe 188c 8ebd 16cc dcbc 2eef fc3d
00000150: 2242 67be a402 e13c 111a 203e f562 16be
00000160: c1ed b2bc 5690 d6bd 07f6 153d 1425 10be
00000170: 4d67 193d 89e2 453d 848f f8bd 1882 2fbe
00000180: 0fab 1a3b 7dc5 29bd 2eaf 313e c02e 80be
00000190: 1b5f 183e 0e0c 90bc 23a4 17be 38bd 863d
000001a0: c8b2 5d3d 10ee e73d f630 ad3d a534 c63d
000001b0: bbcc 543e 8608 dabd 00ba 22be 8d1e a8bd
000001c0: 6208 fabc 6056 2cbd 9b77 73be 951a f43d
000001d0: 6a95 673d fb4f 0ebe baee d33c 2082 e6bd
000001e0: 14c5 09be c819 a0bc 6bf9 2c3c dae8 1cbe
000001f0: eb72 0abe fa7e 83be 8d54 8bbd e609 e63d
00000200: 93a1 be3d eebd 313d 6b75 2ebe 870d 61be
00000210: 74a0 f93a 7bd0 b23d 68d7 543e 8585 683d
00000220: f4ea 493e 15d3 e8bd e7bf a7bd 3a2e 36be
00000230: ba5c 22be df04 06be 4f1e 69bc 5a97 e23d
00000240: c9d6 0c3e c60c ccbd 0a44 453d 35fb f4bd
00000250: 260d 7f3d 9679 4abc 86e3 133e 5741 073e
00000260: 591e febd 5fe4 983d 6f2a 093e 4397 033e
00000270: c1d5 d7bd 57a3 8fbc 585c 9ebe 7ad8 a8be
00000280: ccb5 82bd 9bce b23c 9a1e 303c c3f1 4f3e
00000290: 7e6c 00bd 865d 54be dc6c 043e 4be6 dfbd
000002a0: b6e4 233c 16fe 113e a250 02be ea03 bbbd
000002b0: 7afc d0bd 8df4 36be 306a 013e b626 023e
000002c0: 24df afbd 58e8 dd3c 47b6 0f3d 7d2c 11be
000002d0: 454d 26bc 2bdb 3abe 41f6 ae3d 1a64 9dbd
000002e0: 7155 debc 3b78 be3c e374 adb9 0515 05be
000002f0: 1782 433e 168c f63d c1d6 8abd d158 ef3b
00000300: bedb 123e 5c68 2bbd 4fb0 ca3d 66ce 5d3d
00000310: cade 3b3e 8668 77bd 3b0f fe3b 9d99 c43b
00000320: 6bef 343d aee9 753c 7246 5f3e 0b72 11be
00000330: d9f2 48be b89d 10bd ed11 a0bd 3bbc cd3d
00000340: 9cc8 12be b66f 10be 6d4c d6bd 8518 f6bd
00000350: ab5c 103e e36a 43bd f0d7 293d 3eb3 a7bd
00000360: 8217 82bd 4561 123e be3d f43d da38 2b3e
00000370: 0738 08be 7e75 223d f7e0 373e 7133 44bd
00000380: 4ad7 1b3e c52f d5bc e682 8ebc 3408 0c3e
00000390: f4b4 5e3e 6bae 72be 7cdf 68bd a115 d63d
000003a0: 1fe6 1dbe 5f48 de3d cb30 e13d e518 b1bd
000003b0: 790b 63bd 2d4b 3dbe 58c6 a0bc 7252 2d3d
000003c0: 06c3 dc3d 9c07 d0bd 89ba 98bd e867 33bd
000003d0: b4c1 b9bc b691 00be f979 1bbd 0740 37be
000003e0: a152 83bd 0d25 7cbd 3531 18bd b981 cb3d
000003f0: 1d16 1c3d 537e ca3d 2772 203e a7a7 a53d
0.23751552 -0.14510049 0.14350407 0.07390205 -0.100367256 0.09077959 0.044376485 0.15590648
0.2606474 0.116931856 -0.06944244 0.2549539 -0.10858856 -0.016332114 -0.10080067 -0.18828031
-0.0074802837 0.057485167 -0.032177016 -0.13626222 -0.10207744 -0.06261313 -0.2609097 0.08655811
-0.25748184 -0.023960805 0.045700412 -0.105684474 -0.20985785 0.08627813 0.02446907 -0.17979705
0.024899364 0.24477267 -0.10015354 -0.090315536 0.036156237 -0.20853686 -0.011526755 -0.14025606
-0.040513083 0.054120883 -0.09377812 0.12039976 -0.22547188 -0.06530713 -0.14667715 0.054688487
0.10948377 0.1280453 -0.05347193 0.14214358 0.21021771 0.29077035 0.081316926 -0.11926896
0.091756426 -0.06433041 0.03900109 0.13131127 0.16936176 -0.17071366 0.04562359 -0.1827886
0.20535028 0.08908191 0.24926242 0.176851 -0.2536303 0.26830202 -0.009935917 -0.14125465
0.11166753 0.08012806 0.2118897 -0.0059023397 -0.10796859 -0.19180827 0.15148816 -0.076112464
-0.21760711 -0.069603145 -0.026952785 0.123503074 -0.22583821 0.02746708 0.15634944 -0.14686187
-0.021841886 -0.10476749 0.036611583 -0.14076644 0.03745203 0.048311744 -0.121367484 -0.1713947
0.0023600494 -0.041448105 0.17351982 -0.25035667 0.1488003 -0.017583873 -0.14808707 0.06579059
0.054125577 0.11324704 0.08456604 0.0967801 0.20781223 -0.10646157 -0.15891266 -0.08208952
-0.030521575 -0.04207456 -0.23776095 0.119191326 0.056538977 -0.13897698 0.02587067 -0.11255288
-0.13454086 -0.019543543 0.010557513 -0.15323201 -0.135204 -0.25682813 -0.06803236 0.11232357
0.093081616 0.04339402 -0.17036979 -0.21977817 0.0019045011 0.08731171 0.20785296 0.05676796
0.19718534 -0.11368386 -0.08190899 -0.17791072 -0.15855685 -0.13087796 -0.014228418 0.11064024
0.13753809 -0.09963374 0.04816059 -0.119619764 0.0622684 -0.01235809 0.14442262 0.13208519
-0.12408132 0.07465433 0.13395093 0.1285067 -0.10538817 -0.017533941 -0.30929828 -0.3297766
-0.06382331 0.021827033 0.0107494835 0.20307069 -0.031353466 -0.20738801 0.12932152 -0.10932597
0.010003259 0.14257082 -0.12726071 -0.09131606 -0.10204406 -0.17866726 0.12638164 0.1271008
-0.085874826 0.02708833 0.035085943 -0.14177127 -0.010150258 -0.18247668 0.08543063 -0.076851085
-0.027140351 0.02325069 -0.0003308422 -0.129963 0.19092594 0.12038438 -0.06779242 0.007304289
0.14341637 -0.04184757 0.098969094 0.054151915 0.18346706 -0.060402416 0.0077532805 0.0059997574
0.04417364 0.015009327 0.21804217 -0.1420366 -0.19623889 -0.035306662 -0.07815919 0.10045668
-0.14334339 -0.14105114 -0.10463796 -0.120163955 0.1409785 -0.047709357 0.0414657 -0.081884846
-0.0635214 0.14294918 0.11925839 0.16720906 -0.13302623 0.03966283 0.17956911 -0.04790062
0.15218845 -0.026023755 -0.017396402 0.13675004 0.21748716 -0.23699348 -0.056853756 0.10453344
-0.15419815 0.108536474 0.10995635 -0.086473264 -0.055430863 -0.18485709 -0.019625828 0.042314954
0.10779385 -0.101577014 -0.07457454 -0.043800265 -0.022675373 -0.12555584 -0.03795812 -0.17895518
-0.064122446 -0.061558772 -0.037156302 0.09936852 0.038107026 0.09887376 0.15668546 0.08088618

convList.0.nn.0.bias f4 [32]
00000000: cf7d 9b3e 2186 c23e 666d fbbe 6502 153e
00000010: 4ea5 c5be f573 1a3e 9c41 4e3c b5cd f1bd
00000020: 04ac f43d 7097 c8be 62fe cbbe b9d1 9cbe
00000030: a16b 31be 4070 d9bc 0a2e 543f 5c19 593e
00000040: 0aaf f5bd 119f 823d 8cc0 13be 6c18 26bf
00000050: a414 91be ebff 783e 9c37 b5bc c54b f2bd
00000060: 66f5 bbbe fa23 e2be 13ef a03c e7be e5bc
00000070: 0bac 8dbe 13b6 8dbc b286 03bf f669 2d3e
0.30369422 0.37992957 -0.49106902 0.14551695 -0.3860268 0.15083297 0.012588885 -0.11806814
0.11946872 -0.39178038 -0.39842516 -0.30628756 -0.17326213 -0.026542783 0.8288275 0.2120108
-0.11996277 0.06377996 -0.1442892 -0.64881015 -0.2833606 0.24316375 -0.022121243 -0.11830858
-0.36710662 -0.44168073 0.01964525 -0.02804513 -0.2767032 -0.017298734 -0.51377404 0.16934952

convList.0.nn.2.weight f4 [32, 32]
00000000: 0d22 173d b5e4 4bbd c7e5 60bd 2955 9d3d
00000010: b921 b53c 706b 84be 5627 e23d 93d8 93bd
00000020: 0c10 a3bd b603 2bbd c43e d63d 69bd 24be
00000030: 03ab 4e3d e8bf 4bbd 252c d7bd ade7 41bc
00000040: 8804 54bc 4f5f 323b 0a1a e13d 981a d53c
00000050: c74c 3d3c 80b6 9bbd 4510 6dbb d36f fb3c
00000060: 9aab b33d d4cf 0ebd a2d8 aa3c 9584 17be
00000070: 02bd 0f3e 9240 ab3d ce6c b73d 9721 b1bd
00000080: 91ac 12bd 3c49 43bc 791e 1cbd 0ea8 3bbd
00000090: 26ba f23d 3eb3 a8bd 6c2d 4b3d 3200 d3bc
000000a0: 53a7 12be 7128 763c 9228 5c3c 7ebd ab3d
000000b0: dd0e 243d 3e77 863d a1ba 18be 4bad 0cbd
000000c0: 23f4 c53d 9711 b63d 4e3d cc3a 137e 08bc
000000d0: bbfa 3a3d 46ed e8bc c5ef 6fbc 534f 873d
000000e0: 6cd6 59bc 3df1 03bc e2ad 473b 642c 66bd
000000f0: 8f57 3cbd b83b afbe fe67 a53d b69a d23d
00000100: fa51 1b3d 25e9 333c 1602 d9bc 9f8f 9ebc
00000110: 3ff2 b53d 57b1 68bc c3cd b23d 93aa 57be
00000120: a08f a43d 6e60 093d d55f ccbd 0b0e 613d
00000130: 372c a33c 53a5 fc3d 5269 e5bd 5f2d c3bc
00000140: 2034 e2bb a182 c0bc e41d 83bd 311e c8bc
00000150: 3b17 62bb 65ec c0bd ed65 d13c aa18 cdbc
00000160: f667 17bd bdc9 fc3d 3c39 3abe 8eea 3dbd
00000170: e29f f53c 9829 babd 72d7 d53d 2a60 da3d
00000180: 3d5c 933d 6012 d23b 3fb8 003c 1548 0a3d
00000190: 65f7 32bb 1a02 fe3c e40b bc3c d3e8 babd
000001a0: 4d1f e93c d63c a33d 9e7f 3e3b bcb5 ab3d
000001b0: c1bf b6bd 9fdd 9cbc 1178 91bd 1571 013d
000001c0: 73aa 0fbd 322e 813b 8b18 52bd c760 103e
000001d0: e92e 59bc 35b2 ec3c 0193 a7bd ec2a 993d
000001e0: 3a96 84bd 721a 81bc baa2 47bd e358 733d
000001f0: 5abf 89bd 9803 ff3d 1984 ab3d 5447 c63d
00000200: e17c 6d3d 93ea 88bd d721 0fbd d600 c4bc
00000210: 1283 83bc b796 d83d 3bb7 2e3d 8808 373d
00000220: dcc9 a53d 5943 b2bc 463f 31be 7d5f a23d
00000230: 0008 043e c766 c43d b561 a73d e999 303d
00000240: 7c0f 1a3e 5669 103d b8d2 c5bd 1b58 a2bd
00000250: 4adc e5bb 2610 24bd a657 b2bd b2c1 b33d
00000260: 0375 2fbd 5747 56bd f7c1 533c 0ef8 ccbc
00000270: c374 493d 634e ccbb 5234 2cbd 82bb b8bd
00000280: 117c 3cbe 1744 52bd 6ec4 363e ca4e 0a3d
00000290: 93a0 afbd e5b0 ca3b 4efc 7738 66b7 9cbb
000002a0: b83f e9bd f9c4 623c 8a72 24bd 49ff 94bd
000002b0: adde 4bbe 0475 343d 285f 4d3e 8ab5 cfbd
000002c0: 0097 cf3d aeff 80bd b7a9 0ebd 6c89 eb3d
000002d0: 7c41 0e3d c414 f23d 12a0 1b3d 0caf 39be
000002e0: 1490 cabd 535f 1a3d 4cb4 39be 6a20 1a3d
000002f0: 7c4e 393d 43ae aa3c 6510 b3bd cab5 2fbd
00000300: 5197 8cbd 607b cbbc 2816 19bd db09 583d
00000310: 93cb fa3d 10f1 c73c 9530 c33c 4fba a1bc
00000320: 4144 5dbd 4afe a5bb e432 963d ccbc dbbd
00000330: 5198 473d e41b acbd 0d5f 37be edd3 bfbc
00000340: d703 2c3d 18ef f23d 60e4 0d3d 4302 273d
00000350: 8206 433d b57e 9bbe 455b 07be 0020 133e
00000360: ada6 c1bd c724 153e b390 823d dac0 c0bd
00000370: 6e49 e6bc dcb8 47bc 0bee 9bbc e284 a1bd
00000380: 2bb2 a7bd b2e0 8abd 2b72 58bd 8139 75bd
00000390: 45e0 57bb f7f1 943d 1d0c 08bd b005 193d
000003a0: df8c 723c ef24 89bc 970c 303b 7f71 50bd
000003b0: adf5 23be 6e90 d7bd 80a1 173e 8746 afbd
000003c0: c4d2 e13c b578 edbd 42ed 4c3c 098d 3f3e
000003d0: 93f9 0c3d e985 15bd d486 8a3d 1376 bebe
000003e0: 3975 a23d 4ecc 0abd ca18 a3bd 1a39 1b3d
000003f0: 1707 a43d 3913 903d 5eae f93c f8b2 15be
0.036897708 -0.04977866 -0.054906633 0.07682259 0.022110807 -0.25863218 0.11042659 -0.07219043
-0.07962045 -0.041751586 0.1046119 -0.16087879 0.05045606 -0.049743563 -0.10506467 -0.011835021
-0.012940533 0.0027217453 0.10991295 0.026013657 0.01155395 -0.076031685 -0.0036173027 0.03069297
0.08772965 -0.03486617 0.020855252 -0.1479667 0.14036945 0.08361925 0.089563 -0.08648985
-0.035809103 -0.011919316 -0.038115 -0.045814566 0.11851911 -0.08237313 0.049603865 -0.02575693
-0.14321642 0.01502429 0.013437407 0.08385752 0.040053237 0.065657124 -0.14914943 -0.034344953
0.09665706 0.08890074 0.0015582235 -0.00833084 0.04564927 -0.028433453 -0.014644568 0.06606927
-0.013295751 -0.008053121 0.0030468632 -0.056194678 -0.04598194 -0.3422525 0.080764756 0.10283415
0.037919976 0.010980879 -0.026490252 -0.019355593 0.088840954 -0.014202437 0.08730652 -0.21061163
0.08035207 0.03353923 -0.09979216 0.054945033 0.019918544 0.123362206 -0.11201729 -0.023825346
-0.0069031864 -0.023499789 -0.064021856 -0.024428459 -0.003449871 -0.09420089 0.025561297 -0.025036175
-0.03696438 0.12343166 -0.18185896 -0.046366267 0.029983465 -0.09089965 0.104414836 0.10662873
0.071953274 0.006410882 0.007856428 0.03376015 -0.0027308103 0.031006861 0.022954889 -0.09126439
0.028457308 0.07970588 0.0029067765 0.083842725 -0.08923293 -0.019148646 -0.07102979 0.031601984
-0.035074662 0.0039422745 -0.051292937 0.14099418 -0.013255813 0.02889357 -0.08182336 0.0747889
-0.06473966 -0.01575968 -0.048739173 0.05941094 -0.067259505 0.12451857 0.08374805 0.096815735
0.057980422 -0.066853665 -0.03494438 -0.02392618 -0.01605371 0.105756216 0.04265521 0.04468587
0.08095142 -0.02176063 -0.17309293 0.07928369 0.12893677 0.09589916 0.08172933 0.04311553
0.1504497 0.035256706 -0.09659332 -0.07926961 -0.007014786 -0.040054463 -0.08708124 0.08777179
-0.0428362 -0.05231413 0.012924663 -0.025020625 0.04918362 -0.0062349304 -0.042042084 -0.09020139
-0.18406703 -0.051334467 0.1784837 0.033766545 -0.08575549 0.0061856383 5.9124366e-05 -0.004782605
-0.113891065 0.013840907 -0.040148295 -0.07275254 -0.19909163 0.044056907 0.2005583 -0.10142048
0.10136223 -0.06298767 -0.03482982 0.115008205 0.03473042 0.11820367 0.03799445 -0.18133181
-0.09890762 0.037688565 -0.18135184 0.03762857 0.045240864 0.020835048 -0.087433614 -0.042897977
-0.06864799 -0.024839103 -0.037374645 0.052743774 0.1224586 0.02440694 0.023826877 -0.01974216
-0.05402017 -0.005065714 0.07333925 -0.107293695 0.048729245 -0.08403757 -0.17907353 -0.023416484
0.04199585 0.1186201 0.034641623 0.04077364 0.04761363 -0.30370107 -0.1321841 0.14367676
-0.09455619 0.1456481 0.063752554 -0.094117835 -0.028111186 -0.01219007 -0.019034406 -0.078866735
-0.0818828 -0.067811385 -0.052843254 -0.059869293 -0.0032940072 0.07272714 -0.033214677 0.03735894
0.014804094 -0.016741244 0.0026862973 -0.05088949 -0.16011687 -0.10525595 0.14807701 -0.08558374
0.027566321 -0.11595289 0.012507739 0.18706144 0.0344177 -0.03650466 0.06763998 -0.37199458
0.07932515 -0.033886246 -0.079637125 0.037896253 0.08009165 0.070349164 0.030478653 -0.14619052

convList.0.nn.2.bias f4 [32]
00000000: 386e e7be 808b 21bf 3d93 3cbf 2d57 30bf
00000010: a0a2 08bf dc3c f4be bb11 b4be 5de8 16bf
00000020: c553 09bf 5558 f0be 8ea3 0bbf 67bc dbbe
00000030: 55ef 9abe 0136 1dbf 50b0 0fbf f30b 26bf
00000040: 2aac 28bf 46da 1dbf 52e4 f0be 9927 0bbf
00000050: 70ba 2dbf e0ac 08bf d96f cfbe 8b71 21bf
00000060: 1d47 dfbe adcc e4be ef59 7cbd e476 24bf
00000070: 7cad 33bf 75e7 08bf d22e 15bf 64ec eebe
-0.45201278 -0.63103485 -0.7366217 -0.6888302 -0.53373146 -0.47702682 -0.35169777 -0.5894831
-0.5364345 -0.46942392 -0.5454644 -0.42917177 -0.3026072 -0.6141053 -0.56128407 -0.64861983
-0.658877 -0.61661184 -0.47049195 -0.54357296 -0.67862606 -0.53388786 -0.4051502 -0.6306388
-0.43608943 -0.44687405 -0.061609205 -0.6424391 -0.7018659 -0.53478175 -0.5827457 -0.46664727

convList.1.nn.0.weight f4 [32, 32]
00000000: 9788 8ebd 2e20 12be e9bc 0dbd 2d87 4b3c
00000010: 6ba1 a2bc 39fa ee3d c465 923d 1653 babd
00000020: bd2e 64bd 57f7 b23c b6a8 f8bd 9376 33bd
00000030: 6605 2dbd 039a b3bc ee5c 0e3d 5a59 773d
00000040: 3e93 64bc c036 ed3d a6ff b83d 9d40 5a3d
00000050: adb4 123e 2069 853d bb4b c5bb 9621 843d
00000060: b616 4ebd 92b2 52be e1a5 6c3d 3562 53bc
00000070: 09aa 16bd e25a b23c f3e4 9d3d 553f a53d
00000080: 14a4 c23d ca9a e93c 7f50 6e3c e6d5 5dbd
00000090: 20da 093c e8bb f9ba d371 7d3c 0fbd 653d
000000a0: fc06 0cbc 77aa 27bd 8b6a 6b3e f914 a5bc
000000b0: 563e eb3d 8da3 9b3d ae02 12bd 61b8 ac3a
000000c0: bbf1 17be e89a fabc 7a59 8abc b6ba 963c
000000d0: 9e05 36bd e488 f8bd 7bcc dfbb 4e08 333d
000000e0: 3a78 123d 8e94 0e3e 7867 433e 4264 2fbd
000000f0: b8ae 9a3d 0763 693d e968 8ebc 908b 37be
00000100: 5c69 6d3d 26e8 1bbb d3cd 0cbd eac7 88bd
00000110: 5441 74bd 0013 8d3d b502 9bbd dafc bcbc
00000120: 62d1 bcbb 8bbb 533d 411d 8e3b fcf9 de3b
00000130: ce90 013d 2f93 773d 3b96 16bd c444 5bbd
00000140: fb4b a63c 2181 33be 3a56 1c3d cd24 a6bb
00000150: 1a70 113d 8f3e 4abe 19a9 873c 36bf ab3d
00000160: fb69 273d 132e 0d3d 2e33 7d3b 2fec 813d
00000170: 1595 cd3b f08f aa3b 4c6a d0bd 372e dcbd
00000180: 1809 1cbc e700 e8bc bdd8 1fbe 7263 08be
00000190: d920 e33c 70f2 1c3b 0971 ae3d de88 ee3c
000001a0: 3f68 f4bc 4e81 f03d 704c db3d 0ee5 b13d
000001b0: a17d e83c ee58 6f3d 26bc 5a3d 53b1 123e
000001c0: 6a5a fd3b 9930 f5bd a143 3a3d eec5 603d
000001d0: f6d6 4b3b 215d 8ebc 0911 763d 27c6 bd3c
000001e0: 3dea 113d 9f4c 833d ced4 b13d 0b68 0cbd
000001f0: 45bb cdbc 389a 8a3a a529 663c a6b7 13be
00000200: 9e49 eb3c 313c 343e 3fcf 703d 8d8f 073d
00000210: 23df 2a3d 6f81 51bd f350 733d a33d 36be
00000220: ac34 a23d 5021 29be bcfd cfbc 9765 f9bd
00000230: 5b5e 713d d552 de3a ebf9 52bd 7595 48be
00000240: 3587 443c 437e b93d 93c7 0cbd bc10 c7bd
00000250: d46f 16be 0208 073d 3bde c3bd f99f 19bd
00000260: f31b 243d c0f9 6e3d f303 713e d01f 093d
00000270: 3f00 053e b337 0cbe 3c6b ca3c 98f8 c33d
00000280: 29f1 9f3d 0a46 f03d 9b6d 0e3c 5589 03bd
00000290: d68a 453d 4743 683d 8f79 f03c dea3 90bb
000002a0: 07ea 3c3d 401e be3c ffcb e43c bd21 0dbd
000002b0: b4ac 1c3c 5422 e73c aa1c 763d 8c4f db3c
000002c0: b272 04be db60 c4bd 2486 533d 77cd 093e
000002d0: 176b d43b 1481 08be 5f58 0dbd 9a10 c33c
000002e0: 1187 c33a 333b 7dbb 72c8 843d 1a68 393d
000002f0: 590d d63d d694 f53c a99f f4bd dc44 96bd
00000300: 0461 093d 840a e2bc f4e9 8ebe d25c 67bd
00000310: e743 d3bc 7361 abbd 923b fdbc 9916 32bc
00000320: 06ec c33c 7728 09be 497f b1bd 0d97 12bc
00000330: 9e0a cbbb 8c14 f2bc fa2a ebbc 88d6 6cbd
00000340: 0eab 8c3c 4669 1fbd 6e7b efbc 3dea a6bc
00000350: 2f86 a83c 636c 4abd b7a5 a8bc 7b49 5a3c
00000360: a726 b6bb 8c5a 1b3c 4582 8abd f0e0 803c
00000370: acb6 c8bb 955b 8f3c 3926 afbd e231 25bc
00000380: 8b76 cf3c 1bed e93c c9cc e03c 30e6 a73b
00000390: ce5b 533b da25 dbbb c99a 4abd de9c 8a3d
000003a0: 88b2 253d befa 243e 5ca3 e63b aa28 093e
000003b0: 8e43 d23d 2727 d6bc 13ad 643d 4a08 0b3e
000003c0: 1cca 853d 2134 23bc 158d bebd 43a6 14bc
000003d0: fa66 cfbb dfee 88bd c509 a8bc ea51 183a
000003e0: 2350 263d c4ef 783d 08cc 103e ebdb 923d
000003f0: 42ce 3a3d 0d63 623c 0c25 29be 0294 de3c
-0.06959646 -0.14270088 -0.034603987 0.012422365 -0.01985236 0.1166882 0.071483165 -0.09097879
-0.055708636 0.021846456 -0.12141554 -0.043814253 -0.042241476 -0.021924024 0.034756593 0.060387947
-0.013951121 0.11582708 0.09033136 0.053284276 0.14326735 0.06514192 -0.0060209907 0.064517185
-0.050314628 -0.20575932 0.057775382 -0.012901832 -0.036783252 0.021771852 0.07709684 0.0806872
0.09503952 0.028516192 0.014545559 -0.054159068 0.008413821 -0.0019053193 0.015469032 0.056088503
-0.008546587 -0.040934052 0.22989862 -0.020151602 0.11486499 0.07599554 -0.035647087 0.0013177508
-0.14838307 -0.030591443 -0.016888369 0.018399578 -0.04443895 -0.12135485 -0.006829796 0.04370909
0.03575919 0.13923857 0.19082439 -0.042820223 0.07552856 0.056979205 -0.01738401 -0.17924333
0.057961807 -0.0023789494 -0.034375977 -0.066787556 -0.059632614 0.068883896 -0.07568876 -0.023069788
-0.005762265 0.051692527 0.0043369834 0.006804703 0.031632237 0.0604431 -0.036764365 -0.053532377
0.020299902 -0.17529728 0.03816817 -0.005070305 0.0355073 -0.19750427 0.016560124 0.0838608
0.040872555 0.034467768 0.0038635242 0.063438766 0.0062738755 0.005205147 -0.101765245 -0.10751002
-0.0095236525 -0.028320743 -0.15610023 -0.13319185 0.027725624 0.0023948215 0.085176535 0.029117998
-0.029834865 0.11743413 0.10707939 0.08686267 0.028380217 0.05843442 0.05340209 0.14325456
0.0077317255 -0.1197216 0.045474652 0.05487626 0.0031103469 -0.017378392 0.06007484 0.023165775
0.035623778 0.06411099 0.086831674 -0.03427891 -0.025113711 0.0010574525 0.014048015 -0.14425525
0.028721627 0.17601086 0.058791395 0.033095885 0.041716706 -0.051148828 0.05940337 -0.1779695
0.079202026 -0.16516614 -0.025389545 -0.1217758 0.058927875 0.0016961942 -0.05150787 -0.19588263
0.0119951265 0.09057286 -0.034370016 -0.09719989 -0.14691097 0.03296662 -0.095638715 -0.037506077
0.040065717 0.05834365 0.23536663 0.033477604 0.12988375 -0.13693123 0.024709336 0.095689
0.078096695 0.11732109 0.008693124 -0.032113392 0.048228107 0.056704786 0.029354839 -0.0044140657
0.046121623 0.023207784 0.027929304 -0.034456003 0.00956266 0.028214611 0.06008593 0.02677133
-0.12934378 -0.09588786 0.0516416 0.13457285 0.0064824927 -0.1333049 -0.034508105 0.023811627
0.0014917572 -0.0038640022 0.064835444 0.045265295 0.104517646 0.029978197 -0.11944515 -0.07337353
0.033539787 -0.027592905 -0.27912867 -0.056485005 -0.025789214 -0.08368196 -0.030912194 -0.0108696455
0.023916256 -0.13394342 -0.08666856 -0.008947146 -0.006196334 -0.029550813 -0.028707016 -0.05782178
0.017171409 -0.038918756 -0.02923366 -0.020375365 0.020571796 -0.049419772 -0.020586831 0.013323183
-0.005558807 0.009482037 -0.06763128 0.015732259 -0.006125292 0.017499724 -0.08552212 -0.010082694
0.02532508 0.028555444 0.0274414 0.005123876 0.0032250765 -0.006687862 -0.04946402 0.06768201
0.040453464 0.16111276 0.007038517 0.13394418 0.10266791 -0.026141716 0.05582912 0.13577381
0.0653269 -0.009961159 -0.09304253 -0.009072843 -0.0063294144 -0.06686186 -0.020512471 0.0005810546
0.040603768 0.060775533 0.14140332 0.07170852 0.04560686 0.013817561 -0.16518039 0.027170185

convList.1.nn.0.bias f4 [32]
00000000: 46d0 503e 3568 d2bd dabc 1fbe 2969 debd
00000010: 7c4c 8ebd 60bb 89bd 5549 be3e 7653 423e
00000020: e5a3 e7bd d65c a3bb d38f ccbd 3b53 903c
00000030: 9b43 40be 0450 09be 2a81 b9bd 36e6 aabd
00000040: 831d febc 18f3 babd c679 15bd f4e6 60bd
00000050: 9aaf c2bd c3d9 133d ac47 c0bd 0a4b b73e
00000060: 0ce1 a1bd 9a04 4b3b 524d 2bbe d597 6fbd
00000070: 163d 06be 70e0 87bd c31c 97bd 32e7 c7bd
0.2039195 -0.10273782 -0.15599385 -0.108599015 -0.06948182 -0.06725192 0.37165323 0.1897715
-0.11310557 -0.004985432 -0.0998837 0.017617812 -0.1877579 -0.1340943 -0.09057839 -0.083446905
-0.031019932 -0.09128398 -0.036493085 -0.054907754 -0.095061496 0.036096346 -0.0938867 0.35799438
-0.079042524 0.0030978085 -0.16728714 -0.058494408 -0.1310924 -0.06634605 -0.07378533 -0.09760894

convList.1.nn.2.weight f4 [32, 32]
00000000: 81f6 083d 6a0e cfbc f17c 57bd c31c 933d
00000010: 7ee3 823d 6b2f b5bd 9ae2 bf3d 1842 b3bc
00000020: 062b 07bc 1e31 afbd 9e4f 403d b054 78bd
00000030: b6fc 85bc eb3e c4bd 8113 b6bd eb2a 2c3d
00000040: be61 663d f529 083d d615 5a3d 6d98 533d
00000050: b233 3d3d a890 afbd 46ae 2b3c 3b2e a53d
00000060: d9ef a03d 7994 b2bd 10fc 863d 63c2 e7bd
00000070: 5e07 b93d 50d9 58bd 8432 2fbe 319b 64bd
00000080: 3b5c 58bd 2d97 513b 37eb 6b3d 0e22 99bd
00000090: ac64 be3d f38e aa3d 15d8 f1bc d13c c33d
000000a0: b2a5 5e3b 3327 43bc 67ff aebb c3e6 e0bc
000000b0: 79f7 a2bd 2d97 f03c 813a c03c 8a0c 74bd
000000c0: 2886 a6bd 90d6 a0bd 1f10 a63d 04de b53d
000000d0: 6508 2c3d 3eda 4abe 562e a7bb b4b1 043e
000000e0: b4c4 283d 3bae c53d b9b7 2b3d f3b4 de3c
000000f0: 3317 2bbd eb46 e23d 4c3b 42bd 0b7a debd
00000100: 1c39 d63d 2856 c8bc ac93 3f3c 88e6 983d
00000110: bbb3 07be 0297 11bc f954 ff3c 0897 013e
00000120: dccf 113d acbf 51bd 2096 593c 2fa7 b3bd
00000130: 26b3 103d 22f5 263d 1308 6b3d dc0e 16bd
00000140: e94a 40bd fab5 d43d b4a1 7bbd 87df d33b
00000150: a4cc b3bd 8cdb bfbc dbf9 2a3e f3c0 593d
00000160: 8eba a8bd f1e5 cdbc 8b22 193e 59cc fabc
00000170: 938a 13be 7e11 103d 35a6 293d 4ed3 3b3d
00000180: 40ae 1e3d 6309 b43c dbd6 823d 84af 3bbd
00000190: 0b75 f4bd f930 8cbc a5f0 993a ec9f a93d
000001a0: 72a8 bc3d 42f8 acbd 7023 de3c b136 09be
000001b0: bf9c 07bd 98b6 0cbd 935c cbbd 12c1 2c3b
000001c0: 7894 5abd adee 7cbc e468 c83c d657 013e
000001d0: d07d ee3c ba48 5ebe daca 153d 3392 ec3d
000001e0: 56d9 10bc e028 b6bc 9248 6d3d 4daf b3bd
000001f0: 95d3 5dbd 0291 4bbc bcbc cebd 5fff 9fbd
00000200: c454 9f3d 4a61 52bd 0302 743d 09cf aa3d
00000210: e10d e5bd f175 a13d 015f ed3d 3cc2 d13c
00000220: 590b c1bc 7bdc 213c 85c7 52bc eb74 6ebd
00000230: 6a30 91bd 0d0f b7bd 972f 98bd 9fa6 4a3d
00000240: cb84 223b 75b5 963d 6be5 283d 8ca5 ef3d
00000250: 568c da3d 1c0e 10bd 9d56 16bd 5c7d 133d
00000260: 2580 e63d 9c34 23bc 6182 39bc a4a7 26bc
00000270: d051 a63c 8467 bfbd b42f 323d 321e 75bd
00000280: d6be f53d fa6f 93bd b09f 153d 5064 0cbd
00000290: b526 8abd 6c49 92bd 76ae 323c 4a04 053d
000002a0: ac3c 3ebd 8301 8fbd e711 523d 706d bbbc
000002b0: 3195 263e 3a9f ebbc d47f 733d 7bbd ab3d
000002c0: 7c8a d7bc 8832 1dbd fb89 aa3d 26ba 80bc
000002d0: 0b07 69bd c82d 9cbd df10 64bb fc2d 9e3d
000002e0: 5540 b8bc 7498 b23c 3426 bebb f1e1 f13d
000002f0: 6a73 26bb e92d c1bc 4be8 1b3d 19e7 b93d
00000300: 5fc3 cdbd 81f6 f73d 1e2e 2a3c 6bef e63d
00000310: a4fa 90bc ca50 4b3d 6b4d bb3c b953 153d
00000320: 815d cd3d af20 6d3d 95c2 163d 77d0 1abd
00000330: bb9c 9cbc 27b1 d53d b088 9fbd 3d8b 74bd
00000340: 06b6 20bc 725d 683d 63b3 fbbc b199 623d
00000350: 0a39 923d fd78 0e3d e791 65bd 0d0d 8a3c
00000360: 29b1 413c 4964 5ebc 7ea4 f6bb ec2f c2bd
00000370: fca0 84bd 6fa1 9abc 73fa bebd 9cc9 a3bd
00000380: 3a2c 443d 94b5 c1bd a7ef a8bd 6171 4dbc
00000390: 291d 913d 38bc 7abd 370b 1e3d 4603 3cbc
000003a0: c799 163e 9ff9 17bd 5a70 093e 6061 053c
000003b0: 5a76 233d 29ce 93bd b80a 8abc e495 f53c
000003c0: 1bd6 c53d 78f8 2dbd b5ab 903c 0527 6d3b
000003d0: f851 033d 9e6a f13c 67eb 893c 3b43 803d
000003e0: bc5b a43d 0740 c7bd 6f0a 4f3d 739d 6cbd
000003f0: b8cb 853d b3a4 79bd c936 17be 7c3c 11bd
0.03343821 -0.025275428 -0.052609388 0.0718322 0.06391047 -0.08846935 0.09369393 -0.021882102
-0.008250004 -0.0855429 0.04695093 -0.06062764 -0.016355854 -0.09582313 -0.08890439 0.042033117
0.056245558 0.03324314 0.05324348 0.051659036 0.04619188 -0.08572513 0.010478562 0.080654584
0.07858247 -0.08719725 0.06591046 -0.11316373 0.09034608 -0.05294162 -0.17109114 -0.055812065
-0.052822333 0.0031980977 0.057597365 -0.074771985 0.092965454 0.08328047 -0.029521981 0.09533084
0.0033973274 -0.011911201 -0.005340505 -0.027453786 -0.07957358 0.029368961 0.023465397 -0.05958227
-0.08131057 -0.078534245 0.081085436 0.08880237 0.042000193 -0.19809815 -0.005101959 0.12958413
0.041203216 0.096523724 0.04192326 0.027185893 -0.04177017 0.11048683 -0.04741983 -0.108631216
0.104601115 -0.024455145 0.011692923 0.07465845 -0.13252155 -0.008886101 0.031168448 0.1265527
0.03559862 -0.051208183 0.0132804215 -0.08772122 0.0353271 0.04076112 0.057380747 -0.036635265
-0.04694644 0.10386272 -0.06143351 0.0064658555 -0.087792665 -0.023420118 0.16696875 0.053162526
-0.082387075 -0.025134059 0.14954583 -0.030615019 -0.1440833 0.03517293 0.041418273 0.045855813
0.038740396 0.021977132 0.06388637 -0.04582168 -0.11936387 -0.017113196 0.0011744691 0.08282456
0.09211816 -0.08445789 0.027116507 -0.1339977 -0.03310847 -0.034353822 -0.099297665 0.0026360196
-0.053364247 -0.015437764 0.024464078 0.12631163 0.029112726 -0.2170743 0.036570407 0.11551323
-0.008840879 -0.022236288 0.057930537 -0.0877367 -0.05415686 -0.012424709 -0.10094592 -0.0781238
0.0777984 -0.051362313 0.05957223 0.0834027 -0.11184288 0.07883824 0.11590386 0.025605313
-0.023564981 0.009879227 -0.012864952 -0.05821697 -0.070893124 -0.089384176 -0.07430952 0.04947531
0.002479839 0.07358829 0.041234415 0.117014974 0.10671298 -0.035169706 -0.036703695 0.036008224
0.112549104 -0.0099612735 -0.011322589 -0.010171805 0.020302683 -0.09345916 0.043502524 -0.05984325
0.1199929 -0.07199092 0.036529243 -0.034275353 -0.06745664 -0.0714291 0.010905853 0.032474793
-0.04644458 -0.0698271 0.051286604 -0.022879332 0.1626785 -0.028762449 0.05944808 0.0838575
-0.026311152 -0.03837827 0.08327099 -0.015713762 -0.056891482 -0.076259196 -0.0034800095 0.077236146
-0.022491613 0.021801211 -0.005802894 0.11810673 -0.0025398382 -0.023581462 0.03806333 0.090772815
-0.1004703 0.12107564 0.010386972 0.11276134 -0.01769764 0.049637593 0.022864064 0.036456797
0.100276 0.057892498 0.03680666 -0.037796464 -0.019117704 0.1043418 -0.07789743 -0.0597031
-0.009809023 0.05672974 -0.030725187 0.055322353 0.071397856 0.034783352 -0.056047346 0.016851926
0.011822023 -0.0135737145 -0.007526933 -0.094817966 -0.06476018 -0.018875806 -0.09325113 -0.07997438
0.04789374 -0.094584614 -0.08248835 -0.012539239 0.0708564 -0.061214656 0.038584914 -0.01147539
0.14707099 -0.03710329 0.13421765 0.008140892 0.03990779 -0.07217056 -0.016850814 0.0299787
0.09659978 -0.042473286 0.017660001 0.0036186588 0.032060593 0.029469784 0.016835881 0.06262823
0.080253094 -0.09729009 0.05054706 -0.057767343 0.06532997 -0.060948085 -0.14766993 -0.035458073

convList.1.nn.2.bias f4 [32]
00000000: 182c 1a3e 810a 063e 6b6f c93d 1ed0 253e
00000010: e289 263e d439 843e 6c00 613e d7e1 453e
00000020: 2999 243e 8275 b63d 8455 963d bc65 693e
00000030: 68d9 8f3e 47a0 413e 00e0 7b3e f44b 0e3c
00000040: b741 083e 2276 813e 3b01 c9bc 52a2 5b3e
00000050: bb72 e73d 5c00 723e 227c 6b3e 6a48 853e
00000060: ead5 9a3b 83d9 d33c 17e3 4b3e e302 373e
00000070: 29d3 d8bc 65b3 393e dbb9 cf3d 3ca8 6e3e
0.15055883 0.13089944 0.098357044 0.16192672 0.16263536 0.2582537 0.21972817 0.19324432
0.16074051 0.089091316 0.073405296 0.22792715 0.28095555 0.18908797 0.24597168 0.008685101
0.13306318 0.2528544 -0.02453672 0.21448639 0.1130118 0.2363295 0.22996572 0.2603181
0.0047252076 0.025860554 0.19910847 0.17872195 -0.026467877 0.1813484 0.10142871 0.23306364

convList.2.nn.0.weight f4 [32, 32]
00000000: c07c 43bc cea6 afbd f0de 19be 6a63 423a
00000010: d5aa 91bd 5ff2 97bc 7eb7 4bbd 6954 80ba
00000020: 0db7 843b c6b1 a2bd 796a 9cbd 627c a7bc
00000030: d154 783c d53e 73bd 4b28 b5bd 1fe0 583c
00000040: ce1f d1bd ebc6 e8ba 7f62 f0bd 79d3 153a
00000050: 3059 fabd 3e76 1abd 7349 a03b 1bb1 3e3c
00000060: 42c9 1cbe a379 533c 44cc 93bd d560 0dbe
00000070: 5a9c 0bbe 8bf7 0ebe 5c8c 19be c49a 68bd
00000080: 9f5e 86bc 2dcc 51bc c0fa b9ba 7dcd ebbc
00000090: 39be 32be 398d 89bd e4b0 0e3c dfbc 1d3c
000000a0: 4729 b63c 16b3 80ba bbd3 82bd a9e1 0a3c
000000b0: c53c 173c bc85 cbbd 25fb 76bc 39b9 cbbd
000000c0: a14c 86bd 01f8 9dbd e45a c73a e2a3 23bc
000000d0: 96c8 23bd de2b 0abb 1c55 2cbe 821f c9bc
000000e0: e0c6 b83b d6f2 13be 3c26 e5bd 756a a53c
000000f0: 99cb 0b3c 683e 7e3c 88a5 5d3b f887 833c
00000100: 97ef e1bb d8c1 3dbe 5a07 e3bb 473c b1bc
00000110: da7e edbb da5c 163d 7c2f 0dbe f16b 44bb
00000120: f391 113c 0451 67be 476b 51be dbbf a83b
00000130: 53b5 a13a 6fbb aaba 7b53 8bbe d6f7 57bb
00000140: 2b83 5bbb 6ba4 ae3c 72cf edbb f564 173b
00000150: 4d2f 52bc 4ac6 21be 6aa3 5c3c db0c 323c
00000160: e7de e0ba 400b 9b3a 6fce 38bc 2983 99be
00000170: d5f4 1b3a 926b 8eba b2c2 c8b9 590a 04be
00000180: 5f43 58bc 5227 01bd dc3f 92bd 9cde d0ba
00000190: 6e8c 003d a631 35bb ef88 503c 02bd c7bc
000001a0: 25cf 94bc 8ee4 d5bc f6a8 093b c51f 11bd
000001b0: 6723 88bd 9332 733d f8f6 89bc 377f f73b
000001c0: 3ed9 273d 526c cbbb 7f20 20be 5f29 b3bd
000001d0: 99d6 da3c ad22 133c 4faf 923d dcc0 443b
000001e0: bb80 8abd 83ef 143c 506d 803d f644 c9bc
000001f0: e5b7 3cbd 0530 30be 7d1c 80bd 0da8 a83a
00000200: 436a a33d 812e 493d 7a8b 59bd 1b5c a63d
00000210: f99d 913c 3c74 4d3c bca3 e0ba 4c4c 333d
00000220: a2c7 243c 5b91 043d f29c b83c 69f7 77bc
00000230: fa7e 5f3c bb04 8ebc 8378 1f3d acce 5f3b
00000240: fdc6 a83b 1fca 963c fb27 dabd b338 17bd
00000250: ccb4 953a 95d7 ce3b 4b2a 503c 5941 96bd
00000260: 790e 82bd a0fa d73c c28a 86bc 49fa aabb
00000270: 207a a1bd 8ee8 aabd 8747 48bd 6223 b8bb
00000280: 45b2 153d 8e9b 913c ffa0 8bbd 2e32 5c3d
00000290: 018c aebd 7515 95bd 984a 503c 803a c73c
000002a0: afdc 87bc 3034 983b 8652 df3c 4d98 bb3a
000002b0: a6cb d03c 633e 9ebd 6aab 3a3c 933e 3abd
000002c0: e5c7 40bc 81f5 09bd 9072 3cbe 7f49 083c
000002d0: 6141 b3bc e10a 733c d832 aabd b5d1 83bd
000002e0: 62f6 24be e0bd 08bd 9ef5 f9bd 0bf1 863b
000002f0: caa3 81be 655e 1fbd 11c2 b0bd 3fc6 003d
00000300: a4ab fc3b af3a cb3a 0938 55be 12b5 3c3c
00000310: 457f b83c abf3 d4bc e67f b23c a0d9 2137
00000320: db21 33bb ed32 ea3a f173 0cbc b779 34bc
00000330: 7138 90bc 77cf 98bb 2e4d 623c 5e0a 193c
00000340: b087 f03a 903a a7bc b1d3 76be 626c babc
00000350: 8e6c 923b 2dde ad3c 0829 253c ea93 523c
00000360: 6e83 89be 6ddb 8b3b eb94 443b 9328 1f3c
00000370: 5a09 82be 0278 1abe 40a8 5dbe 57b1 a63c
00000380: 7b39 e0bb 7a15 033d 127b 47bd ccf5 ebbc
00000390: 64ce 5c3c 167c 7c3c 5c87 92bc 8c33 79bd
000003a0: d010 8bbd e6c1 f33c c04f 36bc be61 88bd
000003b0: 5941 adbd e773 43bd 9bf2 75bc a586 99bb
000003c0: a605 debb d841 06ba c114 8bbd 4bb9 6abd
000003d0: a79f 8cbb 5631 67bc f2a9 54bc 2eea 663d
000003e0: f9c5 ccbc 0013 543c d3dc 4b3c ecea 413d
000003f0: 4f4a 33bd 18b1 c2bc 59a9 86bd f80a 6cbc
-0.011931598 -0.08576737 -0.1502645 0.00074153265 -0.07112662 -0.018548189 -0.04973554 -0.0009790781
0.0040501417 -0.07944064 -0.076374955 -0.020445053 0.015156941 -0.059386093 -0.08845576 0.013237028
-0.102111444 -0.0017759477 -0.11737537 0.0005715411 -0.122240424 -0.03771042 0.0048915683 0.011638905
-0.15311149 0.012907418 -0.07216695 -0.1380647 -0.13633862 -0.13961618 -0.14994949 -0.05678822
-0.01640254 -0.012805027 -0.0014189109 -0.028784508 -0.17455377 -0.06716389 0.008709166 0.00962755
0.02223648 -0.0009818997 -0.06388041 0.008476653 0.009230797 -0.09937617 -0.015074526 -0.09947438
-0.065575846 -0.077133186 0.0015209583 -0.009987803 -0.039986216 -0.0021083276 -0.16829342 -0.024551157
0.005638942 -0.14448103 -0.11188933 0.020192364 0.008532428 0.0155178085 0.0033820588 0.016056046
-0.0068950164 -0.18530977 -0.0069283666 -0.021635188 -0.007247788 0.036709644 -0.13787645 -0.0029971565
0.008884895 -0.22589499 -0.2045108 0.005149824 0.0012337364 -0.001302583 -0.27212128 -0.0032954118
-0.003349493 0.021318635 -0.0072573954 0.0023100947 -0.01282866 -0.15798298 0.013466695 0.010867323
-0.0017156274 0.0011828914 -0.011279686 -0.2998288 0.00059492636 -0.0010865799 -0.00038292032 -0.12894572
-0.013199656 -0.03153164 -0.071410865 -0.0015935483 0.031383924 -0.0027648 0.01272796 -0.024382118
-0.01816518 -0.02610996 0.002100525 -0.03543069 -0.066473775 0.059374403 -0.016841397 0.007553007
0.040978663 -0.006207981 -0.15637396 -0.08748125 0.026713656 0.008980435 0.07162344 0.003002218
-0.06762835 0.009090307 0.0627085 -0.024569016 -0.046073813 -0.17205818 -0.06255434 0.0012867466
0.07979252 0.049116615 -0.05311153 0.081230365 0.017775523 0.0125399195 -0.001713864 0.043773934
0.010057362 0.032365184 0.022535775 -0.015134671 0.013641113 -0.01733624 0.03893329 0.0034150286
0.0051506744 0.018406926 -0.10652157 -0.036919307 0.001142168 0.0063123205 0.012705396 -0.07336683
-0.06350417 0.026364625 -0.016423587 -0.0052178246 -0.078846216 -0.083451375 -0.04889634 -0.0056194523
0.036546964 0.01777437 -0.06817817 0.053758793 -0.085227974 -0.07279483 0.012713097 0.024319887
-0.016584722 0.004644893 0.02726103 0.0014312357 0.025487732 -0.07726743 0.011393407 -0.04546983
-0.011766409 -0.033681396 -0.18403077 0.008318304 -0.021881761 0.014834137 -0.08310479 -0.06436483
-0.16109613 -0.033384204 -0.12205051 0.00411809 -0.25320274 -0.03890838 -0.08630765 0.031439062
0.007710891 0.001550516 -0.20822157 0.01151778 0.022521624 -0.025995096 0.021789502 9.647018e-06
-0.0027333412 0.001786796 -0.008572564 -0.011015347 -0.017605038 -0.0046634036 0.013812346 0.009340851
0.0018350985 -0.020413667 -0.24104191 -0.02275676 0.004468507 0.021224106 0.010080583 0.012852648
-0.26858085 0.004268101 0.0029995989 0.0097142635 -0.2539776 -0.15084842 -0.21646214 0.020348234
-0.0068427897 0.032002904 -0.048701353 -0.028803729 0.013476942 0.015410444 -0.01788681 -0.060840175
-0.06790316 0.029755544 -0.011127412 -0.06659268 -0.0845973 -0.047717955 -0.015011455 -0.0046852403
-0.0067755757 -0.0005121506 -0.06791068 -0.057305615 -0.004291493 -0.014110884 -0.012979971 0.056375675
-0.024996744 0.012943983 0.012442785 0.04734318 -0.043772038 -0.023766086 -0.06575269 -0.014406912

convList.2.nn.0.bias f4 [32]
00000000: 6c07 1d3c 94bb ad3d 27d5 9a3d 633f 123e
00000010: b2fb 103d 914f b73d f0e9 fb3d c60e 4d3e
00000020: bd5f 2e3d dd21 8abe 7a97 8c3e dbd5 fe3d
00000030: 9810 813e e070 e53d 4e3c c03d 6a53 e53d
00000040: d7b8 c03e 96f1 be3d 8878 223e d24b 293e
00000050: 3495 cc3d a5f8 003e ecfe af3d 4b8d b63e
00000060: 197d 4a3d 63c7 233e aa96 b93d c802 033e
00000070: 8a84 cfbb 72cc 153e 9223 863c 9b3c e13d
0.009584289 0.08483043 0.07560187 0.14281993 0.035396285 0.08950723 0.123004794 0.20025167
0.042571772 -0.2697896 0.27459317 0.124431334 0.25207973 0.1120317 0.09386502 0.111975506
0.37641022 0.093234226 0.15866292 0.1653283 0.09989396 0.1259485 0.08593544 0.35654673
0.04943571 0.15994029 0.0906194 0.1279403 -0.0063329386 0.14628771 0.016374383 0.10997888

convList.2.nn.2.weight f4 [32, 32]
00000000: dae8 843c 5d43 39bd c7ac 8a3d 35dc 083c
00000010: dec2 04bd 033b b5bd f316 adbc dc31 0abc
00000020: 055d 143b eb0c 22bd a153 2d3c 7056 8b3c
00000030: 23d3 fa3c 24ca 793d 7c9b be3c 382c 533d
00000040: 369d 17bc be0c a3bd d45a b6bd 0d7b 05bd
00000050: 34b3 163d 06b4 483d bd55 aabd 751e 3e3d
00000060: 68db 7ebd 7c8f 93bd 8264 003c f6e3 b13d
00000070: 4654 5d3d 7f27 183d a65a 17bd 579f 4d3d
00000080: 769b 3dbd 9d7e 463d 9b28 4bbd 45cc 33bd
00000090: 1752 2c3d 6016 893c 3b5a af3d ff56 1a3d
000000a0: fa7b edbc dd72 2abd f39b 2a3d 72e7 213d
000000b0: ce6e ca3d 749b a8ba 783d 4c3d e2eb 6fbc
000000c0: ea0b 563c 74da b7bd 6a91 6f3c 60e8 9ebc
000000d0: 5eae 81bb 224c 6abc cc64 96bd 7e2f 523d
000000e0: ed55 9a3d 9c5a 9dbd a62a e6bb a284 d13d
000000f0: cbd3 a8bb 9da7 8bbd 6f12 3d3c d694 ae3d
00000100: 29f2 c13c bc5e 8c3d 0d5e bfbc 2911 afbd
00000110: a3d5 5bbd 1473 993c 419a a53d b0bb 08bd
00000120: a523 a43d 7c36 fdbc 80ea 253d 53ee 82bd
00000130: 585c 7a3d 679a 503d b29d 7f3d 3aa3 47bd
00000140: e275 173d f42c 26bd cfba 063e fd5f 6b3c
00000150: 905a 0d3d f5cd 4ebd 4b81 aa3d 254b 263d
00000160: ddb8 95bc 5d19 093d 96e9 95bd 5d86 57bd
00000170: e82d 023d f06f 94bc 3e36 debc 49a8 b63d
00000180: aae7 1c3e 652f 42bd fdcb 25be 69fb 343d
00000190: 3cf3 83bd 8ac5 dcbd b5a3 983d 89ba 96bb
000001a0: 728c 1f3e ca13 97bc 4760 de3c 4ee6 ea3c
000001b0: 6fe3 c83c f259 cb3d f0f6 54bb 61b3 fc3c
000001c0: 3fdd 2abd 8b18 53bc 3267 84bd 0137 4c3c
000001d0: 9c9e 5f3c e2ab 9bbc bc3b 6f3d b309 8b3b
000001e0: cc6f 6fbd 0d5a 35bd 0cb2 6d3d fd97 6d3d
000001f0: a66c 523d 8fd9 a9bc 5626 89bd 9f9a 28bd
00000200: 2cfe 133c 785f 463d 3b3a dc3c d3ef 293d
00000210: a0e0 083b 09cf 9bbd 39b1 293d 8413 643d
00000220: 11bd 213b 9cf5 a0bd a33c a33d 5ebd a53d
00000230: 6fc9 663c 30bb 7dbd adbe 81bd cc7e 8bbb
00000240: 2060 1c3d 3eed 623c a8ad 9a3d 6d4e 0f3d
00000250: 1298 9a3d 2da9 b93c 0a6d e63d f11d 723d
00000260: cfad 323d 656a ac3b e5d4 013c 0dc6 9e3c
00000270: 94cf 3fbd 85fa 57bd aeaa dcbc 47ab 13bd
00000280: 67ee a83d 0200 63bc f3d7 383d ee4a a3bb
00000290: 4196 02bd 884b 8a3d fce9 2d3d 3e34 a4bb
000002a0: 2cdd 1a3c c25e f7bc db86 afbb 5bd8 7ebd
000002b0: ec92 f0bc 25cb 5c3d 027c 993d 4177 a63d
000002c0: 0663 9b3c 347c 56bd 7b44 9f3d eed9 15bd
000002d0: 1da2 9ebd 681d 7b3d 0931 5d3d b64a 043c
000002e0: 8b14 92bc f82e 693d 5725 4cbd 2ebe eabc
000002f0: dd88 63bd 6748 163c 5921 a43d bdf7 533d
00000300: 6959 933c 5a1e 6dbc 8e8c df3d a3f3 903c
00000310: 7276 42bd be8b 203d 6210 fc3a 8c1f 313d
00000320: aa3d ac3a b68a abbd 50bc 2e3d bcdc 9c3d
00000330: 9e5f 20bc 4207 8fbd 71b5 4e3c b82a 203d
00000340: 534b a4ba c229 4b3d 7758 a23d 6398 923d
00000350: 54fd cfbd 587b 6e3d d4fb 6cbd 6b25 573d
00000360: 5818 503d 0ce4 823d 4eaa 63bc df53 62bd
00000370: a33e 5fbd d5e0 9bbc 82f3 e73d 1c13 a43d
00000380: b644 88ba fa59 533c a81a 913d 5cbd 13bc
00000390: e659 7d3d 720e 9a3d e5f9 bb3d 15c9 a73c
000003a0: ac41 0bbb 2e70 9bbc dad3 15bd ca6c a4bd
000003b0: 3688 db3c e3a3 913d b228 293d d03d 923c
000003c0: 6c22 d03d bd1f 20bd 525c 743c b050 04bd
000003d0: 0cb8 6b3b 319a 80bd bcc0 3abc 6b77 273d
000003e0: 68db 663d d36f 39bd bcc5 74bd bf5c 9b3b
000003f0: 7fe8 2ebd a3fc 823c bebc 05bd f8c8 f53c
0.016224314 -0.04523026 0.06771236 0.008353283 -0.032412402 -0.08849146 -0.021129107 -0.008434739
0.0022638452 -0.0395631 0.010579021 0.01700899 0.030618256 0.060983792 0.0232675 0.051555842
-0.009253791 -0.07961415 -0.08904043 -0.032588053 0.036791995 0.04899981 -0.083171345 0.046415765
-0.06222096 -0.07205102 0.007836463 0.08686058 0.054035448 0.03714704 -0.036951683 0.050200786
-0.046290837 0.04846059 -0.04959927 -0.04389598 0.042070474 0.016734302 0.08562132 0.037680622
-0.02898978 -0.04161345 0.04165263 0.039527364 0.098844156 -0.0012863711 0.04986331 -0.014643641
0.013064364 -0.089772135 0.014622072 -0.019397914 -0.0039575538 -0.014300378 -0.07343444 0.051314823
0.0753592 -0.07683298 -0.007024127 0.10230376 -0.005152201 -0.06819079 0.011540039 0.08524482
0.023675041 0.06854007 -0.023360277 -0.08548195 -0.053670537 0.018731631 0.08086062 -0.033382118
0.08014611 -0.03090977 0.04050684 -0.06393113 0.061123222 0.0509285 0.06240625 -0.04873965
0.036977656 -0.040570214 0.131572 0.014366147 0.034510195 -0.050489385 0.08325442 0.040599007
-0.018276626 0.033471454 -0.073199436 -0.052618373 0.03178206 -0.018119782 -0.027125474 0.089188166
0.15322748 -0.04740848 -0.16191097 0.044185076 -0.06442878 -0.10779865 0.074531 -0.0045998734
0.1558092 -0.018442053 0.027145518 0.028674271 0.024522511 0.09929265 -0.003249582 0.030847253
-0.041714903 -0.0128842695 -0.064649954 0.012464286 0.013648655 -0.019002859 0.058406577 0.0042430996
-0.058456227 -0.044275332 0.058031127 0.058006275 0.051373146 -0.020733623 -0.06696765 -0.041163083
0.009032767 0.04843089 0.026883235 0.04148848 0.002088584 -0.07607848 0.04142878 0.055682674
0.0024679343 -0.07859346 0.0797055 0.080927595 0.014086111 -0.061946094 -0.06335197 -0.0042570587
0.03817761 0.013850508 0.075526536 0.034986902 0.07548536 0.022663677 0.11251266 0.059110586
0.043622788 0.0052617067 0.007924293 0.019381547 -0.04682882 -0.05272915 -0.026936855 -0.036052015
0.08248597 -0.013854982 0.04512782 -0.0049832975 -0.031881575 0.06752688 0.042459473 -0.0050111106
0.009452146 -0.030196551 -0.005356652 -0.06221805 -0.029366933 0.05390467 0.07494356 0.08128215
0.018968116 -0.052364543 0.077767335 -0.036584787 -0.077457644 0.06130734 0.05400184 0.008074453
-0.017832061 0.05692956 -0.049840298 -0.028655138 -0.055550445 0.0091725355 0.08014173 0.051749934
0.01798697 -0.014472568 0.109154806 0.0176943 -0.04747624 0.03919577 0.0019230957 0.043242976
0.0013140936 -0.083760664 0.042660058 0.07659289 -0.009788422 -0.06983806 0.012616501 0.03910324
-0.0012534655 0.04960037 0.079270296 0.07157972 -0.101557404 0.0582231 -0.05785735 0.05252592
0.050804466 0.06391153 -0.013895584 -0.055255767 -0.054503094 -0.019028107 0.11325742 0.08011457
-0.0010396454 0.01289987 0.070851624 -0.009017315 0.061853312 0.075222865 0.09178523 0.020481626
-0.002124886 -0.01897439 -0.03657899 -0.08028562 0.026798349 0.07111337 0.041298576 0.01785174
0.101628155 -0.039092768 0.014914589 -0.032303512 0.0035967855 -0.0627941 -0.0113984905 0.04088537
0.056361586 -0.04527266 -0.059758887 0.004741281 -0.042702194 0.015989607 -0.0326507 0.030003056

convList.2.nn.2.bias f4 [32]
00000000: 3314 483e 4024 033e 5d3b 733e d1fc 4a3e
00000010: fd9f 1b3e 951f 083e 8cc7 1a3e 95be 4b3e
00000020: dade 683e f510 843e f22a d33d 96c5 1a3e
00000030: 9fd1 0f3e 98d2 363e 6501 233e 3105 033e
00000040: 51c5 383e b375 263e 0524 423e 61a4 df3d
00000050: 3282 743e ad7c 3b3e 6e65 203e ca9b 2b3e
00000060: f040 613e 7f79 563e ade5 de3d b963 813e
00000070: 4ed7 f03d 2bcd 143e 6f1b 223e 4c86 0f3e
0.19538955 0.12806797 0.23753114 0.19823004 0.1519775 0.13293298 0.15115184 0.1989692
0.22741261 0.25794187 0.103109255 0.15114436 0.14044808 0.17853773 0.159185 0.12794949
0.1804402 0.16255836 0.18959053 0.10920025 0.2387779 0.18309279 0.15663692 0.16758648
0.21997428 0.20944785 0.10883651 0.25271395 0.11759816 0.1453139 0.15830778 0.14016074

bns.0.weight f4 [32]
00000000: 3154 443e 7df6 9a3e 2540 8c3e a535 5a3e
00000010: d9a1 613e 82bf 813e 48cd 613e af5c 8a3e
00000020: 58b7 593e ec21 d93e 87b5 ce3e 0ea1 ce3e
00000030: c475 1f3e 35ed 6d3e b035 863e 84dc c03e
00000040: 6ecc d23e b407 b63e 35b1 683e 8baf 943e
00000050: 77fd ec3e 7ae5 853e 16a3 7c3e 6b13 823e
00000060: 6f7d 413e 3f3e 9b3e b6f7 343e 2ad6 c73e
00000070: c2e7 af3e 411c 3f3e bd91 633e 5548 ae3e
0.19172741 0.3026618 0.27392688 0.21309526 0.22034396 0.2534142 0.22050965 0.27023837
0.21261346 0.42408693 0.4037287 0.4035725 0.15572268 0.23235019 0.26212835 0.3766824
0.41171592 0.35552752 0.22723849 0.2904018 0.46287128 0.2615164 0.24671587 0.2540544
0.18895505 0.30320928 0.17672619 0.39030582 0.34356505 0.18663122 0.22223563 0.3403956

bns.0.bias f4 [32]
00000000: bf8b 223c 25d0 d33c a8d8 703c 23b1 323b
00000010: 3264 6cbb 11a0 8e3c 8241 e53b 08b7 073c
00000020: 9990 433c 499a a83c 1d9f 9f3c 29e3 193b
00000030: 6abc 16bc ee3f 583c 1caf 6e3c 2fbb 9e3c
00000040: 4c94 6e3c 2312 9a3c 1720 f43b 662e 7f3c
00000050: 7741 e53c c505 bc3c ec90 203a db05 733c
00000060: 9d37 303c f25c c63c aeab 183d fc7b 283c
00000070: 7647 cf3c 14e1 263c d9bd b53c c9ff 273c
0.009921013 0.025856087 0.014700092 0.0027266226 -0.0036070463 0.01741031 0.0069963345 0.008283384
0.01193633 0.020581381 0.01948505 0.0023481345 -0.009200195 0.013198836 0.0145681165 0.019376365
0.014561724 0.018807476 0.0074501145 0.015575027 0.027985318 0.02295197 0.00061251107 0.014832939
0.010755447 0.024214242 0.0372731 0.010283466 0.02530263 0.010185499 0.022185253 0.010253855

bns.0.running_mean f4 [32]
00000000: 42cb 9f3c 66c2 003c 94d6 f73b 4afc dc3c
00000010: 699c bd3d 4359 113c 0c22 f53b 26e3 053b
00000020: 2c61 cb3c cf9a 293b 7399 093b cc44 483a
00000030: 2875 4c3a afa9 9b3c 9f41 393c 80d5 4d3b
00000040: a532 003b ca5a ce3b b286 b03c 2fd5 cf3b
00000050: f88c 553b ee5f b43c 1e49 583c 6934 8f3c
00000060: f08f cd3d 7923 583c ea1f 8838 772c 333b
00000070: 1496 ef3b bd15 583d 8691 5f3c 7614 983b
0.0195061 0.007858848 0.0075634215 0.02697577 0.092583485 0.008871379 0.0074808653 0.002042958
0.024826609 0.0025879627 0.0020996004 0.0007639646 0.000779944 0.01900181 0.011307149 0.0031407773
0.0019561436 0.006297444 0.021548603 0.006342552 0.0032585245 0.0220184 0.013201026 0.017481046
0.100372195 0.013192051 6.49093e-05 0.0027339736 0.007311592 0.052755106 0.013645535 0.004641111

bns.0.running_var f4 [32]
00000000: 98ea 2b3c 17e6 943b 5d41 753b 109c 613c
00000010: d8e7 453d c67f 753b 90da 343b 14f9 313a
00000020: d161 693c 310f 813a 2274 4c3a ad65 8d39
00000030: 06ef 3939 d7f0 173c bc20 aa3b b642 ae3a
00000040: 5ae5 1a3a 5d93 313b a315 1d3c bccd 413b
00000050: 1fa1 9f3a b048 413c 6fe2 d13b 32e8 123c
00000060: b2b5 5e3d 6f79 ec3b f946 f636 84b6 8a3a
00000070: 24cb 8a3b 10e5 b13c ee30 c63b bdcc 053b
0.010492943 0.0045440304 0.0037422993 0.013770118 0.048316807 0.0037460192 0.0027596094 0.00067891297
0.014244513 0.0009846446 0.00077992876 0.0002696937 0.00017732018 0.009273729 0.0051918905 0.0013295028
0.000590881 0.0027095892 0.009587678 0.002957209 0.0012178755 0.011797115 0.006405167 0.0089664925
0.054372497 0.0072166244 7.3396336e-06 0.0010582958 0.004235642 0.02171567 0.0060483133 0.0020416223

bns.1.weight f4 [32]
00000000: b65c 3c3e 45a3 3f3e a9e0 853e 301f 563e
00000010: b508 303e c59e 343e dab9 4b3e 077d 273e
00000020: 6aac 1b3e 9415 4b3e a85b 3d3e dbe5 2d3e
00000030: 552e 263e 666d 473e bfbb 453e a971 4a3e
00000040: 29d2 4c3e b808 3f3e be48 773e f969 2a3e
00000050: 62e3 403e 0f08 463e 1713 3a3e 9c01 113e
00000060: 3049 843e eb5f 493e 1c18 3f3e 22ea 363e
00000070: 0e26 833e db23 6f3e 0796 803e f35e 3e3e
0.18394741 0.18714626 0.26147965 0.20910335 0.17190821 0.17638691 0.19895115 0.16356288
0.1520249 0.1983245 0.18491995 0.16982214 0.16228612 0.19475326 0.193099 0.1976992
0.20002045 0.1865567 0.24148843 0.16641988 0.1883674 0.19339012 0.18171345 0.1416077
0.25837088 0.19665496 0.18661541 0.17862752 0.2561497 0.23353522 0.25114462 0.18590908

bns.1.bias f4 [32]
00000000: ad27 b93c 5dbb 483d 319d 703d abdd 8d3c
00000010: d3fc 303d ba58 e63c 10ff 053d ae5e 213d
00000020: 7023 2c3d 721d 463d a10e 5d3d c6e2 1d3d
00000030: 08ae 213d c2a6 303d b107 413d c854 413d
00000040: 446a 3c3d 993b 283d 246a 663d 07c2 f73c
00000050: f4b1 1b3d fa2e 113d 7c87 823c 4c7e d2bc
00000060: 0715 623d 518a 323d 8729 293d 4abc 543d
00000070: aec4 5f3d 5cd9 383d 1d7f 5b3d 370d 053d
0.022601927 0.04900681 0.05874366 0.017317614 0.043209862 0.02811848 0.03271395 0.039396934
0.042025983 0.048367925 0.05396903 0.038546346 0.03947261 0.043127783 0.047126476 0.047199994
0.04599978 0.04107246 0.056253567 0.030243887 0.038011506 0.03544519 0.015933745 -0.025694989
0.055195834 0.04358894 0.04129937 0.05193738 0.054630928 0.045129165 0.05358802 0.032483306

bns.1.running_mean f4 [32]
00000000: 3673 5b3e b765 763e 6475 823e 153d 493e
00000010: e2c3 9d3e a9d1 b63e bf83 8a3e 9f88 933e
00000020: 980b 913e 457f 3b3e eb4b 523e 86cb a13e
00000030: 412a b43e 3d85 ac3e 3067 a73e 09c7 df3d
00000040: e0e0 863e e71e b53e 3b75 b13d 52e8 993e
00000050: dadb 723e 1810 923e eabd 903e eeab a03e
00000060: a080 253e 260c 083e 2bfe be3e f266 893e
00000070: fa4b ca3d fa71 a83e b0b1 733e 0be4 813e
0.21430668 0.24062239 0.25480187 0.19652207 0.3081351 0.35706833 0.2705364 0.2881517
0.28329158 0.18310268 0.20536773 0.3160059 0.35188487 0.33695403 0.32695913 0.10926635
0.2634344 0.3537514 0.08664938 0.3006006 0.23716679 0.28527904 0.28269893 0.31381172
0.16162348 0.13285884 0.3730329 0.26836354 0.09877773 0.32899457 0.23798251 0.25369295

bns.1.running_var f4 [32]
00000000: 5ce2 b73c 969f cd3d 321a 3d3e 3dd0 b03c
00000010: d51f a93d 1195 8b3d bed6 863d e05e 543d
00000020: e41c 6a3d a873 dd3d b6f2 0c3e ca93 4a3d
00000030: ed25 0c3d 2d5b c43d 275b 833d 3f16 df3d
00000040: abec 913d ef2f c63d dca7 f93d b1ef 213d
00000050: 9380 b03d 8664 733d 1594 9d3c 387d 4d3c
00000060: b418 523e a2e3 ec3d 9802 a63d 0db2 a73d
00000070: 0864 113e c747 0d3e b698 3d3e 487a 5b3d
0.022446804 0.10040204 0.18467024 0.02158367 0.082580246 0.068155415 0.065839276 0.051848292
0.05715646 0.10813075 0.13764462 0.04945735 0.034215856 0.09587703 0.0641387 0.10892915
0.07125219 0.09677111 0.1219022 0.03953523 0.086182736 0.05942204 0.01923565 0.0125420615
0.20517236 0.11566855 0.081059635 0.08188257 0.14198315 0.13796912 0.18515286 0.053583413

bns.2.weight f4 [32]
00000000: 869e 323f 8032 353f bf0a 463f 4504 813f
00000010: 9438 2c3f 2bd9 4a3f a6f8 383f 4221 363f
00000020: 5c34 373f 13f3 2c3f 6887 693f f022 523f
00000030: b65c 763f c7a3 5f3f 7afd 5b3f dccc 543f
00000040: ea74 293f c2a1 5d3f 779e 4e3f 3788 483f
00000050: 3904 493f c386 383f 1cd6 4a3f a5eb 413f
00000060: a653 3e3f aaed 1d3f 4045 343f 41a6 343f
00000070: b49b 453f 252d 453f d463 463f ee71 5d3f
0.6977314 0.7078018 0.7736015 1.0079428 0.6727383 0.7923762 0.7225441 0.711445
0.7156427 0.675584 0.9122224 0.8208456 0.96235216 0.8735928 0.8593365 0.8312509
0.6619402 0.8657495 0.8071055 0.7833285 0.7852207 0.7208063 0.79232955 0.7575019
0.7434639 0.6169077 0.7041817 0.70566183 0.7719071 0.7702201 0.77496076 0.8650197

bns.2.bias f4 [32]
00000000: 0f0a 2abb b131 89bc 0d10 81bc be88 62bc
00000010: e78c 8abc 24f9 ffbc 3e34 94bc 88a9 a9bc
00000020: af5b 2bbb 7355 9dbb f7a6 78bc a1bb acba
00000030: ee0c 3e3b e847 383c eafd 04bd 99c7 acbc
00000040: a2ce cabb 715a d4bb 6def dabb 15d2 b0bc
00000050: 76cb 9fbc b710 83bc 8f38 a6bc 934a 11bc
00000060: b1a0 643c f923 abbc f2d0 b3bc 8049 92bc
00000070: 4544 8abc 9e4d 37bc d3ee 17bd 276f a4bc
-0.0025945937 -0.016747328 -0.015754724 -0.013826547 -0.01691289 -0.03124673 -0.018091317 -0.020710722
-0.0026147177 -0.004801446 -0.015176526 -0.0013178476 0.0028999406 0.011247613 -0.032468714 -0.02109127
-0.0061891833 -0.006480508 -0.006681374 -0.02158455 -0.019506197 -0.015999181 -0.020290641 -0.008867878
0.013954327 -0.020891177 -0.021950219 -0.017857313 -0.016878257 -0.011187939 -0.037092995 -0.020072533
