pretrained_models/Synthie/epoch_200_CalcModel.pth (torch, 76263 bytes, 4 tensors)

MLP.0.weight f4 [96, 96]
0	0x3b9fc68e	0.0048759645
1	0x3c84a0d3	0.016189968
2	0xbbbb4b31	-0.0057157506
3	0x3ca6b456	0.020349663
4	0xbd43786b	-0.04772226
5	0xbd1e3cf7	-0.03863236
6	0xbbf2c3f4	-0.0074086133
7	0xbacbae31	-0.0015539584
8	0xbc418597	-0.011811635
9	0x3c430536	0.011903098
10	0xbc845780	-0.016155005
11	0x3c98ec41	0.018667342
12	0x3c2d5955	0.01058038
13	0x3d1869b3	0.037210178
14	0xbc0dd1e8	-0.008656003
15	0xbcb60c8d	-0.022222782
16	0xbc1cd4ee	-0.009572251
17	0x3d277967	0.040887263
18	0xbd9d62cc	-0.0768486
19	0xbc4467f3	-0.011987674
20	0xbae54870	-0.0017492902
21	0x3ce55818	0.027996108
22	0xbd4da233	-0.050203513
23	0x3c02c9ee	0.007982714
24	0x3d38893d	0.045052756
25	0x3c95167c	0.018199198
26	0xbd007ba5	-0.031367917
27	0xbbb9406d	-0.005653432
28	0xbc176576	-0.009240499
29	0xbb1dd9ee	-0.0024086195
30	0xbc67ee63	-0.014155957
31	0x3c90dc2b	0.01768311
32	0x3b8700bd	0.004119961
33	0xbd032898	-0.032021135
34	0xbd615d30	-0.05502051
35	0x3d008a05	0.031381626
36	0xbc49dea2	-0.012321146
37	0xbb766c91	-0.0037601332
38	0xbc431ee6	-0.011909222
39	0x3c05daef	0.008169874
40	0xbc0e5dcb	-0.008689354
41	0xbcfb95b5	-0.030711034
42	0xbcf095fa	-0.02936839
43	0xbb4e6d28	-0.0031498168
44	0x3c8047f0	0.015659302
45	0xbc488e1b	-0.012240912
46	0xbca983a3	-0.020692652
47	0x3c56d1db	0.013111557
48	0x39fad68a	0.0004784356
49	0x3c3fe4c5	0.011712258
50	0xbda6d362	-0.08145787
51	0x3bd7fe7f	0.0065916176
52	0x3c7637cc	0.015027951
53	0xbc96383b	-0.01833736
54	0xbd384df8	-0.04499623
55	0xbd0a695e	-0.033791892
56	0xbd8b946b	-0.06815418
57	0x3c26c367	0.0101784235
58	0xbc155c0b	-0.009116183
59	0xbd07f744	-0.033194795
60	0xbd6262f3	-0.055270147
61	0xbcdb377d	-0.026759857
62	0xbd385474	-0.045002416
63	0xbc6cba96	-0.014448782
64	0x3d753be6	0.059871577
65	0xbc53072a	-0.012880126
66	0xbd19f174	-0.037583783
67	0x3c6a670e	0.014306797
68	0x3c9098b0	0.017650932
69	0x3c89362f	0.01674947
70	0x3a3a1a74	0.0007099279
71	0xbbce1991	-0.006289669
72	0xbd93dd57	-0.072199516
73	0xbcea47a3	-0.028598612
74	0x3bb5c850	0.0055475608
75	0xbca60b60	-0.020269096
76	0x3c92dbca	0.01792707
77	0xbca1a101	-0.019730093
78	0x3c2ead67	0.0106614595
79	0x3d86137f	0.06546687
80	0x3d9fc064	0.078003675
81	0xbd412072	-0.047150083
82	0xbd63f568	-0.05565396
83	0x3d3e3bac	0.046443626
84	0x3c3d16cb	0.011541079
85	0x3d3d36db	0.046194892
86	0x3ca856f5	0.020549277
87	0x3cd2a54f	0.02571359
88	0x3d680ff2	0.05665583
89	0x3cf17e8b	0.029479286
90	0x3d17c8c0	0.037056684
91	0x3d3fd10e	0.04683023
92	0x3b21121f	0.0024577451
93	0x3cf230dd	0.029564315
94	0x3ca3b3c5	0.019983182
95	0x3d0a3779	0.03374431
96	0x3bf6068c	0.0075081047
97	0xba031af0	-0.00050012674
98	0x3c188794	0.009309668
99	0x3c610d74	0.013736118
100	0xbcb4a007	-0.022048963
101	0xbc72e429	-0.014824905
102	0xbc985aa2	-0.018597905
103	0x3c57a012	0.013160722
104	0x3cc679e6	0.024228048
105	0x3bc2fc0c	0.0059504565
106	0x3c4d33c4	0.012524549
107	0xbc12c5f2	-0.008958327
108	0xbcdbdabe	-0.026837703
109	0xbc30462d	-0.010758919
110	0xbc3b4ab8	-0.011431389
111	0x3be5137a	0.006990847
112	0x3c81a939	0.015827762
113	0x3c8ee582	0.017443422
114	0x3b39786e	0.0028300541
115	0xbb4ea06f	-0.0031528731
116	0xbd0cb806	-0.034355186
117	0xbc2a8617	-0.010407946
118	0x3b125044	0.0022325674
119	0xbb168244	-0.0022965828
120	0xbd2619ca	-0.040551938
121	0xbca1fb8f	-0.019773273
122	0x3d0d2767	0.034461405
123	0x3c7e287d	0.015512583
124	0xbc1535e7	-0.00910709
125	0x3c534f26	0.012897288
126	0x3c6ebf64	0.014571998
127	0xba90ddd4	-0.0011052438
128	0x3cce0c5c	0.025152378
129	0x3d80f508	0.06296736
130	0xbc489ee0	-0.01224491
131	0x3db14207	0.08655172
132	0xbd0afdf3	-0.03393359
133	0xbc40343a	-0.011731202
134	0x3cacc468	0.021089748
135	0x3d13fb07	0.03612807
136	0x3c02a0bb	0.007972891
137	0x3d6009b4	0.054696754
138	0x3d80d422	0.06290461
139	0x3b9f6639	0.004864481
140	0x3d0e2616	0.03470429
141	0xbd849a19	-0.06474704
142	0x3d85e029	0.06536896
143	0x3cc695b6	0.02424131
144	0xbce2a9cf	-0.027668862
145	0x3c6cd1d5	0.014454325
146	0xbcd24d92	-0.025671754
147	0x3c53960e	0.012914194
148	0xbd2c78c8	-0.042107373
149	0x3ce5fb98	0.02807407
150	0xbd03165b	-0.03200374
151	0xbd61d598	-0.05513534
152	0xbca70596	-0.020388406
153	0x3d00f1ff	0.031480785
154	0xbd797bb9	-0.060909007
155	0x3d2608d8	0.040535778
156	0xbcd51e9f	-0.026015578
157	0xbc0ad61b	-0.008473898
158	0x3b311bad	0.0027024553
159	0x3c938d8e	0.018011834
160	0xbc3356ba	-0.01094597
161	0x3d1607f5	0.036628682
162	0xbaa7c53c	-0.0012799869
163	0xbd1618ed	-0.036644865
164	0xbd8dd30e	-0.06925021
165	0x3a13fec8	0.00056455703
166	0x3b88dc50	0.004176654
167	0x3cbdfb08	0.02319099
168	0x3d8049a3	0.06264045
169	0x3d09c4d8	0.03363499
170	0x3cfc0892	0.030765805
171	0x3c9805be	0.018557426
172	0x3d6b044f	0.057377156
173	0xbc229697	-0.009923599
174	0xbd04e78d	-0.032447387
175	0xbd32057c	-0.04346226
176	0x3c474e3b	0.012164648
177	0x3ccc9d6e	0.024977412
178	0xbbdffcd3	-0.006835559
179	0xbcdcd3c4	-0.026956446
180	0xbc02a2e8	-0.00797341
181	0x394a25ac	0.00019278255
182	0xbc142454	-0.009041864
183	0xbcedb375	-0.029016236
184	0x3c82b50a	0.015955467
185	0xbd0ab69d	-0.03386556
186	0x3c52fc03	0.012877467
187	0xbd3e478a	-0.046454944
188	0xbcec3da2	-0.028837983
189	0x3cc9383f	0.024562953
190	0xbc1a9a6c	-0.009436231
191	0xbd0416da	-0.032248355
192	0xbc9c50ec	-0.019081555
193	0xbbb5a74c	-0.005543625
194	0x3b8cdd6b	0.004298856
195	0x3ba5d332	0.005060577
196	0xbc753f2d	-0.014968676
197	0xbcf5ea59	-0.030018972
198	0xbbc99fcb	-0.006153082
199	0xbc0665f4	-0.008203018
200	0xbc6ecef0	-0.014575705
201	0x3a924d5e	0.0011161973
202	0x3c9f3195	0.019432822
203	0x3c3bf6a1	0.011472375
204	0x3c5ffecf	0.013671591
205	0xbd2661b8	-0.040620536
206	0xbb3fde6e	-0.0029276866
207	0xbc1afea0	-0.009460121
208	0xba3a4c8a	-0.0007106742
209	0x3bfea427	0.0077710333
210	0xbd642821	-0.055702332
211	0xbc889723	-0.01667363
212	0xbcf46c69	-0.02983685
213	0x3958a563	0.00020660977
214	0xbcaec0a2	-0.021332089
215	0xbd2a5ce8	-0.04159251
216	0xbd208260	-0.039186835
217	0xbc93c077	-0.01803611
218	0xbc225e1f	-0.0099101355
219	0xbc66d6a1	-0.014089257
220	0xbc63feb9	-0.013915711
221	0xbcca2c01	-0.024679186
222	0xbc562925	-0.013071333
223	0xb981e070	-0.00024772016
224	0xbbbeae6c	-0.0058191326
225	0xbce4a482	-0.027910475
226	0xbbaf1f1d	-0.005344285
227	0xbca3edda	-0.020010877
228	0xbdcdfa98	-0.100575626
229	0x3c9dc824	0.019260474
230	0xbd841bbb	-0.06450602
231	0x3b5eb5a0	0.0033982769
232	0x3c0b23cd	0.008492422
233	0xbcb9aa14	-0.022664107
234	0xbc90a32c	-0.017655931
235	0x3cc426e3	0.023944324
236	0x3cbaf5d3	0.022822296
237	0xbdaaceaf	-0.08340203
238	0xbd3f61ff	-0.046724316
239	0xbc5d7a35	-0.013517906
240	0xbd88bff5	-0.06677238
241	0xbb4e9b8a	-0.0031525814
242	0xbbeefba6	-0.0072931824
243	0x3d0a0da9	0.033704434
244	0xbd8b5ad0	-0.068044305
245	0xbda9c3ae	-0.08289276
246	0xbdd7cec4	-0.10537484
247	0xbcf628c7	-0.030048741
248	0xbc67a669	-0.014138796
249	0xbc9d2020	-0.019180357
250	0xbdbfec49	-0.0937124
251	0xbd9b45b9	-0.07581658
252	0xbc72f928	-0.014829911
253	0x3c6cce94	0.014453549
254	0x3bd916a5	0.006625014
255	0xbd609ded	-0.05483811

MLP.0.bias f4 [96]
0	0xbd08f8a4	-0.033440247
1	0xbd01aaaf	-0.031656917
2	0xbe1e6780	-0.1546917
3	0xbd2c7fa2	-0.042113908
4	0xbd013494	-0.031544283
5	0x3cb4e1bf	0.0220803
6	0xbe32b1e9	-0.1745068
7	0xbdcb806b	-0.09936603
8	0x3ccda212	0.025101695
9	0xbcf5ad37	-0.029989822
10	0xbe2b71bb	-0.16742603
11	0xbd0b0bea	-0.03394691
12	0xbdb70477	-0.089363985
13	0x3cc082d1	0.023499878
14	0xbe296347	-0.16541778
15	0xbdb2ac84	-0.08724311
16	0x3d43b222	0.047777303
17	0xbe39083e	-0.1806955
18	0x3cfb9765	0.030711839
19	0xbd15cf1b	-0.036574464
20	0xbcaab1fa	-0.020836819
21	0x3d10a709	0.035315547
22	0xbd787155	-0.060654957
23	0xbca24bbe	-0.019811507
24	0xbdf011d0	-0.117221475
25	0xbe8acab2	-0.2710777
26	0xbe304667	-0.17214356
27	0xbe4a7277	-0.19770227
28	0xbe82b229	-0.2552655
29	0xbe7c091d	-0.24612851
30	0xbe099cb1	-0.1343868
31	0xbe3147dd	-0.1731257
32	0x3d000361	0.031253222
33	0xbe97f3fc	-0.29678333
34	0xbdec10a8	-0.115266144
35	0xbda5226a	-0.080632046
36	0xbcce9f00	-0.025222301
37	0xbda469e3	-0.08028009
38	0xbc14778c	-0.009061705
39	0xbb50c1f0	-0.0031853877
40	0xbe82b519	-0.25528792
41	0xbe921c1f	-0.2853708
42	0xbd818095	-0.06323353
43	0xbdf56f76	-0.1198415
44	0xbe208ed0	-0.15679479
45	0xbe230b43	-0.15922265
46	0xbb88ad26	-0.0041710315
47	0xbe53e3f2	-0.20692423
48	0x3d82c191	0.06384576
49	0xbd2aefd9	-0.041732643
50	0xbe2a0ae0	-0.16605711
51	0xbe3fc34a	-0.1872684
52	0xbc25d228	-0.010120906
53	0xbe19c8ce	-0.15018007
54	0xbe43b79d	-0.19113012
55	0xbe31b13d	-0.17352767
56	0xbdadc8ff	-0.084856026
57	0xbdaaf06f	-0.0834664
58	0xbca70005	-0.020385752
59	0xbdd721ed	-0.10504518
60	0xbc9e9f7d	-0.01936316
61	0xbc4f6a59	-0.012659633
62	0xbdc14e79	-0.094387956
63	0xbad11187	-0.0015950658
64	0xbdb40f8b	-0.08792027
65	0xbdfde8bf	-0.123979084
66	0x3cc3f1dd	0.02391904
67	0xbe1e6501	-0.15468217
68	0xbe8914a3	-0.26773557
69	0xbe7404db	-0.23829977
70	0x3dcedd9c	0.101008624
71	0xbe1f49f5	-0.15555556
72	0x3cfabf1c	0.030608706
73	0xbe2dda4c	-0.16977805
74	0x3d234972	0.039864965
75	0xbcaf6b37	-0.021413429
76	0xbe46cdd8	-0.1941446
77	0xbe5ee5b3	-0.21767311
78	0xbde08783	-0.10963347
79	0xbd67941d	-0.056537736
80	0xbe1839c2	-0.14865783
81	0x3d1b0b64	0.03785266
82	0xbe2b8368	-0.16749346
83	0xbe2ff05d	-0.17181535
84	0xbda2ec19	-0.07955188
85	0x3b387d5f	0.00281509
86	0xbcaebaf6	-0.021329384
87	0xbdabbd79	-0.083857484
88	0xbd3d294a	-0.046181954
89	0xbcd68f69	-0.02619143
90	0xbd6f0463	-0.058353793
91	0x3d442dea	0.04789535
92	0x3c82d4b2	0.015970562
93	0xbb1e7dd9	-0.0024183898
94	0xbc5c5b02	-0.013449432
95	0xbccb7abb	-0.024838796

MLP.2.weight f4 [96, 96]
0	0x3c955b0c	0.018231891
1	0x3c8eb7f0	0.017421693
2	0xbb816848	-0.003949199
3	0x3c1c1ca3	0.009528312
4	0x3c158e61	0.009128184
5	0x3c7aa945	0.015299146
6	0xbc734c09	-0.014849671
7	0xb94fa912	-0.00019804042
8	0x3abfc588	0.0014631012
9	0x3c000c02	0.007815363
10	0xbc859bc3	-0.016309625
11	0xbb381eba	-0.0028094486
12	0xbc638fba	-0.013889248
13	0xbcb6478f	-0.022250919
14	0x3bcd6100	0.006267667
15	0x3c3377be	0.010953842
16	0xbcdb6305	-0.026780615
17	0xbba9ad75	-0.0051781484
18	0xbc72d4f5	-0.014821281
19	0x3c381945	0.0112364935
20	0x3c8cd493	0.017191207
21	0x3c18680e	0.009302152
22	0x3c4040e0	0.011734217
23	0x3bdb14a6	0.006685811
24	0xbc02ced2	-0.00798388
25	0xbc4d7244	-0.01253945
26	0xba9ead25	-0.0012106044
27	0xba9e2bc3	-0.0012067485
28	0xbc0c6d2b	-0.00857095
29	0xbc7774eb	-0.015103559
30	0xbb9eecb5	-0.004849995
31	0xbab3b592	-0.0013710728
32	0x3cb3523f	0.021889804
33	0xbc3c9ba3	-0.011511716
34	0xbb4539f5	-0.003009436
35	0xba510891	-0.0007973994
36	0x3ba4be38	0.0050275587
37	0x3a277913	0.0006388586
38	0x3c1f4959	0.009722077
39	0x3c8e6062	0.017379943
40	0xbc295ea9	-0.01033751
41	0xbc3b64a2	-0.011437567
42	0x3bf244fb	0.007393477
43	0xbc3f7fc5	-0.0116881775
44	0xbbef2ca4	-0.0072990227
45	0x3aeff23f	0.0018306448
46	0x3c290526	0.010316169
47	0xbbaaf921	-0.0052176868
48	0xbc5a655b	-0.013329829
49	0x3b62abe3	0.0034587316
50	0xbc277e6e	-0.010223014
51	0xbb85c9a1	-0.004082874
52	0x3c6eaf56	0.0145681705
53	0x3acc7fd0	0.0015602056
54	0xbbc22043	-0.005924256
55	0xbc3bb929	-0.01145772
56	0xbc5aec76	-0.013362041
57	0xbc19ae4a	-0.009379933
58	0x3c5fe5c8	0.013665624
59	0xbbaad252	-0.0052130604
60	0x3c31d2cd	0.0108534815
61	0x3ba32164	0.0049783457
62	0x3b099e56	0.0020998917
63	0x3ca2ff87	0.019897236
64	0x391c450c	0.00014903041
65	0x3a9381b0	0.001125386
66	0x3af8bf5e	0.001897793
67	0xbbade494	-0.0053067897
68	0xbad418a6	-0.0016181662
69	0xbbd30581	-0.006439865
70	0xbc9d8051	-0.019226225
71	0xbc453a29	-0.012037792
72	0xbc36cdff	-0.011157512
73	0x3c0255d1	0.007955031
74	0xba09808e	-0.00052452914
75	0x3ca69b75	0.0203378
76	0xbab09e18	-0.001347485
77	0xbc3d99fc	-0.011572357
78	0xbb5612aa	-0.0032664933
79	0x3b04ddfa	0.002027391
80	0xbb8345ae	-0.004006109
81	0xbb57004b	-0.003280657
82	0xbc40d3f3	-0.011769283
83	0xbc644f49	-0.013934919
84	0x3b954b9e	0.0045561334
85	0x3be435d1	0.006964423
86	0x3c2b963c	0.01047283
87	0xbb9c191a	-0.0047637345
88	0x3be70509	0.007050161
89	0x3c6f7ab9	0.014616662
90	0x3bcdb4ab	0.006277641
91	0xbc8e4de5	-0.017371127
92	0x39895e69	0.00026201017
93	0x3c57facc	0.013182353
94	0x3d015dc0	0.031583548
95	0x3b98e022	0.0046653906
96	0xbac5875a	-0.0015070245
97	0x3ce319e7	0.027722312
98	0xbb90c324	-0.004417794
99	0x3b01e42d	0.0019819841
100	0xbb04a0fb	-0.0020237553
101	0x3c1bae48	0.009502001
102	0xbc377d73	-0.011199343
103	0xb9633332	-0.00021667479
104	0xb9ffacc9	-0.00048766125
105	0x3adbe64a	0.0016777006
106	0xbc2c3d69	-0.010512688
107	0xb592a0e0	-1.0924668e-06
108	0xbbe3cce2	-0.006951914
109	0xbc2970f9	-0.010341876
110	0x3a9f935e	0.0012174656
111	0x3c56aaed	0.013102275
112	0xbb8a83e4	-0.0042271484
113	0xbac1c1d7	-0.00147825
114	0xbb461324	-0.003022381
115	0x3b2ed483	0.002667696
116	0x3ca1ad93	0.019736087
117	0x3b1f6214	0.0024319934
118	0x3b4967e5	0.0030732092
119	0x3bf2f29b	0.0074141747
120	0xbb107409	-0.0022041819
121	0xbbdefef4	-0.006805295
122	0xba6917a4	-0.00088917674
123	0x3a9acee1	0.0011810922
124	0xbb891341	-0.0041832034
125	0x3c1375b9	0.009000235
126	0xbb9eef9d	-0.0048503415
127	0xbc59416c	-0.013260227
128	0x3c008156	0.007843336
129	0xba966b75	-0.0011476116
130	0xbc5d86a6	-0.013520872
131	0xbb6afc03	-0.0035855777
132	0x3b13e473	0.0022566586
133	0x3b76e7d6	0.0037674806
134	0x3badfe6e	0.0053098714
135	0x3cd45da7	0.025923563
136	0xbc6b2eb6	-0.0143543985
137	0xbbec1de7	-0.007205713
138	0x3a43bebf	0.0007467083
139	0xbc14484b	-0.009050439
140	0xbc34f083	-0.011043671
141	0xbb66641f	-0.0035154892
142	0x3c773af9	0.015089744
143	0xbb91fc73	-0.004455143
144	0x3a79b13e	0.00095250073
145	0xbaa7bf3a	-0.0012798079
146	0xbba7ab99	-0.0051168916
147	0xbc70cb0c	-0.014696848
148	0x3bbec8e1	0.0058222865
149	0x3c074fc8	0.008258767
150	0xba1df804	-0.0006026032
151	0xbc237363	-0.009976241
152	0xbbfbf350	-0.007688917
153	0xbbf545e1	-0.007485137
154	0x3bdfc992	0.006829449
155	0xbabff6d5	-0.0014645705
156	0x3b2b3ca2	0.002612867
157	0x3aca9584	0.0015455936
158	0x3a724416	0.0009241713
159	0x3bf39b5f	0.007434293
160	0xbc2702ba	-0.010193521
161	0xbb39737f	-0.00282976
162	0x3c376391	0.011193172
163	0xbaf0feb5	-0.0018386455
164	0xbba8e666	-0.0051544188
165	0x3c729eef	0.0148084005
166	0xbbbd63a6	-0.0057797013
167	0xbc312b3e	-0.010813532
168	0xbba36ee8	-0.0049875863
169	0xbadafb0d	-0.0016706899
170	0xba7f11ad	-0.0009730112
171	0x3be2ba42	0.0069191763
172	0xbb32e25b	-0.0027295563
173	0xb8f1e686	-0.00011534714
174	0xb9c30558	-0.0003719728
175	0x3b1cb9d2	0.0023914468
176	0x3b6f1b1b	0.0036484662
177	0xbb8c1d93	-0.0042759865
178	0xbc0b6e17	-0.008510134
179	0xbc66d881	-0.0140897045
180	0xbb021d17	-0.0019853765
181	0x3c0be13e	0.008537589
182	0x3bdd03ef	0.0067448537
183	0xbbf7f49e	-0.0075670024
184	0xba77dc00	-0.0009455085
185	0x3c84204e	0.016128685
186	0x3ba0cc1c	0.0049071442
187	0xbc53df69	-0.012931683
188	0xbb7930c9	-0.0038023463
189	0x3c297bfd	0.0103445025
190	0x3bbad586	0.0057017235
191	0x3b3af644	0.0028528133
192	0xb981e7aa	-0.000247774
193	0x3c84de92	0.016219411
194	0x3aff6210	0.0019484181
195	0xb910e86b	-0.00013819493
196	0x3b9aad6e	0.0047203815
197	0x3b0ca4c5	0.0021460515
198	0x3ae4fff3	0.0017471298
199	0xbb5fd908	-0.003415646
200	0x3b613370	0.0034362935
201	0xb97978c2	-0.00023791476
202	0xbbbb33e8	-0.005712975
203	0x3b9d950b	0.004809027
204	0xb968e5e5	-0.00022210887
205	0xbba821c3	-0.005130978
206	0xbb9c4b39	-0.0047697094
207	0x3b5e2098	0.003389394
208	0xbb50bffb	-0.003185271
209	0xbb7f1215	-0.003892069
210	0x3a99f8c2	0.0011747109
211	0x3b5d2a1d	0.0033747025
212	0x3c0493a9	0.008091846
213	0xbba94547	-0.005165729
214	0x3ae00178	0.0017090281
215	0x3b6977b2	0.0035624322
216	0x3a86a3cf	0.0010272207
217	0xbbac822c	-0.005264541
218	0x3b8f3fd5	0.004371623
219	0xbb09a018	-0.0020999964
220	0xbb8d9344	-0.004320534
221	0xbb96f385	-0.0046066665
222	0xbbcdd8df	-0.0062819566
223	0xbc149875	-0.009069552
224	0x3b820bfc	0.003968714
225	0x3a206e1c	0.0006119923
226	0xbb9c2120	-0.004764691
227	0x3a7ce3a7	0.000964696
228	0x3bda9d32	0.006671571
229	0x3bae6218	0.0053217523
230	0x3b6057a4	0.0034231925
231	0x3b43deee	0.0029887515
232	0xbc344b15	-0.011004229
233	0xbb82e1cd	-0.0039942027
234	0x3b3e07f1	0.0028996433
235	0x394debd7	0.0001963818
236	0x3b876eca	0.00413308
237	0xbb032f85	-0.0020017338
238	0x3b83090b	0.0039988807
239	0x3a231054	0.00062203896
240	0xbada04b0	-0.0016633477
241	0xbb62b11f	-0.0034590436
242	0xbb052976	-0.0020318902
243	0xbc306c34	-0.010767985
244	0x3b35dbe6	0.0027749478
245	0xbb4b81d9	-0.0031052737
246	0x3b88c5be	0.0041739633
247	0xbc0d37c7	-0.008619255
248	0x3a3e2f6e	0.00072549924
249	0xbaa7e54e	-0.0012809427
250	0x3bdc8d31	0.0067306985
251	0xbaf4778c	-0.001865135
252	0x3b293894	0.0025821077
253	0x3b307ab6	0.002692861
254	0x3b725084	0.003697426
255	0x3bacb935	0.005271102

MLP.2.bias f4 [96]
0	0xbbd75bf9	-0.0065722433
1	0xbbb294a8	-0.00544985
2	0xbb77800c	-0.003776553
3	0xbbd656f9	-0.0065411297
4	0xbc675e8d	-0.014121664
5	0xbbce9b1d	-0.006305112
6	0xbbae8e39	-0.005327013
7	0xbb107bd1	-0.0022046457
8	0xbba7b899	-0.0051184413
9	0xbb90a9eb	-0.004414787
10	0xbb79619b	-0.0038052562
11	0xbbf6d7b1	-0.0075330366
12	0xbad78901	-0.0016444029
13	0xbb931bd9	-0.0044894037
14	0xbbbdce84	-0.005792441
15	0xbb19ead0	-0.0023485906
16	0xbba7ab53	-0.005116859
17	0xbbebbe52	-0.007194319
18	0xbbe03985	-0.0068427944
19	0xbb7c2af6	-0.0038477755
20	0xbc003b4e	-0.007826639
21	0xbc0981b4	-0.00839274
22	0xbbcb8ac1	-0.006211609
23	0xbb31e6d1	-0.0027145634
24	0xbbf98f47	-0.007615957
25	0xbb76eeda	-0.0037678988
26	0x3b37d62b	0.0028051238
27	0xbb4cce56	-0.0031250915
28	0xbb394092	-0.0028267247
29	0xbc064acd	-0.008196545
30	0xbbd16bba	-0.006391016
31	0xbab966ee	-0.0014145055
32	0x3ace7f5a	0.0015754506
33	0xbad11683	-0.0015952144
34	0xbaf68e16	-0.0018810655
35	0x3b8323de	0.0040020784
36	0xbae55a18	-0.0017498164
37	0xba223cdc	-0.00061888783
38	0x390c2fba	0.0001336922
39	0x39fe554f	0.00048510215
40	0x3a2596e9	0.0006316738
41	0xbaf1b258	-0.0018439991
42	0xbb08c006	-0.0020866408
43	0x3a1c81ab	0.000597025
44	0x37b7ce98	2.1911503e-05
45	0xbb21fc5e	-0.0024717073
46	0xbabc7e36	-0.0014380876
47	0xba97cd39	-0.0011581547
48	0xbb09ff17	-0.0021056586
49	0xba26d193	-0.00063636265
50	0xbb868859	-0.0041056094
51	0xb9b8214a	-0.00035120017
52	0xbb162150	-0.002290804
53	0xb9d11cb1	-0.00039884963
54	0xbae867a1	-0.0017731079
55	0xbb293145	-0.002581672
56	0xbb6cf07a	-0.0036154077
57	0xba653548	-0.0008743596
58	0xbb0fe109	-0.00219542
59	0xba1808cd	-0.0005799651
60	0xbb8e3656	-0.0043399734
61	0xbb234e1e	-0.0024918388
62	0xbb14ef3c	-0.0022725603
63	0x38e77fa4	0.00011038713
64	0x3a49616a	0.00076820573
65	0xbbc24227	-0.005928296
66	0xbbdbe68c	-0.006710833
67	0x3b2f6e67	0.0026768686
68	0x3be2786a	0.006911327
69	0x3aa6acf8	0.0012716344
70	0x3b9bb529	0.0047518206
71	0xbb2e3a99	-0.002658522
72	0xbbfd70ef	-0.00773441
73	0xba54be3d	-0.0008115506
74	0xbb5f241d	-0.0034048625
75	0xbc7f5244	-0.0155835785
76	0xbbba3baf	-0.0056833844
77	0xbb8a8011	-0.0042266925
78	0x3ba85f4c	0.0051383134
79	0x3c1b5090	0.009479657
80	0x3ba09d47	0.0049015614
81	0x3a53d115	0.0008080167
82	0xbc053cf8	-0.008132212
83	0x3c8adff7	0.016952498
84	0x3b5674e2	0.0032723476
85	0x3c0921e1	0.008369894
86	0x3bb41d5e	0.005496665
87	0x3bd7e2cf	0.006588317
88	0xbba66dd6	-0.0050790114
89	0x3b168d70	0.0022972487
90	0xb8cc9534	-9.755269e-05
91	0x3aab765b	0.0013081537
92	0xb9f0b733	-0.0004591286
93	0x3b922ad1	0.0044606705
94	0x3c098ed8	0.008395873
95	0x3af410d1	0.0018620734
